models/Ant-v2/actor_critic_20241114_020625.pth (torch, 50657 bytes, 7 tensors)

fc.0.weight f4 [64, 111]
00000000: 4ea1 df3d baad 0f3e 2df2 243e ebb2 bebd
00000010: fb89 0fbe 7b8b e33d 5943 b03d ecf4 0b3d
00000020: 952c 1dbe cb9c af3d 66fe 20be de74 ed3c
00000030: 097c 593d acb1 1dbe 5677 b43d 52a9 20be
00000040: 0311 973c ed7e cd3d 377a 083e 75f9 26be
00000050: 9029 60be b7aa 20be 458f babc 71d5 70be
00000060: 0d1a e5bd 2df9 64be 46e1 94bd 94f2 003d
00000070: 94e4 993d 695b b53d d37c 2cbd 52d2 55ba
00000080: 9a46 eb3c d3ac 663d 44f1 b53d 1285 5cbb
00000090: 2ab7 a53c 5ef7 09bd f5d9 b93d 8a58 b93d
000000a0: b4ef 8ebd 8f57 203d 1551 23bc ae68 51bc
000000b0: afdc f33c 6630 b3bd 0afb a83c af80 973c
000000c0: 3ba8 76bd d1b4 1dbb 3557 793d 413f 8c3c
000000d0: ea87 70bd aca0 8abd da83 4bbb 3c15 b5bd
000000e0: eb9e 0b3c 0b1d bc3d 02d0 1fbd 8ff3 7c3d
000000f0: 59e6 8abd dda2 57bd e69a ecbc 45c3 163d
00000100: 6c16 ac3d f25e 6cbd 8865 6ebb 69fa 5cbd
00000110: 9618 c83c 26a5 84bc 955c f83c e35a 36bd
00000120: 7242 0ebd bb58 61bd 2648 b73d 0f75 f1bc
00000130: 6b2c 25bd 7afd 453d 4281 0abd bc6e aebd
00000140: 91d2 e8b9 7096 80bc 2d37 babd cdf9 b2bd
00000150: f9f3 af3d 117a c23c e412 19bd 6c27 633d
00000160: bb6f 8b3d 9743 aebc c39b 85bb 2fe2 1d3c
00000170: 8bc2 9abd 7baf c03d 590d 983c f860 4f3c
00000180: 09f1 63bd 05d9 ee3c 8728 e4bb 3574 003d
00000190: 87ef b6bc 641c 8f3d 25da 9ebd ed13 b93c
000001a0: 5826 a5bc 1b0d 343c 78e7 743d 31bf 9c3d
000001b0: aa29 953d 9316 02bd e724 a8bd 6d57 b13d
000001c0: f297 953d be96 563d ca2e 9f3c b26b d1bd
000001d0: 821a 0bbd 8ea7 553d 81c5 40bc b408 68be
000001e0: e6c8 143c 34d9 63bd 666d ab3c 4b73 133c
000001f0: b3b3 ec3d a0f8 bd3d 5da4 15be 5597 e63d
00000200: efcb 3dbe 4db2 05be 6b17 623e fd9d fe3d
00000210: 2004 323e af4e f23d e838 e83d 6b7a 1f3e
00000220: cf02 543e 7c30 283e b7d3 733d 0a68 1a3d
00000230: 662c b5bd e952 b3bd 8b64 bebc ddad 4eb9
00000240: 7691 0c3d 7c27 c2bd 7cfb 0d3c c421 57bd
00000250: 9834 dbbb b47c 2dbd ec5b 5e3d 15fc 8e3d
00000260: 1d47 5abc b7d5 be3d 85ce e93c d356 b43d
00000270: 5947 09bd fc84 2f3d 9271 95bc 1b91 933c
00000280: b23e 8ebd b656 c13d 5835 b43d 6f8f 963c
00000290: 5149 843c e94e 5dbc 801f 1b3d 8cbc a63d
000002a0: 0748 9f3d 3c9f 523d a684 403d 2bd1 2fbd
000002b0: e9e7 87bc aec5 8c3c 4d74 73bd 6b4f 663d
000002c0: 0150 193d 8052 a2bd 833b 5e3d f8cd 853d
000002d0: e163 c13d c6b6 983d 8be2 93bd 725b ee3c
000002e0: 1301 3e3d 19a3 2d3d 9e3f 1fbd 3fc0 bbbc
000002f0: 4588 69bd f500 97bd 6b2e f9bc e132 a7bd
00000300: d240 08bd a911 713d 85aa 79bd d281 abbc
00000310: 8fe1 483d d699 933d cc9f bfbd 7a65 263d
00000320: a5d9 8dbd d7b1 3f3c da4e bfbd 51eb 66bc
00000330: 9776 48bd ad8c 8dbd 133d b53d a0b6 65bd
00000340: d0ab 7f3d 001d c0bb e3a4 a1bd e2b0 3b3d
00000350: 2366 af3d 2cef 813d 1c54 cf3c a3d8 4b3d
00000360: fe4a 653d 5c59 e8bc 6a8d 183d 1f85 ffbc
00000370: 3c6f b93c 13f2 fcbc a880 353e 268e b13d
00000380: b9ac 1b3e 4fef 1bbd c490 85bd 68e1 2a3d
00000390: dcf2 413d 5469 d13d 4fac 22be 1983 203e
000003a0: 0512 08be d91e b33b b215 c63d 037c 81bd
000003b0: f2ba e23d 988b 1dbe bd43 f3bc 671c 513c
000003c0: 45c0 0f3e eef5 fcbd d05d 23be d981 94bd
000003d0: 9123 2fbe 7a0f 2bbd 9276 60bd 19ee 74bd
000003e0: 867e 5cbe 543b c0bc 1722 933d 7e96 11bc
000003f0: 9fdb 303d 8127 033d feee bdbd 9958 f63c
0.10919438 0.14031115 0.16108008 -0.0931147 -0.14017479 0.11110588 0.086065955 0.034169123
-0.15349038 0.08574828 -0.15722045 0.02898639 0.053096805 -0.15399808 0.08811824 -0.1568959
0.018440729 0.10033975 0.13327871 -0.16306098 -0.21890855 -0.15690123 -0.022773394 -0.23518921
-0.111866094 -0.22360678 -0.0726953 0.03148134 0.07514301 0.08855326 -0.04211123 -0.00081566453
0.028720189 0.05631716 0.088839084 -0.0033648652 0.020228941 -0.033683173 0.09074775 0.090500906
-0.069793135 0.039146002 -0.009968062 -0.012781305 0.029768316 -0.08749466 0.020627517 0.018493978
-0.06021903 -0.0024064074 0.060874183 0.017120006 -0.058723368 -0.06768927 -0.0031053931 -0.08841941
0.008521776 0.09185227 -0.03901673 0.061755713 -0.067822166 -0.052645553 -0.028882455 0.036807317
0.08402714 -0.057707734 -0.0036376435 -0.053949747 0.024425786 -0.01619203 0.030317584 -0.04452027
-0.034731336 -0.05501626 0.08949308 -0.029474763 -0.040325563 0.048337437 -0.033814676 -0.08517215
-0.00044407372 -0.015696734 -0.09092555 -0.08739052 0.08591456 0.023739846 -0.03737153 0.055457518
0.0680842 -0.021272464 -0.004077406 0.009636446 -0.075566374 0.0940847 0.018561052 0.0126573965
-0.05564979 0.029156217 -0.006962839 0.031360824 -0.022331012 0.06987837 -0.077564515 0.02259251
-0.020159885 0.010989453 0.05979106 0.07653654 0.072833374 -0.03175981 -0.082101636 0.08659253
0.07304372 0.052389853 0.01943149 -0.102256194 -0.033960827 0.052161746 -0.011765839 -0.2265957
0.009081101 -0.055627063 0.020926189 0.008999656 0.115577124 0.09275937 -0.14613481 0.11259333
-0.18534826 -0.13056298 0.22079246 0.124324776 0.17384386 0.11831414 0.11338979 0.15574042
0.20704196 0.16424745 0.05952808 0.037696876 -0.08846359 -0.08756048 -0.023241302 -0.0001971046
0.03431841 -0.09480187 0.008665916 -0.052522436 -0.0066896193 -0.042355254 0.054286882 0.069816746
-0.013322619 0.093181066 0.028540859 0.08805623 -0.033515308 0.042851433 -0.018242631 0.018013528
-0.06945552 0.09440367 0.08799237 0.018378941 0.016148241 -0.013507583 0.037871838 0.08141431
0.0777741 0.05142139 0.047001503 -0.042924087 -0.016590076 0.017184105 -0.059437085 0.056228083
0.037429813 -0.07925892 0.054255974 0.06533426 0.094428785 0.07456736 -0.07220944 0.029096339
0.046387743 0.04239187 -0.03887903 -0.022918819 -0.057014722 -0.073732294 -0.030417642 -0.08164001
-0.033264942 0.058854733 -0.060953636 -0.020935927 0.049043234 0.07207076 -0.09356651 0.04062412
-0.06926278 0.011700115 -0.093412116 -0.01409419 -0.04894122 -0.069115974 0.088495396 -0.056082368
0.062419713 -0.005862832 -0.07892778 0.045822985 0.08564403 0.063444465 0.025308661 0.049767148
0.05597972 -0.028362922 0.037244238 -0.031191407 0.022636048 -0.030877149 0.1772486 0.08669691
0.15202607 -0.03807002 -0.065217525 0.04171887 0.04735075 0.10225168 -0.15886043 0.1567501
-0.13288124 0.005466324 0.09672107 -0.063224815 0.11070813 -0.15385282 -0.029695386 0.012763119
0.14038189 -0.12351595 -0.15953755 -0.07251329 -0.17103411 -0.041762806 -0.054800577 -0.05979738
-0.2153264 -0.02346579 0.071842365 -0.008885978 0.043178197 0.032020096 -0.092741 0.030071544

fc.0.bias f4 [64]
00000000: e535 753e 113b 953d a855 f63d 6c3b 4b3e
00000010: b5f3 ba3d c339 793e d640 003e 429f 363d
00000020: 002c b93e 82f6 4f3e 96b5 d23d ec44 c73d
00000030: 4b0b 5e3e e8e4 3a3e 361e 6c3e d1ba 3b3d
00000040: a274 213e e2c8 393e 91de 5f3e 9c0b 4a3e
00000050: 8ea9 603e d56c 7a3e 17c6 063e cc7a ed3c
00000060: 2910 533e 7ef4 433e f361 663e c1f8 3e3e
00000070: a854 103e 1741 433e b733 c43d fc20 ef3d
00000080: 5f4c 633e 1a66 533e cd70 093e c47b e93d
00000090: da9b 393d e13f 1e3e b5f6 ad3d da3b 4a3e
000000a0: 83d2 d03d e149 673e 7c3f 683e 84e3 073e
000000b0: 7776 ff3c 66c8 f23d 0361 6b3e 941f 4f3e
000000c0: e59c 403e 4902 903e 2501 db3d 66d2 ad3d
000000d0: 9b0e c33d ef1d 473e ca27 283e 5763 f83d
000000e0: 1dd8 383e 272a 2f3e ec0a 683d 2953 3a3d
000000f0: bbe9 203e 26b3 8a3e d28a 303e fa7f 863e
0.2394634 0.07286657 0.120280564 0.19846886 0.09128515 0.2433844 0.12524733 0.044585474
0.36166382 0.20308879 0.10288541 0.09729943 0.21683995 0.18251383 0.230584 0.04583246
0.15767148 0.18143037 0.21862246 0.19730991 0.2193968 0.24455579 0.13161503 0.028989218
0.20611633 0.19136235 0.22498302 0.1864958 0.14094794 0.19067799 0.09580176 0.11676213
0.22197102 0.20644417 0.13421936 0.114005595 0.045314647 0.15454055 0.08494321 0.19749394
0.10196402 0.22586776 0.22680467 0.13270384 0.031184418 0.11854629 0.22986226 0.2022689
0.1880985 0.28126743 0.10693578 0.08487396 0.0952427 0.19445013 0.16421428 0.121283226
0.1805119 0.17105924 0.05665104 0.045489464 0.15714161 0.27089804 0.17240456 0.26269513

fc.2.weight f4 [64, 64]
00000000: fb73 e23d e605 773d 16f2 a2bb 8ca1 e5bc
00000010: 7e9d 1c3e 8abd 8f3d d06c 453c b33f 063e
00000020: 6c1e 5cbe 781d 97bc dcd3 d5bc 6f8f abbd
00000030: 25c9 96bd 6ebe 163e 407a 1fbe 634f f9bc
00000040: 5f3d 12ba 6021 2cbd 9ea5 c53c 6332 5e3d
00000050: 8cf4 8ebd 6761 2e3c 1cc4 83bc e959 c3bd
00000060: de8a 973d 5e87 963b d367 1e3d 5ed7 81bd
00000070: aaa1 5c3a c4af a03d bac2 c23d 4d15 0ebb
00000080: 8abb 253e a1e9 5bbd 2242 bfbd 6f11 e23d
00000090: 95f2 b5bc 45b0 783d 266f 1b3c c190 1c3e
000000a0: a726 a1bd ad55 d43d e5a0 46bd a23a dcbc
000000b0: 3adc e73d 0aab 3cbd 1154 1bbd 2c6c 86bd
000000c0: 6d41 9d3d c6e4 6dbe 33b6 7b3d 324d 453d
000000d0: 6c90 ee3c 05dc debd 91a2 26be 9dcc 203e
000000e0: 1621 6bbd 096f 123e 6b8e 70bc 11f1 2c3d
000000f0: 1bd3 5bbc 7c39 9bbb eb20 2c3d 4b6b 46be
00000100: b58f 393d 3750 cfbd de7c 6a3d f327 653d
00000110: 2f21 043d 9414 01be 8cc1 22bc 53ae ae3b
00000120: 5b00 b1bd 71e0 773d 0f52 1b3e df56 02bd
00000130: 2166 a63d c9f3 0ebd f21b afbd 3713 a93c
00000140: e1ce abbd ea10 90bd 8f90 ce3d 26ed 103e
00000150: c3fe 52bc b99c a43c 9a49 aabd a809 f2bc
00000160: 6f96 1bbc 24b9 17bd 255f 87bd 8a10 ea3d
00000170: dc58 d03d 902a c23d bcdc 223e 4620 5f3d
00000180: bb85 9c3b 2c82 913d be74 38be f511 ecbc
00000190: 30b3 f23d 4491 733d 5aff e33d e628 093d
000001a0: f189 053e 2769 aa3c 1651 c8bd 2531 e33b
000001b0: b019 173e 9c27 313d 10e0 d23d 199c 053e
000001c0: 64e5 1a3d 26f5 5cbe 3ec9 8dbc 8abd 1f3e
000001d0: 3b85 1a3d 1fcb f13c 52df e7bd d57a 0fbd
000001e0: 09e0 54bc e2ec e83c 2f91 47bc 1a39 e33c
000001f0: b61f fabc 47e8 1cbe 2243 433d d1d9 7ebe
00000200: 2b16 9c3d e75b 05bd d21a 76bc 1ed9 eb3d
00000210: 2b28 c7bc 0f5f d63d a02d 263e 6826 003e
00000220: d0fe 63be fbbc c0bd a33c a5bd 5df9 f93d
00000230: 7fa8 5dbc 69f9 22bd 96f2 55bd 0464 b63d
00000240: ff79 0e3e 6803 35bc 5540 3f3b 8bbb e7bb
00000250: 382c 85bd a51e 91bd 9c19 873d f3b2 9abd
00000260: 25b5 da3b 4c41 053d 3c73 103e 6ebc 1ebd
00000270: d0c7 a43c c297 55bc 2ff9 2c3e a955 8bbd
00000280: 27b1 1a3e 5819 a23d 4764 0ebe 0bf7 75bc
00000290: 4c35 c5bb e5e3 54bd 944b 7e3d 2644 1d3e
000002a0: a19e 803c 01ac b2bc a767 55be 7fbf fb3d
000002b0: 18f5 153e ca81 f5bc 268c 89bd 3a45 3fbd
000002c0: a60c bb3d ebd1 8cbe a4ca d03d 3d0c 17bd
000002d0: e800 b03d e795 243d df63 9fbe 4d82 113c
000002e0: 095a b0bc 1b4c f23d c851 aebc 4fa9 133e
000002f0: 0b01 043e 3fdc 36be 6907 cc3d 6acc 8cbe
00000300: 38fb 65bd 90ec 7f3d 2856 ea3d e4da edbd
00000310: a43c cbbd f7c4 aa3b 8046 7d3b d089 26bd
00000320: 8cbd bcbd f866 d4bd f861 00bd 7e27 22bd
00000330: 0a89 64bc fd88 803d 6736 cdbc 659e d13d
00000340: e2eb 99bc e881 69bd 8d07 71bd e670 803d
00000350: e00c 5f3c 82ca f7bd 9a11 5bbc 425d 3e3d
00000360: 8cf3 aabd 74a4 c9bd 29ab 22bc 298f 3bbc
00000370: 2d10 abbd 0069 173c a951 49bd 27ec 68ba
00000380: 7576 563c 7aa4 e8bc 7a45 413d c0a3 533c
00000390: 4868 c1bd 36c3 e6bd 6ccc dcbc 508e 223d
000003a0: 6cb4 8c3d 14cd 523d 20d7 ad3c 1dfd a6bd
000003b0: 56c5 343d 00d1 08bc 423f d23d 70eb c4bd
000003c0: 9a4b b1bd 509a 29bd f2a7 9fbd f8d8 b1bd
000003d0: 8065 e4bd c239 cc3d 463f f9bd 6154 04bd
000003e0: d04e 833d 8254 a4bd 42c7 9cbd 303e 8cbd
000003f0: dad9 c2bd b89b dabc 4030 843b 003e fcba
0.11057278 0.06030836 -0.0049727065 -0.028031133 0.15294454 0.070185736 0.012049869 0.13110237
-0.2149598 -0.018446669 -0.026101999 -0.08376967 -0.07362584 0.1472108 -0.15573978 -0.030433362
-0.0005578603 -0.042024016 0.024126824 0.05424727 -0.06980237 0.01064334 -0.016084723 -0.095386334
0.07399534 0.0045937737 0.038673233 -0.06339906 0.0008416424 0.07846025 0.095097974 -0.0021680177
0.16184822 -0.053689603 -0.09338786 0.110384814 -0.022210399 0.06071498 0.009486949 0.15289594
-0.078687005 0.10367904 -0.048493285 -0.026883427 0.11321302 -0.046061553 -0.03792197 -0.06563601
0.076784946 -0.23231801 0.061453056 0.048169322 0.0291216 -0.10881809 -0.16272952 0.15703054
-0.0574046 0.14300169 -0.014682393 0.042222086 -0.013417031 -0.0047370773 0.04202358 -0.19376867
0.045303065 -0.10122722 0.05724799 0.0559463 0.03225821 -0.12605506 -0.0099338405 0.0053308397
-0.08642646 0.06051678 0.15168022 -0.031821128 0.08124948 -0.03490046 -0.08550252 0.020639045
-0.083890684 -0.07034476 0.10086166 0.14152965 -0.012878123 0.020094262 -0.0831482 -0.02954562
-0.009496315 -0.0370418 -0.06609944 0.11428936 0.101731986 0.094807744 0.15904516 0.054474138
0.004776684 0.071049064 -0.18013284 -0.028817156 0.118505836 0.059464708 0.11132689 0.03348627
0.13040902 0.020802094 -0.09781091 0.0069333487 0.14755893 0.043250665 0.10296643 0.13047828
0.03781642 -0.21577892 -0.017307874 0.15599647 0.037724715 0.029515801 -0.11321892 -0.03502925
-0.012992867 0.028433267 -0.012180611 0.02773719 -0.0305327 -0.15322982 0.047671445 -0.24887778
0.07621416 -0.032558348 -0.015021043 0.11516021 -0.024311146 0.1046735 0.16228342 0.12514651
-0.22265172 -0.09411045 -0.08068206 0.122057654 -0.013528942 -0.039788637 -0.0522333 0.08905795
0.13913725 -0.011048175 0.0029182632 -0.0070719174 -0.06502575 -0.07085923 0.065966815 -0.07553663
0.006674426 0.032532975 0.14106458 -0.03875392 0.02011481 -0.01303667 0.16891931 -0.06803448
0.15106641 0.0791499 -0.1390544 -0.015012513 -0.0060183164 -0.05197515 0.062083796 0.15358028
0.01570064 -0.021810533 -0.20840321 0.12292384 0.14644277 -0.029969115 -0.06716184 -0.04669688
0.09133272 -0.27503905 0.10194901 -0.036876906 0.08593923 0.04018202 -0.31130883 0.008881164
-0.021527307 0.11830922 -0.02127923 0.14420055 0.12891023 -0.17857455 0.09962351 -0.27499706
-0.056147784 0.062481463 0.11442214 -0.11614016 -0.09923676 0.0052114683 0.0038646758 -0.040658772
-0.09215841 -0.10371202 -0.03134343 -0.039588444 -0.013948688 0.062761284 -0.025050355 0.102352895
-0.018789236 -0.057008654 -0.05884509 0.06271534 0.0136139095 -0.12099172 -0.013370896 0.046475656
-0.08347234 -0.0984582 -0.009928503 -0.011447706 -0.08352695 0.009241343 -0.049150143 -0.0008885287
0.013089766 -0.028398741 0.0471854 0.012917459 -0.09443718 -0.11267702 -0.026952945 0.0396865
0.0687035 0.05146511 0.021220744 -0.08153746 0.044133507 -0.008350611 0.10265972 -0.09615219
-0.08656998 -0.04140693 -0.07795705 -0.08683962 -0.11152172 0.09971954 -0.121702716 -0.032307032
0.06411517 -0.08023931 -0.07655193 -0.06847799 -0.09514208 -0.02668558 0.004034072 -0.0019244552

fc.2.bias f4 [64]
00000000: c5a2 763c 41ee e33d 5f8e 003e 474b 193c
00000010: aca8 933d 8728 5ebd e5fa aebd bf61 24bd
00000020: 523a a33d c269 c73c ea56 8b3e f7b4 4b3d
00000030: 9fb3 4ebd 6d7d 58bd f855 2a3e 5a2a 993d
00000040: 6cf5 053e 415b 353e bb15 163e 248b c93d
00000050: 9a80 29bd 2a7c 0b3d efc4 0d3e eb33 b93b
00000060: 25f9 083e 6db4 043e b1a7 fa3d 6370 a8bd
00000070: 2e53 75bd df0f 24bd 361b 30bd a69b 93bd
00000080: 5a20 e33d 96ee 793e dc7a b43d 1a21 373e
00000090: 4b8c 5a3d 825f f3bd eec1 453e b6d6 b0bd
000000a0: 572f 79bb 3668 003e 989f 143d 753b d33d
000000b0: b37b 003e 7c66 9cbd 7440 293e 80aa be3d
000000c0: 2dd2 8cbc c603 173e 02f6 e13d 633f d23c
000000d0: 44b6 64bd c077 9bbd f196 a23e d0e0 48bd
000000e0: 1673 6fbc 51d0 0a3e a3b8 633c 7911 4e3d
000000f0: b585 ddbd 648a 923e d79b 6e3e 8dca 58bd
0.015053456 0.11129428 0.1255431 0.009356326 0.07209906 -0.05423787 -0.08543948 -0.04013228
0.07970108 0.024342421 0.27214748 0.04973313 -0.05046427 -0.05285399 0.16634357 0.07478781
0.13081902 0.17710592 0.14656727 0.09840992 -0.04138241 0.03405396 0.13844655 0.005651941
0.13376291 0.12959452 0.12239016 -0.08224561 -0.05989378 -0.0400542 -0.0429947 -0.07207422
0.11090155 0.2440742 0.08812496 0.17883721 0.05335645 -0.11883451 0.1931226 -0.08634703
-0.0038022602 0.12539753 0.036285013 0.10314075 0.12547188 -0.07636735 0.16528493 0.09309864
-0.017190063 0.14747533 0.110332504 0.02566499 -0.055837885 -0.075912 0.31755784 -0.049042523
-0.014614841 0.13556029 0.013899001 0.050309632 -0.10816518 0.2862121 0.23301636 -0.052927542

actor.weight f4 [8, 64]
00000000: 3ea9 9cbd 0303 023e f8db 193e 40e2 fdbc
00000010: 995e 19bd 6c38 a1bd 765c 473d 8ad4 d6bb
00000020: 28f0 e43d c2ac 1a3e 097a a53d 135d 183e
00000030: d6e4 f93d 6256 093d 1974 ba3d 50e8 053e
00000040: e968 023d b258 39bd c85a 653d 81cc 583d
00000050: 8903 34bd fa22 09bd 7854 723b 7470 023e
00000060: b1e5 babd fbac 4c3d 379a 003d bd3b c2bc
00000070: 5974 173e 1e4a 2ebc c613 183e 6a19 d83d
00000080: 07b5 d53c 4a1e ffbc e34b 1f3c 1c13 9c3d
00000090: 20c0 253e 313e c73c c6eb 853d 786c b0bd
000000a0: afb8 55bd 9b28 043d f1db 0b3d ade8 b83d
000000b0: afa9 2b3b 55bd 55bd 3e47 0d3e 8e24 a73d
000000c0: 46e3 a13c a0b3 8bbd afb7 c93d 9afe 283e
000000d0: e504 b93d d3d2 a53d d6ac 293e d1bc 1abd
000000e0: 5fd8 ebbb 6efb 1dbc 93aa 343d 294d 41ba
000000f0: abd2 f43d 4759 bd3b e800 b93d 80e0 ee3d
00000100: d429 1c3d 4878 51bc 084a 04bd 93c0 67bd
00000110: 4afd 893c aaf2 f73d 86ee 113e 0321 093e
00000120: e565 dabc f169 483d 271e b9bc f10d 023d
00000130: ac56 bb3d f073 e03d cc0e 13be 9751 abbd
00000140: 0808 0d3d 4509 a73c 3249 f03c e9d4 e93d
00000150: 410e f73b e9d6 453d 3f93 b3bd 7918 98bd
00000160: fa9e 103c 3d12 84bd cdd8 3ebd c0ce 1e3d
00000170: ea85 c53d 1b4c f73d 77f2 543d bd60 0bbd
00000180: da55 bf3d e321 91bc 60f3 6e3d 877b 4d3d
00000190: a31c 1e3d 9efa b93d c2d5 f83c 5ef4 fc3d
000001a0: 91bd dc3d 44d2 f8bc ac39 ee3d 1e19 c8bd
000001b0: 56a5 a63d 5080 0dbd 23e0 7b3d 2422 95bd
000001c0: c202 bc3d 71f3 e83a 8e42 c93d 8462 633b
000001d0: bfe7 ab3d e532 833d 4396 eb3d 6374 1cbd
000001e0: 13ca 19bb 31ef 5fbc 4e52 b53d 6e62 c43c
000001f0: 8791 633c 6a5c e73c b688 7f3d 21b0 4bbd
00000200: 3fbe 00be 816d 563a 84e9 503d 5ef7 8e3d
00000210: 8930 8abd a57a 64bd b8ab ecbd c84e d4bc
00000220: b4d7 cbbc 5d3f 0c3d a47f 8f3d 1033 d03d
00000230: c56f 9d3c caf9 6d3d 6178 2c3c 3787 a4bd
00000240: 90cb 4b3d f705 c6bd b8aa 213c 1c70 23bd
00000250: 0442 893d 2fcc 8f3c 20ef 0abd eac2 913d
00000260: 71dc ff3d a164 debd 7ca0 5cbb 4df0 c3bd
00000270: d9e9 353c cf5f f1bd be98 673c bd78 d7bc
00000280: 60c4 883d 6c71 f33d f0e3 f6bd 6f48 93bd
00000290: 4e88 e23d 6a18 bf3d 20dd b53c c3e3 bbbd
000002a0: 3430 4a3d 4410 53bd 64fa 4cbd cc00 623c
000002b0: 0c8e 0b3c 1931 61bc ca57 73bc dd05 973d
000002c0: cc17 e83d ac85 ffbc add3 313b 3426 8e3c
000002d0: b075 103d 353f 5ebc 7287 f1bd 1344 c23d
000002e0: 3dcb 21bd c337 993d 2863 4a3d 3b23 debc
000002f0: bf0f 8cbd 8561 0ebd b13f 1cbd 2d34 f33d
00000300: 0027 85bd 4bbf 7ebc adc2 983d 2b95 c13c
00000310: 24a9 9b3d ff0b c8bd 3af7 3a3d 378a f0bc
00000320: 4813 6a3d 5fea 15bd f82c 03be c324 c7bd
00000330: f815 f5bd b588 dd3d b043 263d ee3a bbbd
00000340: 92f7 c43b 7f7f d03c bf95 403d 42ec 56bd
00000350: 0866 ea3d 02b4 2a3b b4fe cf3d f5cd de3d
00000360: f3af debd b5eb f3bd 5fdd b43c ef46 bcbd
00000370: d92e 20bc 3795 e23d 6f71 4fbd 723b 1f3d
00000380: 5f14 f23d 760b 523d 0d34 d53d c490 eabd
00000390: ceb1 35ba dd9f 1f3d b8ec 11bd 9fce bf3d
000003a0: 7d4f 0cbe 1437 dbbd 4854 98bd a242 c73d
000003b0: 0164 b3bd 8960 b2bd 3b2a 31bc ddd2 c43d
000003c0: 870b d3bd 97f6 e6bb 4f4c 8cbd 3f17 88bd
000003d0: b18d a13d 0b0e f3bd 4fe6 0fbe bcd8 f2bc
000003e0: 9ebc 48bd 0f2c 5abd a07f f7bd d2c0 bfbc
000003f0: 8768 023e 72bd 113d a2f4 bebd e3c3 43bd
-0.07649468 0.12696461 0.15025318 -0.030991673 -0.03744373 -0.0787209 0.048672162 -0.0065560983
0.11178619 0.15104964 0.08079917 0.14879255 0.1220185 0.033529647 0.09104175 0.13076901
0.03183833 -0.045250602 0.05599478 0.052929405 -0.043948684 -0.033480622 0.0036976617 0.1273821
-0.091258414 0.049969655 0.03139707 -0.023710126 0.14790477 -0.010637788 0.14851293 0.10551722
0.026087297 -0.031142373 0.009722683 0.07620832 0.16186571 0.024321647 0.06539111 -0.08614439
-0.05217808 0.032265287 0.0341453 0.090287544 0.0026193669 -0.052182514 0.13796708 0.08161269
0.019761693 -0.0682137 0.09849488 0.16503373 0.09034137 0.08096852 0.16569838 -0.037777726
-0.0071974243 -0.009642465 0.044107985 -0.00073738635 0.11954244 0.005778465 0.09033376 0.11663914
0.038125828 -0.012785025 -0.032297164 -0.056580137 0.01684441 0.12106831 0.14251146 0.13391499
-0.026659915 0.04892916 -0.022597386 0.031751577 0.09147391 0.10959613 -0.14361113 -0.083651714
0.034431487 0.020390162 0.029331777 0.114175625 0.007539541 0.048300657 -0.08768319 -0.07426543
0.0088269655 -0.06448791 -0.046593476 0.03877139 0.09644683 0.12075063 0.051989045 -0.034027804
0.09342547 -0.017716354 0.05833757 0.050166633 0.03860153 0.090810046 0.030375365 0.12351297
0.107783444 -0.0303737 0.11632094 -0.09770416 0.08137004 -0.034546196 0.06149305 -0.072819024
0.091802135 0.0017772747 0.098271474 0.003469617 0.083938114 0.06406192 0.115032695 -0.038196933
-0.0023466393 -0.0136678675 0.08853589 0.023972716 0.013889677 0.028242309 0.062386237 -0.049728516
-0.12572573 0.00081797695 0.051003948 0.06980775 -0.067475386 -0.055781025 -0.1155619 -0.025916472
-0.024883129 0.034240115 0.070067674 0.101659894 0.019218335 0.058099546 0.010526747 -0.08033603
0.04975468 -0.096691065 0.009867363 -0.039901838 0.067020446 0.017553417 -0.033919454 0.07117255
0.12493218 -0.10859037 -0.0033664992 -0.09567318 0.011103117 -0.11785852 0.014135538 -0.02630269
0.066780806 0.11886868 -0.120551944 -0.0719155 0.11061154 0.093308285 0.022200167 -0.091743015
0.049362376 -0.051529184 -0.05004348 0.013794135 0.008517753 -0.013744616 -0.0148524735 0.07374165
0.11332664 -0.03119167 0.0027134225 0.017352201 0.035268486 -0.013564874 -0.11793412 0.094856404
-0.039500464 0.07481339 0.04941097 -0.027116409 -0.06838941 -0.03476097 -0.03814668 0.11875186
-0.06501579 -0.0155485375 0.074590065 0.0236307 0.076006204 -0.09767913 0.04564593 -0.029362781
0.057147294 -0.036600467 -0.12810123 -0.097238086 -0.11967081 0.108170904 0.040591896 -0.09142099
0.006010958 0.02545142 0.04701781 -0.052471407 0.11445242 0.0026047234 0.10156003 0.10879127
-0.108734034 -0.11910192 0.022078214 -0.09193217 -0.009776794 0.11063617 -0.050645288 0.03887505
0.11820292 0.05128046 0.104103185 -0.11453393 -0.0006931097 0.038970817 -0.035626143 0.09365582
-0.13702197 -0.10703865 -0.074379504 0.09729506 -0.087593086 -0.08709819 -0.010813291 0.096105315
-0.10304933 -0.007048439 -0.06850492 -0.06645059 0.078883536 -0.11867913 -0.140527 -0.029644363
-0.049008004 -0.053264674 -0.120848894 -0.023407374 0.12735187 0.03558106 -0.09324004 -0.047794234

actor.bias f4 [8]
00000000: a62e cbbd d13d b2bd a9ac e6bd a29f 1abd
00000010: fc89 3abd d921 02be 994c 87bd 4793 c8bd
-0.09921007 -0.08703197 -0.11263401 -0.037749894 -0.04554175 -0.12708224 -0.06606407 -0.09793716

critic.weight f4 [1, 64]
00000000: 78ff 24be c5bc 08be 4630 34bd 90cc edbd
00000010: 46c7 d3bd b2c4 a6bd 5704 17be 0838 53bd
00000020: e12e 533e ec54 bebd 735d fa3e a4ac 3fbd
00000030: 0aa4 1abe cefe 4cbd 64cd 863e 2423 1dbd
00000040: 9d8c be3e 5e1c 883e 80f6 28be e571 dabd
00000050: f81c c83d ae04 32bd f990 47bd c6a2 68bd
00000060: d169 783e e84c 9cbd 1c85 523e 4073 b5bd
00000070: d9bb 1bbe 4314 9bbd 5ddf 18bd 621a 0abd
00000080: f477 1abe b009 c23e 2ed0 873e 4a54 933e
00000090: fbc6 04bd ef3f a03c c808 bd3e 3120 9fbd
000000a0: fb5f abbd 5e16 a03e 5977 c6bd 7f18 913d
000000b0: ef3d b3bd 23d2 34be c88b ad3e 0fde d3bd
000000c0: 9e59 0dbd 0388 9e3e 0be1 543e 9a27 84bd
000000d0: cb5b a7bd dbe1 8cbd cf33 e53e 5be2 8cbd
000000e0: d1b6 0ebe 8bd5 ab3e 6d6f acbd cece d7bd
000000f0: 2aca 523c ced8 be3e c36d 083f 16b6 0abe
-0.16113079 -0.1335326 -0.04399135 -0.11611283 -0.10340743 -0.081429854 -0.1474775 -0.051567107
0.20623352 -0.09293541 0.4889942 -0.046795502 -0.15101638 -0.05004769 0.26328576 -0.03836359
0.37216654 0.26584142 -0.16500282 -0.10666255 0.0977115 -0.043461494 -0.04872224 -0.056795858
0.24259116 -0.07631856 0.2055859 -0.08859873 -0.15208377 -0.07572224 -0.03732239 -0.033716567
-0.15084821 0.37898016 0.26526016 0.28775245 -0.032416325 0.019561736 0.36920762 -0.07769812
-0.08367916 0.31267065 -0.096907325 0.070847504 -0.08752047 -0.17658286 0.33895707 -0.10345089
-0.034509294 0.30963144 0.20788972 -0.06452866 -0.08171805 -0.06879016 0.4476609 -0.068791114
-0.13936926 0.33561358 -0.0841969 -0.10537492 0.0128655825 0.37274784 0.53292483 -0.13546023
