models/Ant-v2/ppo_clipped_20241114_014930.pth (torch, 50647 bytes, 7 tensors)

fc.0.weight f4 [64, 111]
000000 e6 76 19 3e 5f 29 56 3e 80 81 06 3e 4f 13 8c bd
       0.14986762 0.2091422 0.13135338 -0.0683962
000010 64 18 84 bd d5 e5 43 bd 73 35 85 3d e7 c4 9c 3d
       -0.06449965 -0.047826607 0.06504335 0.07654744
000020 d0 1a 72 be 70 32 7e 3d 55 df af bd a8 82 55 3d
       -0.2364304 0.06205982 -0.08587519 0.052126557
000030 9a 20 6f 3e d6 91 0b 3d 29 0c a6 3d e7 b5 bf bd
       0.2335228 0.034074627 0.08107788 -0.09360867
000040 b6 16 74 3e ed 94 0e bd 03 c8 9a bd 9e c7 15 3d
       0.23836789 -0.034809995 -0.075576805 0.036567323
000050 b2 db 55 3d b7 19 3d 3e 43 ce bf bc 1c 8a 36 bd
       0.05221147 0.1846684 -0.023413783 -0.044565305
000060 98 9c b6 3d d3 14 aa 3c b5 c0 44 bd 92 db ed bc
       0.08916587 0.020761883 -0.048035342 -0.029035363
000070 6d b1 76 3d 98 64 83 3c f8 dc f3 3b 6b a7 20 bd
       0.0602278 0.016039178 0.007442113 -0.039222162
000080 6d e6 08 bd e5 42 fd 3b 8b 4c 76 3d 39 54 b5 bd
       -0.033422876 0.0077289217 0.06013159 -0.08853955
000090 a4 79 eb 3c 3e 26 7c bd 92 d4 b0 3d d3 81 8f 3b
       0.028744526 -0.061559908 0.086342946 0.00437949
0000a0 36 1b 0c bc 44 23 70 3d 0f 7d 95 bd 37 1f a6 ba
       -0.0085514095 0.058627382 -0.07299244 -0.0012674098
0000b0 3e f5 fb bc 41 9a 74 3d 80 70 57 bd 6e 47 c2 bc
       -0.030756589 0.05971742 -0.052597523 -0.023715701
0000c0 e9 f7 b4 3d 9c 00 85 bd de b7 47 3c 50 c7 4c 3d
       0.088363476 -0.06494257 0.012189833 0.049994767
0000d0 53 9e 8e bd 83 f8 5e 3c 08 fc bc bc 63 4c 89 3c
       -0.06963792 0.0136090545 -0.023069397 0.016760057
0000e0 19 66 f8 3c 91 a0 a0 3d ca 1d 65 bb b7 4c 9f 3c
       0.030322121 0.078431256 -0.0034960383 0.01944576
0000f0 bb af 6c 3d 1c 1d 09 bd f3 6a c6 bc 77 e5 f3 bc
       0.057784777 -0.033475026 -0.02422092 -0.029772503
000100 23 7e 38 3d cd b6 88 3d 60 82 b8 bd 6c 72 d0 b9
       0.04504217 0.066754915 -0.09009242 -0.00039758103
000110 d8 cb 56 bd 92 95 be 3c f3 8c 5c bd fc e8 52 bd
       -0.052440494 0.02326468 -0.053845357 -0.051491722
000120 eb 7f bb 3d b8 4d b6 bd 3a 2a 4d 3d b0 40 b1 3d
       0.09155258 -0.089015424 0.0500891 0.08654916
000130 79 34 81 3d 28 fb df 3c 3d 0b 9a 3d d8 f7 88 bc
       0.063088365 0.02734144 0.07521675 -0.016719744
000140 00 0d 90 bd 1c a5 b2 bd 7f 7b bf 3d f2 0a 85 3c
       -0.070337296 -0.08722898 0.09349727 0.01624057
000150 f4 63 05 3d 13 a4 98 3a 77 be 7b bd 2b c9 0e 3c
       0.032566026 0.0011645578 -0.06146094 0.008714954
000160 1c 9f 36 3c a5 b0 c0 3c 46 86 ab 3d a2 42 7b bc
       0.011146333 0.02352173 0.0837522 -0.015335711
000170 5f f1 1a bd 6c c4 9e 3d 58 b7 10 3b d4 9a 5f 3d
       -0.037827846 0.07752308 0.0022081938 0.054591015
000180 1b 58 23 3b 90 9b 83 3d 6c bf 50 3d 54 57 89 3d
       0.002492434 0.064261556 0.050963804 0.0670611
000190 5c af 92 3d ac eb b3 3c 50 cc 3c 3c 1c f4 2e 3a
       0.071623534 0.021962963 0.011523321 0.00066739484
0001a0 ff 41 87 3c ce 6f 84 bc 70 88 e0 bb 43 55 13 3a
       0.016510962 -0.016166594 -0.006852202 0.000562031
0001b0 41 4b a3 3d b8 2b 2c bc 38 7c a7 3b e1 d4 68 3e
       0.07973338 -0.01050847 0.0051112436 0.22737457
0001c0 18 dd 6e 3e b4 17 21 3c bf 2c c4 bc 87 99 7a bd
       0.23326528 0.009832311 -0.023947118 -0.06118157
0001d0 4a a2 93 3c c9 06 b9 3d d2 0b 2b 3e 78 f3 f0 bd
       0.018021721 0.09034497 0.16703728 -0.11765188
0001e0 5c 0b f8 3c e9 c8 4a be eb 52 2e 3e 03 57 2e 3e
       0.030278854 -0.19803204 0.17023818 0.1702538
0001f0 09 71 08 3e d1 9b 14 bd 40 68 10 3d 11 0f d2 3d
       0.1332437 -0.03628141 0.03525567 0.1025678
000200 1c b5 cb bd 8a 4b f2 bd c4 5e 0f 3e 90 8b 2d 3d
       -0.09946653 -0.11830814 0.14000994 0.042369425
000210 3d 9a 1b 3e 4c 12 59 bd f3 20 38 3d 50 5e 5b bd
       0.15195556 -0.052995965 0.044953298 -0.05355674
000220 f9 e8 8e 3d 5c eb b0 3d 36 41 11 bd 45 7d a0 3d
       0.0697803 0.08638641 -0.03546258 0.07836393
000230 f1 f4 80 3d 5d 47 db bc 0a cf 85 bc b5 3e 14 3d
       0.06296719 -0.026767427 -0.016334075 0.036192615
000240 14 0f d3 bc 99 8e 5e 3d 91 38 62 3d dd a3 41 b9
       -0.025764026 0.05433521 0.055229727 -0.00018466958
000250 94 2f 53 bd 23 6c 4a bd b4 0e 0e bc 7f ca 35 bd
       -0.051559046 -0.049419533 -0.008670498 -0.04438257
000260 cb 06 eb 3c 7a 77 84 bd 86 03 58 bd 0b c4 68 bc
       0.028689763 -0.06468101 -0.052737735 -0.014206897
000270 ac 86 ab bd af 58 2d 3d 70 64 7a bd ff 62 8a 3d
       -0.08375296 0.042320903 -0.06113094 0.06757163
000280 12 46 8d bd 3d f5 53 bd 81 8f ac 3d 9c 9e 77 bd
       -0.068981305 -0.05174755 0.08425809 -0.060453996
000290 c1 e1 80 bc 97 f5 72 bd 98 fb b4 bd 7e 9b 34 3d
       -0.015732648 -0.059316244 -0.0883705 0.0440936
0002a0 46 0b 7d bc 04 77 0c 3d c0 fa 84 3d 6b 5a 29 3d
       -0.015444582 0.03429319 0.06493139 0.041345995
0002b0 55 d8 84 3a 88 65 70 bd 4f 92 35 3d ed 96 8f 3d
       0.0010135273 -0.058690578 0.044328984 0.07011209
0002c0 11 1c af 3d 65 f9 c4 3c 36 ca 08 bd a1 55 13 bd
       0.08550275 0.024044702 -0.03339597 -0.035970334
0002d0 ea ad a2 3d 1f 1e 2f bd d7 72 ab 3d 43 34 ac bc
       0.07943328 -0.042753335 0.08371513 -0.021021014
0002e0 67 37 08 bc d7 92 bc 3b b0 32 79 bd 7f a7 3f 3c
       -0.00831399 0.0057548094 -0.060839355 0.011697649
0002f0 27 5f c0 bd 36 db 15 3d 3d bc 65 bd 6a 71 a0 bd
       -0.09393149 0.03658601 -0.05608772 -0.07834132
000300 be 34 fc 3c e3 1b a6 bd e8 0d 47 bd 84 7a 89 3c
       0.030786868 -0.08110788 -0.048597246 0.016782053
000310 5d 04 a7 3d 77 bb 84 3d f6 d2 9e bd 80 a9 f9 3c
       0.08155129 0.064810686 -0.07755081 0.030476332
000320 7c 2a 59 bd e5 24 2d bd 16 8d 0e bd 92 4e 0a 3d
       -0.053019032 -0.042271513 -0.03480252 0.033766337
000330 ac fe bd 3d bf 04 55 3d e7 2f a0 3d 19 f7 b6 3d
       0.092770904 0.05200648 0.07821637 0.08933849
000340 91 82 8e 3d ef 0b 58 3d 3e 8c af bd 51 78 1f bd
       0.06958497 0.052745756 -0.08571671 -0.038933102
000350 d2 e1 76 bd 04 2b 08 3d 4d 5e 45 3d 9c f3 28 bb
       -0.060273953 0.033244148 0.048185635 -0.0025779968
000360 12 73 96 3d be 23 38 3a a6 77 6f bc 78 32 93 3d
       0.07346167 0.0007024369 -0.014615929 0.071873605
000370 df 2a 3c 3d f0 ad 39 3d ed 20 87 3d 67 12 2f 3e
       0.045939323 0.045331895 0.06598077 0.17096864
000380 4e 0b b0 3d 48 37 d3 bd c0 7d 12 be 9b 45 3b 3d
       0.08595906 -0.103132784 -0.14305782 0.045720678
000390 a8 9c 97 3d 4d e4 a1 3b a5 f7 60 be 10 c4 b6 3d
       0.07402927 0.0049405457 -0.21969469 0.08924115
0003a0 c5 4b f7 bd d5 34 f8 3d 40 af 35 3e 8a 05 13 bd
       -0.12074999 0.12119452 0.17742634 -0.035893954
0003b0 2c 1e 6b 3d d2 e2 37 be db 80 0e 3e b9 ca 31 3d
       0.05740182 -0.17957619 0.13916342 0.043406222
0003c0 a1 b1 78 bd 02 f1 f2 bc 87 f7 93 3d 62 d2 0c 3e
       -0.060716275 -0.029655937 0.072249465 0.1375213
0003d0 67 9d 4c 3d 43 81 bb bd 08 8f 5a 3d f8 be 0e 3d
       0.049954798 -0.09155514 0.05335906 0.03485009
0003e0 17 28 6c 3d d0 98 a9 bd c7 45 a7 3d fd 7e 7b bd
       0.05765542 -0.082811 0.08167606 -0.061400402
0003f0 c6 6c 5a 3d 34 00 af bd d7 63 a5 bd ae b9 9f 3d
       0.05332639 -0.085449606 -0.080756836 0.077990875

fc.0.bias f4 [64]
000000 e3 3b 47 3e 35 49 a1 3d 3e 86 ca 3d b7 06 25 3e
       0.19456439 0.07875291 0.09888886 0.16115843
000010 df 79 8e 3d d8 6f e2 3d 1f b9 43 3e c1 d5 47 3e
       0.06956839 0.11056489 0.19113587 0.19515134
000020 c5 8c 48 3e 7d a8 80 3d 89 8c da 3d 9c 57 3c 3e
       0.1958495 0.062821366 0.10671336 0.18392795
000030 b1 eb 64 3e de a7 8c 3d 79 6b 1f 3e 61 06 a5 3d
       0.22355534 0.068679556 0.15568341 0.08057857
000040 32 7c 93 3d bd 88 a2 3d 6c 5d 01 3e aa ea b4 3d
       0.07201423 0.07936237 0.12633294 0.08833821
000050 af a0 ad 3d 57 63 ee 3c 5b 91 42 3d d9 57 45 3e
       0.084779136 0.029100103 0.047501903 0.19271792
000060 48 5f 44 3d 7d 40 38 3e 90 e2 5d 3e a5 6d f3 3d
       0.04794243 0.1799335 0.21668458 0.118861474
000070 77 2c 95 3e 0b 21 d4 3d 39 d8 fe 3d 27 b4 b6 3b
       0.29135486 0.10357865 0.12443585 0.005575675
000080 1e 4c c9 3c 32 5c f6 3d 9d a2 4a 3e 40 d3 a2 3c
       0.024572428 0.120293036 0.19788595 0.019876122
000090 8c 8a b3 3d ac 8f db 3d 7b d8 35 3e df 22 38 3e
       0.0876666 0.107207626 0.17758362 0.17982052
0000a0 c7 cf 00 3d 48 ce 7a 3e f1 ad 69 3e 57 4f 9e 3d
       0.031448152 0.24492753 0.2282026 0.077299766
0000b0 b7 b0 7b 3e 67 da c0 3c 64 b7 26 3e 10 a9 12 3d
       0.2457913 0.023541642 0.16280895 0.03580576
0000c0 d3 1e 13 3e ba b6 86 3d 98 67 9b 3d 91 2c 1c 3d
       0.14367227 0.06577821 0.07588118 0.03812844
0000d0 a3 9d 7f 3e 0e aa 02 3e 7f 0f 3d 3e c6 80 d7 3d
       0.24962477 0.12760183 0.18462943 0.105226085
0000e0 36 df 2f 3e 57 ce 43 3e 21 0e 4f 3d c4 c1 ed 3d
       0.17174992 0.19121681 0.050550584 0.116092235
0000f0 09 5b 8d 3e 2e f3 1c 3e 59 23 6b 3e 75 a0 10 3e
       0.27608517 0.1532714 0.22962703 0.1412371

fc.2.weight f4 [64, 64]
000000 53 58 dd bc 45 59 2d be 9b ea b6 3c 8e 15 7e bd
       -0.027019655 -0.16928585 0.022328665 -0.062032275
000010 0c 94 e5 3c 85 bd 83 3d da 21 19 bd 13 b4 7a bc
       0.028024696 0.06432632 -0.0373858 -0.015301722
000020 ad 24 37 3c 68 f6 0b 3e 4a 57 12 3e 5b ec a1 3d
       0.011178178 0.13668215 0.1429111 0.07906409
000030 d6 c6 8b 3d 95 81 1a 3e d9 95 ae 3c 1c 72 0f 3e
       0.06825034 0.15088494 0.021311687 0.14008373
000040 ac b0 c1 bd d2 25 c5 bc 31 36 e0 bb 31 83 74 39
       -0.094575256 -0.024065886 -0.0068423976 0.00023318526
000050 d2 b7 18 3c 62 d7 74 3c 16 35 30 3d 29 5b 00 3d
       0.00932117 0.014943929 0.043019377 0.031336937
000060 15 aa c6 bd 81 5d 90 3c f4 3f c3 bd 59 69 93 bc
       -0.09700409 0.017622711 -0.095336825 -0.01799457
000070 18 1b 2a be 9e e2 79 3c c3 ed b7 bd a3 e6 1d 3e
       -0.16611898 0.015251784 -0.08980896 0.15420012
000080 2f a8 e8 3d 3c ba 38 3e 84 9a 83 3b 86 d1 8e 3c
       0.113602035 0.18039793 0.0040162224 0.017433893
000090 10 69 1e bd 94 dc a5 bd 22 e4 1e be fd 52 c7 3c
       -0.038674414 -0.080987126 -0.15516713 0.024331564
0000a0 7e 6d 25 3e f9 93 d7 3d 45 24 08 3d 66 4c 16 3e
       0.16155049 0.105262704 0.033237714 0.14677581
0000b0 f8 53 25 bb e9 f5 c4 3d 12 2e 01 3e 7a c5 5f bd
       -0.0025227051 0.09617216 0.1261523 -0.054631688
0000c0 ae f8 02 bd b6 f7 07 3e 82 f9 56 3d fc 4d c3 bd
       -0.03197544 0.13278088 0.052484043 -0.09536359
0000d0 9d a4 c6 bd d1 55 f8 3c 46 b3 76 3d 3d 46 c7 bd
       -0.09699366 0.030314358 0.060229562 -0.09730194
0000e0 ce d8 a9 3d fa 3d ab 3d cf 45 1a 3e 74 5e 30 be
       0.08293305 0.083614305 0.15065692 -0.17223531
0000f0 45 8e 1f be ca f3 fc bc 3f e0 30 be 88 38 b0 3c
       -0.15581615 -0.030877966 -0.17273043 0.021511331
000100 49 6b 35 3e ea 2f 1f 3e 6d 7b 39 3e 57 b8 ec 3d
       0.17716707 0.15545622 0.1811349 0.115585975
000110 aa 57 b3 3d 70 72 98 3e b9 28 d1 3d 21 ff 9c 3e
       0.08756955 0.2977481 0.10212845 0.30663398
000120 a7 00 52 3e e4 a8 9a 3e 2f b5 9d 3d c7 c3 75 3e
       0.20508061 0.30206978 0.07700574 0.24000464
000130 ad 74 4b 3e 45 5b ac 3d ec f4 6d 3d e6 9e 00 3e
       0.19868727 0.08415846 0.058094904 0.12560615
000140 75 e1 ec 3d c0 fa 25 3e f9 6d 85 3e eb 3d 71 3e
       0.1156644 0.16208935 0.26060465 0.23558776
000150 6f f2 8c 3d 25 cf 8d 3e 81 4c 97 3e 55 15 8f 3e
       0.06882178 0.276971 0.29550555 0.27945963
000160 57 c3 6a 3d 38 e6 5e 3e dd 6b d2 3d fd f0 0f 3e
       0.057315197 0.21767509 0.102744795 0.14056773
000170 c7 e4 48 3e 5a 98 86 3e 22 13 a7 3e 89 7a 88 3e
       0.19618522 0.2628811 0.32631785 0.26655987
000180 39 ff 5c 3d ab 2e 7b 3e ac 37 13 3e 79 2d 2c 3e
       0.053954337 0.24529521 0.14376706 0.16814221
000190 69 70 5c 3e 0e 93 5d 3e ba f2 8c 3e 5d a0 71 3e
       0.21527256 0.21638128 0.27528936 0.2359633
0001a0 2e 90 c6 3d ef 91 21 3e 20 0a a2 3e 00 5c 0c 3e
       0.09695469 0.15778325 0.3164835 0.1370697
0001b0 04 48 36 3e 11 28 66 3e 6f 27 7d 3e 4f c0 89 3e
       0.1780091 0.22476222 0.24722074 0.26904532
0001c0 ba 3a f1 3d 58 f6 5f 3e 24 f6 81 3e be cd 42 3e
       0.11778779 0.21871316 0.25383103 0.19023797
0001d0 20 3d 84 3e 7e 12 c8 3d e8 30 01 3e 93 1e b0 3d
       0.25827885 0.09769152 0.12616313 0.085995816
0001e0 90 eb 94 3e 5e ac e2 3d 4c 03 1a 3e 09 eb 8b 3e
       0.2908597 0.11068033 0.1504032 0.27327755
0001f0 c3 de 9a 3e cf 8a 90 3d 35 ca 4a 3e 69 21 b1 3e
       0.3024808 0.07057726 0.19803698 0.34595802
000200 99 ae 7e bd c3 58 eb bc 41 41 a6 3d 8e d7 b1 3d
       -0.062178228 -0.028728848 0.08117915 0.08683692
000210 4a fa 71 bd d3 cf df bd b3 b6 d4 bd 47 3b d2 bc
       -0.059076585 -0.10928311 -0.103864096 -0.025663031
000220 34 cd 87 3d c0 53 a2 bd d8 ae 85 3d d8 0f de 3d
       0.06630936 -0.0792613 0.065274894 0.10842866
000230 b4 f7 32 bd 4f 93 e9 bc a8 d1 c0 3d 06 43 28 3d
       -0.04369326 -0.028512625 0.09414989 0.041079544
000240 22 da 6f bd ba 2f 93 bc f5 2d 92 3c 92 17 c8 bd
       -0.058557637 -0.017967094 0.01784418 -0.09770121
000250 de fc 0f 3d 79 ff 94 bc 0e 2e 06 ba 84 70 b6 3b
       0.035153262 -0.018188225 -0.0005118557 0.005567612
000260 f4 d1 90 bd 0a 9f b5 3d 78 f7 9a 3d ce b5 10 3c
       -0.070712954 0.08868225 0.07566732 0.008832408
000270 74 ae 95 bc 48 4f b3 3d 45 df 19 bd 36 ca 27 bd
       -0.018271662 0.08755356 -0.037566442 -0.040964328
000280 90 4d 3a 3d 97 d9 bc bc 18 b8 85 3d d1 90 79 3d
       0.045484126 -0.023052974 0.06529254 0.060929123
000290 e4 ab af bd b6 19 38 bd d0 dc 25 3a 47 74 e1 bd
       -0.085777074 -0.044946395 0.0006327154 -0.11008506
0002a0 1d 82 0a 3d 17 92 c0 3c 88 2d e2 bd 95 9c a6 3d
       0.033815492 0.023507161 -0.11043841 0.081353344
0002b0 74 0b 8b 3b 68 0f 92 bd f5 96 bc bd 1b c6 b7 bd
       0.0042433087 -0.07131845 -0.0920848 -0.089733325
0002c0 9b 22 b6 bc 3c 8c 8a bd a2 27 69 3c fc 06 20 bc
       -0.022233298 -0.06765029 0.014230641 -0.00976729
0002d0 24 c0 08 be b3 f4 eb bd 40 8b bb 3c 3b 05 92 3d
       -0.13354546 -0.11521282 0.022893548 0.07129904
0002e0 ac 6d 0d bc 17 f7 14 3d f2 00 05 bc 62 7d 09 bd
       -0.008632105 0.036368456 -0.008117901 -0.03356684
0002f0 ce 4a 1f 3d 87 f6 ee bc 5e 5d c7 bd 17 ce 15 3d
       0.0388897 -0.029170288 -0.09734605 0.036573496
000300 45 69 a7 3e 02 9f b4 3d 42 ee fc 3e 0f 0a dd 3e
       0.32697502 0.08819391 0.49400526 0.43171737
000310 4d b0 8e 3e ff 28 a7 3e 7a 95 81 3e 7b b8 b6 3e
       0.27868882 0.32648465 0.25309354 0.35687622
000320 0a 80 b6 3d a1 3b 72 3e eb 96 9b 3e 2b d6 01 3f
       0.0891114 0.23655559 0.3038858 0.5071742
000330 eb 78 87 3e 6d 21 a7 3e 6d a9 ab 3e ff f5 90 3e
       0.2645944 0.3264269 0.335277 0.2831268
000340 aa 97 15 3e 06 10 84 3e 2c 02 f4 3e 5f 92 5e 3e
       0.14608636 0.25793475 0.47657907 0.21735524
000350 56 3d ad 3e 23 73 d9 3e fb c9 95 3e f4 88 d0 3e
       0.33835858 0.42470655 0.2925566 0.40729487
000360 23 71 8b 3e fa 41 e7 3e e1 6c f5 3e a0 87 19 3e
       0.27234754 0.45167524 0.4793463 0.14993143
000370 62 d1 e5 3e 82 f5 b9 3e 9d 68 a1 3e 57 c6 9e 3e
       0.4488631 0.3632012 0.31525126 0.31010696
000380 16 91 c6 3e 79 14 36 3e 17 b8 88 3e 89 53 8e 3e
       0.38782567 0.17781247 0.2670295 0.27798107
000390 17 f7 b5 3e 47 aa 1c 3e 6d fb e5 3e 6f 89 d1 3e
       0.35540077 0.1529933 0.44918385 0.40925166
0003a0 fc 33 a9 3e cb ad fe 3e 10 a1 ff 3e ad 21 a8 3e
       0.33047473 0.4974197 0.49927568 0.32838193
0003b0 ce dc f1 3e c7 53 7d 3e c1 4f 8c 3e 97 b6 d3 3e
       0.47238773 0.2473899 0.27404597 0.41350242
0003c0 4a 06 d2 3e 9e eb c6 3e ea 64 75 3e 83 6e 2c 3e
       0.41020423 0.38851637 0.23964277 0.16839032
0003d0 d9 c3 9a 3e e0 4c c6 3e 75 c7 d2 3e 6f 99 c3 3e
       0.30227545 0.38730526 0.411678 0.38202998
0003e0 7b 95 fa 3e c5 32 d1 3e d6 f3 d3 3e 41 a6 6b 3e
       0.4894217 0.40859047 0.4139697 0.2301264
0003f0 74 5b f9 3e 4a 66 8b 3e 4c 3a 81 3e b7 78 8b 3e
       0.48702586 0.27226478 0.2523979 0.27240536

fc.2.bias f4 [64]
000000 30 ca a4 bd be a8 0b 3e 08 7c ca bd ca 5b 9a 3e
       -0.08046377 0.13638589 -0.09886938 0.30148154
000010 74 32 03 bd d2 4a c2 3e f7 7b b2 3d 00 af 3f bd
       -0.032030538 0.37947708 0.08715051 -0.046797752
000020 04 fa 2b 3e 55 40 a1 bd a5 09 f7 3d d0 3f 8a bd
       0.16794592 -0.078735985 0.120623864 -0.067504525
000030 08 c3 bd 3d 5e 71 13 3e 19 2b 00 3e 36 4f 16 3d
       0.09265715 0.14398715 0.1251644 0.036696635
000040 7f 08 e2 bc c9 b8 0a 3e a0 ac 99 3d df f2 fe 3d
       -0.027591942 0.13547052 0.07503629 0.12448668
000050 a9 53 7f 3d 91 9a f5 3d 69 07 10 3e 11 63 a3 bd
       0.062335644 0.11992372 0.14065327 -0.0797788
000060 76 9b 14 3e fb 38 b0 3d 0a ff 97 3d 1b ee 7c 3e
       0.14512429 0.08604618 0.07421692 0.24700205
000070 07 78 01 3e b6 fd 9e 3d 77 37 fc bd 96 c4 09 3e
       0.12643443 0.07763235 -0.123152666 0.13453898
000080 0c 7e 8d 3d 06 ad 48 bd 32 86 98 bd 19 6b 0c bd
       0.06908807 -0.048993133 -0.07447471 -0.034281824
000090 a7 e9 4f 3d 22 e6 9c 3d 07 00 60 3d 85 19 d9 bd
       0.050759938 0.07661082 0.054687526 -0.106005706
0000a0 5d a6 9b 3d 38 ac 6d bb e7 8b ff 3d 6e 33 08 3e
       0.07600091 -0.003626598 0.12477856 0.13300869
0000b0 af ec 57 bd 8b b3 f7 3b a2 d6 93 bd 7b 7b 00 3e
       -0.052715953 0.007559245 -0.07218672 0.12547104
0000c0 cf 31 97 3d 6f e5 36 3e 07 35 aa 3d 03 30 e2 3d
       0.07382547 0.1786096 0.083108954 0.11044314
0000d0 06 5a b6 3d 7d bb 64 3d 55 b4 99 3d 2d 51 0e 3d
       0.08903889 0.055842865 0.07505099 0.034745384
0000e0 a4 23 43 3d a3 73 f3 3c 6f b3 e2 bc 0f 22 0a 3e
       0.04764141 0.029718226 -0.027673451 0.13489555
0000f0 08 55 10 3e 6b fe 00 3e 50 fb 4e 3e e7 b6 94 bd
       0.14094937 0.12597053 0.20213056 -0.07261448

actor.weight f4 [8, 64]
000000 b4 ee cc 3d 15 c7 f7 3c 81 6f 26 3d a7 04 a9 3e
       0.100064665 0.030246297 0.040633682 0.33011362
000010 b2 8e af 3d 97 21 a7 3d b1 78 a5 3d c0 ac 13 3c
       0.08572139 0.08160704 0.08079661 0.009013355
000020 48 3d ac bd ea eb 8d 3d 9c 0a c5 bd 1e 68 33 3d
       -0.08410126 0.06929763 -0.09621164 0.043800466
000030 91 dc 8c bc 4b 21 87 3d 69 3b 26 bd 7d b0 da 3d
       -0.017195018 0.06598147 -0.040584 0.10678194
000040 2c c9 35 bb 3e 8b 23 3d a1 b5 0f bd 68 da d8 3d
       -0.0027738316 0.039927714 -0.035085324 0.10588533
000050 22 2b e0 bb 36 ad b1 3d 76 b5 7b bd 78 4f 1d 3d
       -0.0068410793 0.086756155 -0.06145235 0.038405865
000060 5f 7d 0f bd 44 58 e8 3d 5a bc a3 bc 03 a9 a1 bd
       -0.035031673 0.1134496 -0.019987274 -0.078935646
000070 be 98 92 3d c2 a6 50 3d 27 b1 6d 3d e9 d9 29 bd
       0.071580395 0.050940283 0.058030274 -0.04146758
000080 14 a6 34 3e 7e 7b 1a bd 17 5c f6 3d 3d 0b e6 3c
       0.17641479 -0.037715428 0.120292835 0.02808153
000090 51 85 7e bd 25 82 bd 3d aa 69 80 3d 16 7e a5 3d
       -0.06213886 0.09253339 0.06270154 0.080806896
0000a0 9c 9a e1 3d d4 af cf bc 92 88 65 3c 3b c0 79 bc
       0.110158175 -0.025352396 0.014009612 -0.015243585
0000b0 2f 7b 99 bd a0 e2 0f 3e d0 53 1f bd fc 29 b9 3d
       -0.074941985 0.14051294 -0.03889829 0.09041211
0000c0 e8 f0 b8 ba 6f 98 b3 3d dc 4f 85 bc 97 bf 94 bc
       -0.0014109882 0.08769309 -0.016273431 -0.018157763
0000d0 cd 04 b1 3d 34 56 0a 3e a0 ca 64 3d 1e b0 25 3e
       0.08643494 0.13509446 0.0558573 0.16180465
0000e0 a3 3a 06 3d 9c bd e0 bd 8b ad 12 3e 09 2f 44 3d
       0.032770764 -0.10973665 0.14324014 0.04789642
0000f0 e2 b8 b4 3b 8a b5 3e 3e ff c9 4a bd 30 d5 b5 3d
       0.005515204 0.18623939 -0.049509045 0.08878553
000100 9b c1 7c 3d b9 77 af 3d 22 03 0e bd fa 14 26 3e
       0.061708074 0.08567757 -0.034670956 0.1621894
000110 aa e9 0e 3e ed 6a 39 bb ea 11 37 3e 84 ce 74 3d
       0.13956323 -0.0028292492 0.17877927 0.05976726
000120 22 86 25 3d c8 10 a0 bd af de 3a bc 03 26 4b 3e
       0.040411122 -0.07815701 -0.011405631 0.19838719
000130 b2 15 4d 3e 15 b4 bf 3d df 23 94 bc 86 97 bb 3d
       0.20027807 0.0936052 -0.01808351 0.0915976
000140 1f c9 c6 bd 76 a8 b7 bc c0 45 ff 3d 98 77 34 3d
       -0.097063296 -0.022419196 0.12464476 0.044059366
000150 5e b5 92 3c cb 69 0d 3e 96 cc bf bd 0b 19 57 3d
       0.017908748 0.13809888 -0.093651935 0.052514117
000160 22 08 0a bd ae 43 ff 3d 5f 92 71 3d 97 ab cd bd
       -0.033699162 0.12464081 0.05897748 -0.10042494
000170 b9 c1 0d bb 77 ec 7b bc 8e 72 9e bd 0c d9 b0 3d
       -0.002163036 -0.015376202 -0.07736693 0.086351484
000180 03 af 4c 3e e5 f8 d1 bd a7 95 3b 3e 73 31 22 3e
       0.19988637 -0.10252551 0.18318807 0.15839176
000190 05 b2 02 3e 11 7c 88 3d 26 81 f9 bc 7a c5 db 3d
       0.12763222 0.06664289 -0.03045709 0.10731025
0001a0 02 d2 95 bd 60 0f fb 3c b2 e7 87 3d 81 72 4d 3e
       -0.073154464 0.03064698 0.06635989 0.20063211
0001b0 73 91 77 bc 86 69 68 3e 18 89 e9 3d 64 ca 18 3e
       -0.015110361 0.22696504 0.11403102 0.14920956
0001c0 32 e9 0d 3e 43 45 3b 3d 39 35 3c 3e e6 88 24 3e
       0.13858488 0.04572035 0.18379678 0.16067848
0001d0 dc a7 5d bd 43 74 af 3d 01 f0 38 3d f6 22 62 3e
       -0.05411516 0.08567097 0.04515076 0.22083649
0001e0 ac b8 55 3e 99 61 60 3c 85 3d 2a 3e 43 1c 51 3d
       0.20871228 0.013695144 0.1662503 0.051052343
0001f0 ba f6 0e 3e 93 dd 1a 3e a2 46 52 bd 63 33 c6 3c
       0.13961306 0.15123586 -0.051336892 0.024194425
000200 a7 fd 0e bd f8 1f b6 3d 95 df 0c be 4b 0a 56 bd
       -0.03490987 0.08892816 -0.13757165 -0.05225591
000210 85 4d f7 3b 5e 8f cd bc 6f b7 e5 bd 4c 44 b8 bd
       0.007547083 -0.025092777 -0.11216628 -0.089974016
000220 1b 43 e3 3d fa 4f 9b bc 7b 20 94 3d 97 df 4c 3d
       0.11096784 -0.018959034 0.07232758 0.05001792
000230 2c 61 9d bb f9 38 35 bd bd 44 0a be d6 16 ed bc
       -0.0048028436 -0.044243786 -0.13502784 -0.028941553
000240 db ab dc bc d5 57 ab bd 25 63 94 3d 37 7b f9 bd
       -0.026937416 -0.08366362 0.07245473 -0.121817045
000250 13 e3 de bd 46 57 cd bd d0 9c fd bc e0 fc 99 bd
       -0.10883155 -0.10026412 -0.030958563 -0.07518935
000260 16 13 f5 bd 62 61 29 3d 9c 42 e8 bd 2e ea 38 bd
       -0.11966531 0.041352637 -0.1134083 -0.045145206
000270 7c 37 4e bc 5b b0 4b bd 14 2d a2 3c 27 23 a4 bc
       -0.012586471 -0.049728733 0.019796886 -0.020036293
000280 0c 23 88 3d 87 dd 9e 3c 38 8f dd bd 76 88 9a bd
       0.0664731 0.019392742 -0.108183324 -0.07545559
000290 06 84 a7 bd 05 c1 cf 3d 21 79 7d bd 80 dd a9 3d
       -0.08179478 0.101442374 -0.061883096 0.08294201
0002a0 4d cb 0a bd fc c2 ad bd 9b c3 85 3d da dc a0 bc
       -0.03388529 -0.08484456 0.065314494 -0.01963656
0002b0 fa e5 8d 3c 7a b7 eb ba 8c 54 11 3d af 6f 51 be
       0.017321575 -0.0017983757 0.03548102 -0.2045276
0002c0 b0 77 64 3d 81 0a c6 bd c6 72 83 bd fb 98 06 3e
       0.055778205 -0.09669972 -0.06418376 0.13144295
0002d0 6d ab e9 3d a0 1b a8 3d 82 00 bb bd 56 71 39 bd
       0.1140965 0.08208394 -0.09130956 -0.0452741
0002e0 87 6b d0 bd c4 00 5e 3d 46 0f cd 3c ce 71 7a 3b
       -0.10176759 0.05419995 0.025031697 0.0038214806
0002f0 de 2e 5f bd 8d 42 6a bd 35 b5 a7 3d 2b 5b e7 bd
       -0.054488055 -0.057192374 0.081888594 -0.11296686
000300 ac 61 f3 bc ea 77 71 bd 80 a4 8c 3d 38 3c 99 be
       -0.02970966 -0.05895225 0.068673134 -0.29928756
000310 2a e5 f0 bd 57 9b 2f be ef 05 8b 3d 88 e1 df 3c
       -0.117624596 -0.17149101 0.06788241 0.027329221
000320 33 3b c8 3c ea 4a db 3d 3e a1 ad 3d 2c 77 1d 3d
       0.02444229 0.10707648 0.0847802 0.03844373
000330 50 11 e2 bd 72 8b b7 bd 4b 32 68 bd a7 06 a5 bd
       -0.11038458 -0.08962144 -0.056688588 -0.080579095
000340 19 4f cf bd 7c 3a a8 3d bc a9 c3 3d a4 d1 c9 bb
       -0.101225086 0.0821428 0.09553859 -0.0061590243
000350 b7 0f cf bd 7d 65 34 bc e5 57 9b 3d fc 4e 1d 3d
       -0.10110419 -0.011010525 0.07585124 0.038405403
000360 9f 86 08 bd 8c 7e 09 3d 23 6f ee bd e6 81 d8 3c
       -0.03333151 0.03356795 -0.116422914 0.026429128
000370 90 98 70 3d 03 a5 f5 bd e5 46 9a 3d 16 fd d2 3d
       0.058739245 -0.11994364 0.07533053 0.103021786
000380 d4 79 c4 bd cb ca 98 3d c5 9a 7d 3d a8 35 1d be
       -0.09593549 0.07460555 0.061915178 -0.153525
000390 9f 38 06 be 34 66 9f bd 27 18 75 3d 94 ef ab 3d
       -0.13107537 -0.077831656 0.059837487 0.08395305
0003a0 c5 f4 f5 bb b6 26 64 bd 54 42 99 3c ab 7e a2 bd
       -0.0075059854 -0.05570098 0.018708386 -0.07934316
0003b0 eb 9d 24 bc 04 ce b9 bd a0 d0 7f 3c b4 a5 df bd
       -0.010047416 -0.090724975 0.015613705 -0.10920277
0003c0 be 54 e2 bd c9 fe 2c bd 2d 89 cf 3c d0 87 c5 3d
       -0.110513195 -0.04223517 0.025333965 0.09645045
0003d0 de b6 4a 3d e2 45 b2 3c 25 96 1c 3b a8 74 ca bb
       0.049490802 0.021761838 0.0023893204 -0.0061784573
0003e0 c0 4a f8 bc 2d 6c f1 3c ea e9 32 bd 71 f9 91 bd
       -0.030309081 0.029470528 -0.04368011 -0.07127655
0003f0 f9 e5 01 be df 3e ae 3d 55 82 ad 3c 4e 9c 9f 3d
       -0.12685384 0.085080855 0.021180311 0.07793485

actor.bias f4 [8]
000000 ef 6e 3a bc 74 d8 1e 3d e5 ec db 3d 57 c3 ac bd
       -0.011378988 0.038780645 0.107385434 -0.084356956
000010 6a 77 54 bd 4d 28 a1 bd 36 58 c0 bd 24 89 25 be
       -0.051871695 -0.07869015 -0.09391825 -0.16165596

critic.weight f4 [1, 64]
000000 88 26 0c be 17 9c 64 3e 7d 56 3d bd c9 4a 00 3f
       -0.13686574 0.22325169 -0.04622506 0.50114113
000010 5f b7 0b be 39 88 02 3f 7f 59 f9 bd 40 39 08 3b
       -0.1364417 0.5098911 -0.12175273 0.0020786077
000020 df 26 42 3e 7d cc bf bb 41 8b 3e 3e a3 8b d9 bd
       0.1896014 -0.0058532343 0.18607809 -0.10622337
000030 32 58 01 be 9b 94 9b 3e 75 a6 70 3e 86 8e 0f be
       -0.126313 0.30386814 0.23500998 -0.14019212
000040 35 2d 9a 3d 71 e8 e9 bd 46 fd a2 3e 60 d4 44 3e
       0.07528154 -0.11421288 0.31833857 0.1922164
000050 ed d2 98 3e 4e bf fb bd 7b 6d 33 3e 09 7c 7b bd
       0.29848424 -0.12292348 0.17522232 -0.061397586
000060 c3 72 84 3e d9 d9 fb bd 02 b4 19 3e 93 d7 8e 3e
       0.25868806 -0.122974105 0.15010074 0.27898845
000070 46 c3 ca bd 2f d6 0c be d9 0f 15 3b 54 25 04 be
       -0.09900527 -0.1375358 0.0022745042 -0.12904865
000080 26 f9 0f be c6 ac bf bd a2 77 05 be b1 65 84 bd
       -0.14059886 -0.09359126 -0.13033918 -0.064647086
000090 46 a6 39 3e 66 db 2e bd 71 b2 82 3e 76 80 23 bd
       0.18129835 -0.042689703 0.25526765 -0.03991743
0000a0 1d 58 44 3e 80 63 6a 3e a6 9a 40 bd d1 05 fc bd
       0.19174238 0.22889519 -0.047022484 -0.12305797
0000b0 d0 e7 87 3d f6 35 ce bd da 88 84 bd c6 f5 73 3e
       0.066360116 -0.10068886 -0.06471415 0.23824224
0000c0 79 64 a5 bd ac c5 b8 3e 1e d7 3d bd 3b 14 a6 bd
       -0.08075804 0.36088312 -0.04634773 -0.081093274
0000d0 88 c3 45 3e a4 56 b2 3e ee 25 96 bd b4 25 07 be
       0.1931287 0.34831727 -0.07331453 -0.13197976
0000e0 fe b8 79 bd 2b f5 d8 3d ad a0 7c bc b4 25 13 be
       -0.060967438 0.10593637 -0.0154191675 -0.14369851
0000f0 45 e9 f5 bd 59 5d f9 bd 93 de 85 3e 13 98 26 bd
       -0.12007383 -0.12176008 0.26146373 -0.040672373
