models/Ant-v2/ppo_kl_20241114_015750.pth (torch, 50597 bytes, 7 tensors)

fc.0.weight f4 [64, 111]
00000000: abc5 193e 95b5 823e 683b 273d 5889 0fbe
00000010: 58a0 923d e2b9 893d 4c4d d43d 4148 28bc
00000020: 057c 69be 9113 c33d 756a 22be 5e00 ba3d
00000030: deb0 293e 02e1 e8bd 08dc 333d 4723 df3d
00000040: f32a 87bd f06a 2dbd 4067 a3bc e93a 51bd
00000050: 5bce d6bd f599 80bc 7f88 f33b ca53 913d
00000060: ffa8 1e3c ad3f b1bd a274 fbbc c1d6 a3bd
00000070: 34ef 463d 3a14 a43c d899 2ebc 4204 acbd
00000080: 28ad 98bd 8961 aabc 636e 1fbd e3ff 3dbd
00000090: 33d5 873d 2aff bebc 4745 cd3c fee5 8fbd
000000a0: 4ef5 bd3c 18b6 583b b448 5cbd 7312 1a3b
000000b0: 0b4d bbbc 40c4 5cbd 886f c0bd 3cc2 c73c
000000c0: ce34 843d bd14 583c 861e 66bd 8174 ecbc
000000d0: 3190 8fbd b835 00bd faed d2bc ec22 a4bd
000000e0: d34a ba3b 9bd9 203d 79f4 06bd 918f e7bb
000000f0: 5109 7ebc 78eb 333d db42 1ebd 5bff e1bc
00000100: a80d b73d 7515 3ebd 02b6 b03b 1de9 26bd
00000110: 36ef c0bd c8e2 973d 9171 28bd 3ded b0bd
00000120: 47d9 c3bc 2000 b03d 6637 a43d affc 9f3d
00000130: 243c b7bd fbdc 37bd 052f 153d e4d4 ba3d
00000140: 2813 693c b280 923c 32f1 1a3d 666f a63d
00000150: 2924 a6bd 19d3 f3bc 29dd c03d d2a3 b4bd
00000160: 6d88 5f3d fcb6 57bd 6e9e 883d 756e 8d3d
00000170: 1bde 973c 0df4 2b3c 18cd 853d 6678 af3c
00000180: dffa 5b3b 7e1e d83c 3cdd 613d 3f6f 0dbc
00000190: 6785 aa3d 781e 52bd bba6 563d 85a7 76bd
000001a0: f37f 1b3d 95c7 8fbd d73c e23c 35cb 093d
000001b0: 5d9e 6bbd aab2 94bd 455e 04bc eb6f e23d
000001c0: c080 243e e95e 053c 0f8f cabd 6824 afbd
000001d0: 872f bb3d cc9f f63d d7dd 713c 0bce a6bd
000001e0: 6125 303e e475 4ebe b802 0a3e 8fdf 093e
000001f0: c6ee a7bd f81b 94bd 9faf f0bc 01c5 783d
00000200: 6810 563d 116f c93c 120a ddbd 95fd 08be
00000210: 7574 05be 569f a8bd 70a2 faba 9d44 883d
00000220: ef89 c8bc 74e8 babd 1f31 953d 5c34 4abd
00000230: 83f5 54bd 020a 9d3d b34f 373d 151b 33bd
00000240: a6c3 96bd 4df4 293d 91ea b2ba f690 a4bd
00000250: 4679 6f3d 2b2b a7bd 82f0 a7bd 561f 18bc
00000260: 5ca6 a0bd f415 86bd d84a 0c3d a95d 52bc
00000270: 871d 69bd 90dc 183d 8040 a23d 5b83 a23d
00000280: 64e9 8ebd d402 063d 1370 ae3d 96d3 e8bc
00000290: 14c3 7a3d b14b 313d 3470 babd bf0f 903c
000002a0: d174 bc3d 0426 fb3c 9ff4 1fbd cd31 b9bd
000002b0: bcd6 dbbc 5d38 02bd 2bd6 4fbd b44d 0c3d
000002c0: 1559 723d d04a b53c efc6 b83d 378e 833c
000002d0: 4dd3 a6bd 8116 5dbd c09d b53d d0d6 a3bd
000002e0: 6b84 5fbd 217c 133c a2bc 233d 55e5 a13d
000002f0: 400c 73bc 81e3 c9bc 32c5 633d a6f1 6cbc
00000300: cfdb b6bd 0bd1 ad3d 04d8 a6bd 1def adbd
00000310: 40e2 c03d b9fa 783d fe35 28bd 5ba8 2dbd
00000320: e50f 39ba 523d bcbb 7063 463d 578e 123d
00000330: c082 0a3d a747 b23d 0159 ad3c 74a9 0fbd
00000340: f5d3 e53c 0538 04bd 8521 9c3b 0408 b7bd
00000350: 72eb b03c a4a0 68bc 94de a5bd c34f 9abd
00000360: 031e 07bd 9529 96bd d244 383c cca6 3b3d
00000370: 590a 15bc f43b 1abd 00bd 833d 323b 813d
00000380: da8f c33d 9068 5cbd 96fd 0a3d cc19 bdba
00000390: 5335 9b3d bc9e 023d 9ded d5bd f86d 313e
000003a0: e63d 25be e59d 2e3e a5ee 0a3d 7888 463e
000003b0: b547 85bd 1fff 78bd 1788 f93d 676d 33be
000003c0: b970 07bd 5281 9e3d ae8e ff3c 5183 1c3e
000003d0: 0c8b ab3d 07f5 efbc 29a8 2dbd ee9b f53d
000003e0: 77fe aebd 72de d53c 3890 b93b 5c48 2abb
000003f0: 1ce3 d83c df84 82bd 3345 b4bd 6af7 943d
0.1501681 0.2552916 0.04082814 -0.14017236 0.071594894 0.067249075 0.10366306 -0.010271133
-0.22801216 0.09525216 -0.15860923 0.09082101 0.16571376 -0.11371042 0.04391101 0.108954005
-0.06599989 -0.04233831 -0.019946694 -0.05108157 -0.10488578 -0.015698412 0.007432043 0.070960596
0.0096838465 -0.08654723 -0.030695263 -0.079999454 0.048567966 0.020029176 -0.010656796 -0.083992496
-0.07454902 -0.020798462 -0.038923632 -0.04638661 0.066324614 -0.023315031 0.025057448 -0.070262894
0.02318826 0.003306752 -0.053780273 0.0023509532 -0.022863885 -0.053898096 -0.09396273 0.02438461
0.06455384 0.013188538 -0.056181453 -0.028864147 -0.07009924 -0.03130123 -0.025748242 -0.08014473
0.0056851893 0.039270025 -0.03294799 -0.007066675 -0.015505151 0.043925732 -0.038637977 -0.027587583
0.089381516 -0.04640718 0.005392791 -0.040749658 -0.09420626 0.07416302 -0.04112393 -0.086389996
-0.023907317 0.08593774 0.08018379 0.078118674 -0.08947018 -0.044888478 0.036421794 0.09122637
0.014225759 0.017883632 0.037827678 0.08126716 -0.08112366 -0.029763745 0.09417183 -0.08820309
0.054573465 -0.052664742 0.06670843 0.06905834 0.018538525 0.010495198 0.06533259 0.021419715
0.003356628 0.026381727 0.055142626 -0.00863248 0.08326226 -0.05129859 0.0524051 -0.060218353
0.03796382 -0.07020489 0.027616901 0.03364106 -0.057524074 -0.0726064 -0.008079116 0.11056503
0.16064739 0.008140304 -0.098905675 -0.08551866 0.091399245 0.120421976 0.014762363 -0.08144768
0.17201759 -0.20162159 0.134776 0.13464187 -0.08199839 -0.07231897 -0.029380618 0.060734753
0.05226174 0.024589093 -0.107929364 -0.13377984 -0.13032706 -0.08233516 -0.0019121896 0.06653712
-0.024479834 -0.09126368 0.0728476 -0.04936634 -0.05199195 0.076679245 0.04475374 -0.043727
-0.07361536 0.04149275 -0.0013650229 -0.080354616 0.058465265 -0.081625305 -0.0820017 -0.009284815
-0.078442305 -0.06547156 0.034251064 -0.012839713 -0.056912925 0.03731972 0.07922459 0.0793521
-0.069781095 0.03271754 0.0851747 -0.028421205 0.061221197 0.043285076 -0.09103432 0.017585633
0.092019685 0.030657776 -0.03905165 -0.09042702 -0.026835792 -0.031792033 -0.050741356 0.03425379
0.059166986 0.0221304 0.090223186 0.016059024 -0.08145771 -0.05397654 0.08867979 -0.079999566
-0.054569643 0.009001763 0.039974816 0.0790507 -0.014834464 -0.024644615 0.055607982 -0.01446191
-0.08928644 0.084871374 -0.081466705 -0.08492873 0.09418154 0.060785983 -0.041067116 -0.042396884
-0.00070595584 -0.0057446146 0.048434675 0.035780277 0.0338161 0.08705073 0.021160604 -0.035073712
0.02805517 -0.032279987 0.004764738 -0.08937076 0.021596644 -0.014198456 -0.08099094 -0.075347446
-0.032987606 -0.0733215 0.011246877 0.045813367 -0.009096705 -0.037654832 0.06432533 0.06310119
0.09548922 -0.053810656 0.033933245 -0.0014427244 0.0757853 0.031889662 -0.10445712 0.17327106
-0.16136894 0.1705242 0.033918995 0.19387996 -0.06507818 -0.060790177 0.1218416 -0.17522202
-0.033066485 0.0773951 0.031195965 0.15284468 0.083761305 -0.029291643 -0.0423967 0.11992632
-0.08544629 0.026107047 0.005662944 -0.002598307 0.026475482 -0.063729994 -0.08802261 0.07273753

fc.0.bias f4 [64]
00000000: 8535 8f3e d7db 883d 2e63 153e 136d e93d
00000010: 48a4 c33d f7e1 563e dd52 b23d 3e1e ab3d
00000020: 4aee 443e 900a 403e 6bb1 bc3d a4b8 963e
00000030: a810 f53d 12ed 243e c99f 343e 4086 043e
00000040: 0182 443e 4ddb 1b3d 5f67 b73d eb2a 223e
00000050: 0d60 633e 7dae 223e c383 c33d 5f9a 343e
00000060: 8505 3e3e b522 b43d cc40 2b3e 623e 4d3e
00000070: f9b8 403d 2845 993d c19c f03d 49d7 1a3e
00000080: 9b35 853e c33a d43d 2857 5a3d 19ac 813d
00000090: 4be2 d33d 7c70 d73d 967a 063e 2cb2 a43e
000000a0: d9a9 f03d 9baa 083e 9e65 0b3d 0da2 a73d
000000b0: 78aa 7c3e 04d5 143e 5cf5 2e3e 9277 e63d
000000c0: c192 413d b922 333e eb95 013e 966f 013e
000000d0: da46 443e ecb0 f53d a372 e13d 75da 143e
000000e0: bade a23d 0817 693e 91c6 483e 5888 3e3d
000000f0: 339d 1d3e a32c a03e 3286 993d a556 303e
0.2797052 0.06682556 0.14588615 0.113977574 0.095528185 0.20984636 0.08707211 0.083553776
0.19231525 0.1875403 0.09213527 0.29437745 0.119660676 0.1610606 0.17639078 0.12941837
0.19190218 0.03805094 0.08955263 0.15836684 0.22204609 0.15886874 0.09546616 0.17637013
0.18556793 0.08795682 0.16723937 0.20043328 0.047051404 0.07483894 0.117486484 0.15121187
0.2601746 0.103627704 0.053305775 0.06331653 0.10345896 0.105195016 0.131327 0.32167184
0.11751146 0.13346331 0.034032457 0.081852056 0.24674404 0.14534384 0.17085785 0.11253275
0.047259096 0.17493714 0.12654845 0.12640223 0.19167653 0.11996636 0.11008193 0.1453646
0.07952638 0.22762692 0.19606997 0.046516746 0.15391998 0.31284055 0.07496299 0.17220552

fc.2.weight f4 [64, 64]
00000000: b7e2 a1be 63b3 d7bb 36f8 f13b 27f7 7b3d
00000010: bd1f 9cbd be22 c83c a7cb f5bc d999 8d3d
00000020: 0f39 193e c4cd 26be 654d 023e f807 5fbe
00000030: e89e b23c 2a10 f3bc 501e b53d 470d 853d
00000040: 1862 9fbd 5ff5 073d ebfe c3bb c40d 023e
00000050: 62a7 003e 7047 123e 8919 99ba fbca 3c3c
00000060: e458 fd3d 7c3a 48bd 8392 0d3e 230e 2dbc
00000070: 08ba 73bd ad67 1c3e b6f8 fb3b 939c 013e
00000080: 2e68 23be b1da 253d f927 10bc 0baa 983d
00000090: f525 70bc 7c33 d33c 9af6 41be 7f91 54be
000000a0: f700 993d fb57 083e 5d87 06bb 92cf ac3d
000000b0: 9d3f 1dbe 4099 8b3c fcbb b13d 29c6 96bc
000000c0: 7148 ec3c 6add 41bd e568 e63d c414 bcbc
000000d0: 0e12 99bd ff2f 843d 4abe 81bd c33b 053e
000000e0: 6568 f0bb 9ed7 103e b8a3 3a3d 8021 ee3d
000000f0: 28bc a4bd dc54 c4bd 4b30 39bd 2e9d 9ebd
00000100: 816f 383d 9110 893e 0974 873e 1ead 623e
00000110: 443e 2d3e 5d97 523d bb05 913e d963 923e
00000120: 2dce 343e f8dd 733e b109 7b3e 7095 893e
00000130: 4813 323e eacd 4c3d ef3d 353e 55fa bf3d
00000140: d31e 8b3e bd08 533e b0bb 883e 2a2d 893e
00000150: 1d00 ab3e dd5c b53d 9c07 d23c 6ab4 1b3d
00000160: 431f 243d a436 093e 8f51 a93d 24f2 8a3e
00000170: 281a 433e e383 713e bcb7 543e 9da3 4c3e
00000180: b63f 103e 23b2 a03d f309 933e 9739 903e
00000190: 6402 583e 8ccb b53d 9c5d b13d 9520 ac3e
000001a0: f51a 593e 5497 5f3e f640 903e 8e27 ff3d
000001b0: a54f aa3e 501a 8a3e 9756 a63e ba53 593e
000001c0: 73bf 143e e566 413d 67fe 743e a994 6c3e
000001d0: 2afd a93e 15f2 6d3e 6829 ce3d 5da1 763e
000001e0: 77bf 473e 2d77 803e bfda 963d 1a89 2d3e
000001f0: 97cb 913e ac64 4f3e ee53 9c3e 4427 0a3e
00000200: 8912 9b3d 666e 8a3d 17ee 6e3e 5252 f83d
00000210: c743 2b3d f00a fb3d 8bf1 4b3e 656a c03d
00000220: aaac e63d 19dd 123c 6b6a 433e 9b95 303e
00000230: 3202 493e 6dc1 9d3e 8644 703d 1bd4 173e
00000240: 7a3f 0c3e c0af 7c3e d91c 3d3e fadf 693e
00000250: 836f b03d d4ba d33c 6836 dd3d 21b8 8cbc
00000260: 8961 853e 7bbc 673e 4043 6b3e 377b 0b3e
00000270: 99a6 8f3d d3bc b43d b91f 403e f61e 193e
00000280: c83a 563e 8dfe 433d 89b4 db3d c6dc 743e
00000290: b57c d83d 25a7 4e3e d216 1dbd 4eab 3a3e
000002a0: e78f a53c a5aa f33c 4a81 e63c 3f2f 813e
000002b0: a349 2c3e fb3c 543e c668 763e cbe0 0c3b
000002c0: 0e72 9e3e 114d 78bb 6246 1e3e c3b4 373e
000002d0: c2b1 2c3e a3d2 933e fd1a e33d 84c6 863d
000002e0: f850 903e cd22 1b3e 5c11 2c3e 427f 9a3d
000002f0: 6737 2a3e 522c 5a3e 1ff7 1c3d bf0e 333e
00000300: 63cd 3ebe b5c6 8abd 8a8f 253e 81cd 073d
00000310: 207c fd3d dd8a ca3d 826d c1bc 9b58 743d
00000320: 68d3 ff3c 2f1f 65be 9239 1e3e 5f88 5abe
00000330: c4d9 e23d 950c 2b3c 2eee a73c d5b2 e83b
00000340: 886b c53d e1c1 ef3d cf3a 8c3c 4d54 a3bc
00000350: fc3d 093e 041d 003e dd0a d83d a215 18bd
00000360: 04ce 473d d20c c13d a356 923d e2ae 92bd
00000370: bbbc bf3d bb89 93bd 306b 1a3e a310 d1bd
00000380: 3ac2 79be 1e35 71bd f68b 723d addf c93c
00000390: f16b 6f3d 8734 89bd ed3c 4c3c f34a f9bd
000003a0: 172d a13d c15d 7ebd 4aea 1d3e e00f 893d
000003b0: 4bac 17be 5d6d c73d 882d db3d 1d88 f23d
000003c0: b6f9 f83c 1100 dabd 889a a73d baa3 b73c
000003d0: 1068 0c3c 5304 8fbd 9189 f1bd d242 1e3e
000003e0: 14a2 6d3d 2443 253d a6f2 9e3c 597a b73d
000003f0: df00 4abe e605 59be 24c2 a63d c687 393d
-0.31618282 -0.006582664 0.0073843254 0.061515 -0.07623241 0.024430629 -0.030004336 0.0691411
0.14963172 -0.16289431 0.12724836 -0.21780384 0.021804288 -0.029670794 0.08843672 0.06496673
-0.07782382 0.03319299 -0.0059813163 0.12700564 0.12563851 0.14285064 -0.0011680584 0.011523004
0.1237047 -0.0488839 0.13825421 -0.0105624525 -0.059503585 0.15273924 0.0076895608 0.12657385
-0.1595771 0.040491764 -0.008798593 0.07454308 -0.014657487 0.025781386 -0.18941727 -0.20758627
0.07470887 0.13314812 -0.002052746 0.084380284 -0.15356298 0.017040849 0.08678433 -0.018405037
0.028843137 -0.047330298 0.11250476 -0.02295912 -0.07474147 0.06454467 -0.06335123 0.13011079
-0.0073366635 0.14144751 0.04556629 0.11627483 -0.080437005 -0.09586498 -0.04521207 -0.077448234
0.045028213 0.26770452 0.26455715 0.22136351 0.16918284 0.051413883 0.28324685 0.28591803
0.17656775 0.23815143 0.24515416 0.26871824 0.17390168 0.050001062 0.17699407 0.09373919
0.27171955 0.20608802 0.26705694 0.2679227 0.33398524 0.08855603 0.025638394 0.038013853
0.040068876 0.1339975 0.08267509 0.27137864 0.19052947 0.23585467 0.20773214 0.19984289
0.14086804 0.07846477 0.28718528 0.28168938 0.21094662 0.08876714 0.08660433 0.33618608
0.2120169 0.21835071 0.2817456 0.12458716 0.3326389 0.269732 0.32487938 0.21223345
0.14526157 0.04721727 0.23925172 0.23103584 0.3320096 0.23236878 0.10066491 0.24084993
0.19506632 0.25090924 0.07365941 0.16946831 0.2847564 0.20253247 0.30532783 0.13491541
0.07571895 0.06759338 0.23333012 0.12125076 0.041812684 0.122579455 0.1991636 0.09395293
0.11263402 0.008963847 0.19083564 0.1724457 0.19629744 0.30811635 0.0586591 0.14827006
0.1369609 0.24676418 0.18468036 0.22839347 0.08615019 0.025845923 0.10801393 -0.017177643
0.26050976 0.22630493 0.22974873 0.13621221 0.07014198 0.08825078 0.18762101 0.14953217
0.20920861 0.04785018 0.10727794 0.23912343 0.10570661 0.20180948 -0.03835184 0.1822941
0.02021022 0.029744456 0.028137822 0.25231358 0.16824965 0.20726387 0.24063405 0.0021496292
0.30946392 -0.0037887732 0.15456536 0.17940049 0.16864684 0.2887164 0.11089132 0.065808326
0.28186774 0.15149994 0.16803497 0.07543804 0.16622697 0.2130597 0.03832161 0.17486094
-0.18633036 -0.067761816 0.16168037 0.03315497 0.123771906 0.09889767 -0.023611788 0.059654813
0.031228736 -0.22375177 0.15451649 -0.21341084 0.11076692 0.0104400115 0.020499315 0.0071013966
0.096396506 0.11706901 0.017117886 -0.019937659 0.13402551 0.12511069 0.10548947 -0.037130006
0.048780456 0.094262734 0.07145431 -0.071622625 0.09362169 -0.072040044 0.15079951 -0.10208251
-0.24390498 -0.058888547 0.05921551 0.02464279 0.05845255 -0.06699472 0.012465698 -0.121724986
0.07869928 -0.06210113 0.15421405 0.06692481 -0.14811818 0.09737656 0.10702044 0.11842368
0.030392509 -0.10644544 0.08183771 0.022416938 0.008569732 -0.06983247 -0.11793817 0.15455177
0.058015898 0.040347233 0.019402813 0.08958883 -0.19726895 -0.21193656 0.08142498 0.0452955

fc.2.bias f4 [64]
00000000: e524 a0bd edf2 333e 8c28 2c3e 4b21 c43d
00000010: 1e59 943c 9ecb 5b3c d272 5c3e 12f9 953d
00000020: d417 013e 9262 163e cc87 8e3d f3fc bfbc
00000030: c330 7b3d a9aa 423e 467e b83d 4c30 e53d
00000040: bd45 75bd fde5 0f3e 0106 20bd 0929 abbd
00000050: 5418 2f3e a58c 463d e486 d13d e5ec d23d
00000060: 1cbb e63d 3d9f e53d c5e7 a73c 9f33 cc3d
00000070: aecb 053e be54 1a3e dbe6 b1bc f009 fd3d
00000080: b436 133e 65ad b93c c339 283a cdfb bd3d
00000090: 6e18 29bd f73c e03d 4030 ce3d 83a8 153e
000000a0: 45d3 ea3c 1734 353e f047 153e ce45 6fbd
000000b0: 8e66 303e a86b 143e 199e b33d 4790 6a3d
000000c0: d57d ac3d 8293 193e d6d2 993d 3a35 953c
000000d0: 6bac 4e3c dcb0 15bd 9207 d03d a867 0f3e
000000e0: 9f15 c33d c82b 663d 7fab 7a3d 419f 91bc
000000f0: b39c 9e3d 8768 05bd 85fd 18bd 5831 26bd
-0.07819537 0.17573138 0.16812342 0.09576663 0.0181089 0.013415245 0.21528175 0.07322897
0.12606746 0.14686039 0.06959495 -0.023436045 0.0613258 0.19010414 0.0900846 0.111908525
-0.05988096 0.14052577 -0.039068226 -0.08357436 0.17099124 0.048473973 0.102308065 0.1029909
0.11266157 0.11212013 0.020496259 0.099707834 0.13065979 0.15071389 -0.021716526 0.12355411
0.14376336 0.022665689 0.00064172986 0.09276543 -0.041283064 0.10949128 0.10067797 0.14615063
0.028665194 0.17695652 0.14578223 -0.05841618 0.17226622 0.14494193 0.08770389 0.0572665
0.08422438 0.14997676 0.07510917 0.018213857 0.01261435 -0.03654562 0.10157694 0.14004385
0.09525608 0.056194097 0.061198708 -0.017776133 0.07744732 -0.03257039 -0.03735115 -0.0405744

actor.weight f4 [8, 64]
00000000: 0706 d43d 40e5 203c d4fd debd 1098 403d
00000010: 1559 653e bd91 b83d 217e 573e 9d63 393e
00000020: f4fa a33d 2420 303e c3ca 043e 0980 b7bb
00000030: 1608 aebd a709 fd3d 8155 5b3e a982 0fbe
00000040: a8f6 0dbb 66cb 543d d678 583d 08f4 923d
00000050: 5ba3 b73c 6298 9ebd 7a71 d23d ef9a f33c
00000060: 6771 753d e83e 9c3d 8393 0c3d 03b9 2a3d
00000070: a7c4 403d 9eee 143e 241c c4bc 49bb c33d
00000080: 6609 2e3e 7f8c 6f3e 4d79 563e 41df 7b3e
00000090: ce80 7e3b 4bad 563d 22d2 123d da8e f43d
000000a0: d42a 453c 7695 5d3e 0491 053e 47b9 183e
000000b0: 7fef 123e fbf3 753e 2ecb 113c 8753 1e3e
000000c0: 1ec2 0b3e ec7d a4bd 5e70 0a3e 7d9a 6d3e
000000d0: 7c06 1a3e aa36 eb39 ebb4 0e3e 4866 493e
000000e0: f5fc 3b3e 7587 773d c086 203e d848 613d
000000f0: b819 303e fc18 9a3c 6d70 cf3d 7b01 d43d
00000100: 743a 3f3e 9255 a5bc 0704 16bd 178c c73d
00000110: e9bf a6bb 8bf8 ad3d 0650 283e b02e 8ab9
00000120: 269e dbbb 77b5 f83d 350c 0c3e cb62 4dba
00000130: cbf7 debc c4e0 c13d edf8 e23d 308b 35bc
00000140: b070 d13d 7ff2 da3c 52eb 34bd d984 54bd
00000150: e165 09bc e9ec 6a3c 2c2a f0bb 793a ae3d
00000160: df55 d0bd ad80 e63d de5d 203d 9980 223e
00000170: 4218 123e 641c 523e 82b1 99bc 68d5 d23d
00000180: 1ac7 053e d963 343e e8f7 fc3d 8e2b f63c
00000190: 829a 9c3d c49b a63d 9f99 1b3e 2b38 80bc
000001a0: fdab ea3d d096 533d 5262 a53d 3c96 a13b
000001b0: 54e2 c2bb 460b 813b 2649 35bd 3221 243e
000001c0: 0eb1 c23d 6892 f13d 6d9c 183e 211b f9bb
000001d0: 2928 c83c 69fb de3d e4f9 1e3e de5d 193e
000001e0: 75b4 a93d b807 dd3c ceef 5c3d 5c22 04bd
000001f0: 4860 283e 7a78 c03b e5e0 3d3e 9c67 103e
00000200: 66de 033e bb30 b93d 4373 913d c1ff 6b38
00000210: 8712 cfbd 7c95 abbc 41bb 45be 05b4 e4bd
00000220: 948d 87bc 9462 4fbd c3d5 d0bc cdc4 a1bc
00000230: 502b bcbc 9db1 923d 3e20 acbd 4043 e73c
00000240: 2d0b 4cbd f760 edbd c190 50bd 895e bb3d
00000250: 7122 36bd 22fe 05bd 4645 69bb 365b ed3c
00000260: fd76 b73d 486d 623d 0bf3 83bd 3f15 2b3d
00000270: f6ca a4bd c1bb 5bbc dc7b 38bd 7837 fb3d
00000280: b048 11bc cc09 dd3d 545a 573d bcb2 d93b
00000290: ce47 4abd c22c 39bd 8de8 a43d d6c6 ad3d
000002a0: d4bd babd 6698 a13c 1dbf abbd 5ed3 cc3d
000002b0: 091f 353d 597a 463d 91d0 bfbd 2f9e 9dbd
000002c0: 030a c1bc 43c1 71bc 65f0 f33b d7bd 29bd
000002d0: 78f5 bcbb 0057 6fbd e23a 89ba 5421 19bd
000002e0: 5887 16bd db31 9e3d 448d adbd b730 c63c
000002f0: 9cad 9a3d 6618 e63c 84ce 383d 8757 983c
00000300: c365 843d 5741 d4bd dc05 c1bd 889d e5bd
00000310: 3f92 abba ba28 aa3d 687c 61bc 9bf0 71bd
00000320: e9a3 a83d 6701 44bd 1f0b 023e 2b21 b73b
00000330: cdf0 85bd 3f43 28be 6937 b33c f35c 70bd
00000340: 87df 40bd f945 a3bd 3460 913c ef91 bcbd
00000350: 7c9d 803c 84d2 443d 07fc afbd 86dc 80bd
00000360: 5379 bf3d b8c6 713d b76d 03be d306 d8bc
00000370: 4d5f d9bb d84d 56be 87fb a43b 66ee d7bd
00000380: 3992 183c cbf4 9b3c fd29 b03b f70d d8bd
00000390: 24e6 4cbd defd 45bd f14a e53c 3b2b 03be
000003a0: 08be d6bd 8988 27be 01ed c23c ff65 243d
000003b0: f4d9 54be 8ab0 573d cc94 8abd 9af8 c5bd
000003c0: 8106 123d 8aa4 babd 7acf b0bc 6862 443d
000003d0: 701c 75bd cab4 80bb 932e 243d 7b62 9b3d
000003e0: f43a 283d 72ed d03d 05dc 30bd 865a 85bd
000003f0: 2164 02be 2235 0c3c 6cf6 f4bc 896d 903c
0.10352712 0.009820282 -0.108882576 0.047020018 0.22397263 0.09012172 0.21044208 0.18104406
0.0800685 0.1719976 0.12967972 -0.00559998 -0.08497636 0.12355357 0.21419336 -0.14014687
-0.002166191 0.05195179 0.052849613 0.071754515 0.022416761 -0.077439085 0.1027555 0.029736964
0.059922602 0.07629186 0.034320366 0.041680347 0.047062542 0.1454415 -0.0239392 0.09557206
0.16995773 0.23393439 0.2094471 0.24596883 0.0038834098 0.05241136 0.03584493 0.11941309
0.012034137 0.21639046 0.130436 0.14914428 0.14349173 0.24018852 0.0088985395 0.1546155
0.13648269 -0.0803183 0.13519427 0.23203464 0.15041536 0.0004486342 0.13936202 0.19667923
0.18358214 0.060431916 0.15676403 0.05500111 0.17197311 0.018810742 0.101288654 0.10351845
0.18674642 -0.020182405 -0.036624935 0.09743517 -0.0050887954 0.084946714 0.16436777 -0.00026356196
-0.0067022024 0.12143987 0.13676532 -0.00078348507 -0.027217766 0.09466699 0.11082635 -0.011080548
0.102265716 0.02672696 -0.04416973 -0.051884506 -0.008386106 0.01433871 -0.007329246 0.085072465
-0.101726286 0.11255012 0.03915202 0.15869369 0.14267066 0.20518643 -0.0187614 0.1029461
0.13064232 0.17616214 0.12351972 0.030050065 0.076466575 0.08135179 0.1519532 -0.015651783
0.114585854 0.051657498 0.08075394 0.0049312394 -0.0059473906 0.0039381115 -0.044259213 0.16028288
0.09506427 0.11795503 0.14903422 -0.007602111 0.024433212 0.108877964 0.15525013 0.14977214
0.082863726 0.02698122 0.053939633 -0.03225933 0.16442978 0.005873737 0.18542822 0.14102024
0.12877807 0.09042498 0.071020626 5.6266555e-05 -0.10110956 -0.020945303 -0.19309713 -0.111671485
-0.016547002 -0.05063112 -0.025492555 -0.019747162 -0.022969872 0.07162783 -0.08404587 0.02823031
-0.049815346 -0.1159076 -0.050919298 0.091488905 -0.04446644 -0.032713063 -0.0035594269 0.028974157
0.08958242 0.05528 -0.06442841 0.04176831 -0.08046524 -0.013411463 -0.045039997 0.12266439
-0.008867428 0.10792884 0.052576378 0.0066436213 -0.049384885 -0.0452087 0.08052168 0.084851906
-0.09118238 0.01972599 -0.08386061 0.100012526 0.04421905 0.048456524 -0.09365953 -0.07696187
-0.023564344 -0.01475555 0.0074444287 -0.04144081 -0.005766567 -0.05843258 -0.0010469819 -0.0373853
-0.036750168 0.07724353 -0.0847421 0.02419315 0.075526446 0.028087806 0.045118824 0.018596424
0.06464722 -0.10364025 -0.09424946 -0.11211687 -0.0013089849 0.08308549 -0.013762571 -0.05906735
0.082343884 -0.0478529 0.12699555 0.0055886707 -0.0654007 -0.16431902 0.021877008 -0.058682393
-0.047088172 -0.079723306 0.017746069 -0.09207522 0.015700094 0.048052326 -0.08592992 -0.062920615
0.09349313 0.059027404 -0.12834822 -0.026370442 -0.006633675 -0.20928133 0.005034867 -0.10543518
0.009312206 0.019037625 0.005376099 -0.105495386 -0.050024167 -0.04833781 0.027989836 -0.1280946
-0.10485464 -0.16360678 0.023794653 0.040136334 -0.20786268 0.052658595 -0.06766662 -0.096665576
0.035650734 -0.091134146 -0.021583308 0.04794541 -0.059841573 -0.0039278017 0.04008348 0.07587143
0.041071847 0.10201539 -0.043178577 -0.065114066 -0.12733509 0.00855759 -0.02990266 0.017630355

actor.bias f4 [8]
00000000: 5e58 b93b d85f ae3d 820e 26bd d5df 703c
00000010: dd47 b5bd 7ea1 18be 670b 99bc a05f 743d
0.005656286 0.085143745 -0.04054118 0.014701803 -0.088515975 -0.14905354 -0.018682195 0.059661508

critic.weight f4 [1, 64]
00000000: 644f 27be d355 a93e 9ad8 a13e ebcd fdbd
00000010: a32b c9bd db72 89bd 15f1 b73e daff 82bd
00000020: a5a8 723e 6007 b4bd ec9e 4a3e 89ac 983d
00000030: 4018 583e ec59 9a3e ca70 ccbd adb3 933e
00000040: 5a52 e3bd 3c55 793e b27a 1dbe b076 e1bd
00000050: 5746 973e 3fac 9c3e dfde 193e b2d1 513e
00000060: 266a 943e 9cf7 673e 8063 90bd 1e51 3b3e
00000070: f134 83bd 37ab c93e 6d72 86bc 2284 bfbd
00000080: 94e4 c53e 1c6c 8abd e526 99bd e7ef 08be
00000090: f00f 0dbe 3f41 133e 9fb7 ac3e 39c1 b4bd
000000a0: 0ac2 fcbd 9941 b33e 15eb a13e eba1 e9bc
000000b0: 8c07 da3e df85 83bc 7582 493e 2208 00be
000000c0: 5eb9 fbbc a378 8b3e 80b5 19be 87ad a2bd
000000d0: 33b8 1abe 76b7 0bbe c647 d0bd 66b4 17bd
000000e0: b5bc 0fbe 461f ea3d 8078 43bd 911b c5bd
000000f0: 36f2 2e3e 1999 b9bd 2128 43bd 7b04 3fbd
-0.16338879 0.3307329 0.31610566 -0.12392791 -0.09822776 -0.0671136 0.35926118 -0.06396456
0.23697145 -0.08790469 0.19787186 0.074547835 0.21103 0.3014673 -0.0998245 0.2884802
-0.11099692 0.2434892 -0.15378836 -0.11008966 0.29545853 0.30600163 0.15026425 0.20490149
0.28987235 0.22653049 -0.07050228 0.18292663 -0.06406582 0.3938844 -0.016411984 -0.09351374
0.38650954 -0.067589015 -0.07478122 -0.13372765 -0.13775611 0.14380358 0.33733842 -0.08825917
-0.123416975 0.35010985 0.31624666 -0.028519591 0.42583883 -0.016055046 0.19678672 -0.12503102
-0.030728038 0.27240476 -0.15010643 -0.07943254 -0.15109329 -0.13644204 -0.1016994 -0.037037276
-0.1403683 0.11431746 -0.04772234 -0.096243985 0.17084584 -0.09062404 -0.04764569 -0.046635132
