models/Ant-v2/reinforce_20241114_021443.pth (torch, 50627 bytes, 7 tensors)

fc.0.weight f4 [64, 111]
0	0x3dc8dfd6	0.09808318
1	0x3d7509a6	0.059823655
2	0x3c013f75	0.0078886645
3	0x3cefc0c1	0.029266717
4	0xbc8bbc6b	-0.017057618
5	0x3c5681f9	0.013092511
6	0x3dc1e2b4	0.09467068
7	0x3dc20da4	0.09475258
8	0x3cf217b0	0.02955231
9	0x3c6b4052	0.014358597
10	0xbda4cdac	-0.08047041
11	0x3a66310b	0.00087811117
12	0x3dcad7a8	0.099044144
13	0xbbd2062a	-0.006409426
14	0xbc8d07cb	-0.01721563
15	0xbcde035d	-0.027101213
16	0x3b8f0801	0.004364968
17	0xbc94b1c2	-0.018151168
18	0x3dafc0d2	0.085816994
19	0x3d94a429	0.072578736
20	0xbdc0b966	-0.09410362
21	0xbd8e23f6	-0.06940453
22	0x3c886b67	0.016652776
23	0x3d8aadda	0.06771441
24	0xbcc2e085	-0.0237887
25	0xbdc115d3	-0.09427991
26	0xbd5ecc5f	-0.054394122
27	0xbdb5dc4e	-0.088799104
28	0xbd1bedaf	-0.03806847
29	0x3d9efa40	0.07762575
30	0x3d9faa8d	0.07796202
31	0x3cac94be	0.02106702
32	0xbd8f6e61	-0.07003475
33	0xbccfb56c	-0.025355063
34	0xbcb300da	-0.021850992
35	0xbd503a54	-0.050836876
36	0x3d9ed839	0.07756085
37	0x3d6dd1cb	0.058061402
38	0xbd7eaa63	-0.062174212
39	0x3d74fdde	0.05981242
40	0x3d8d05b8	0.068858564
41	0x3cf3103c	0.029670827
42	0x3db6d048	0.08926445
43	0x3b939678	0.0045040213
44	0xbd1b4934	-0.03791161
45	0x3d867df1	0.0656699
46	0x3da0eabc	0.07857272
47	0x3d5055b6	0.05086299
48	0x3ca412da	0.02002852
49	0xbd9d301f	-0.07675194
50	0xbd3b53f2	-0.045734353
51	0x3c0bc26a	0.008530239
52	0xbdc1c1e3	-0.09460809
53	0x3d15f6bc	0.036612257
54	0xbc28da75	-0.01030599
55	0x3d10c1b1	0.03534097
56	0xbc6d192f	-0.014471336
57	0xbc13b5ef	-0.009015544
58	0x3d94469f	0.072400324
59	0x3ce47111	0.027885946
60	0x3dbe5be2	0.09294869
61	0x3db10e46	0.086453006
62	0xbda9d29f	-0.08292126
63	0xbdb66b1d	-0.08907149
64	0xbd173973	-0.036920022
65	0xbd8c69c4	-0.06856111
66	0xbd05d2bb	-0.03267167
67	0x3c9b535c	0.018960647
68	0xbd9e0665	-0.077160634
69	0xbd31f053	-0.04344208
70	0xbd30cb9d	-0.04316293
71	0x3b5b8c33	0.0033500313
72	0xbcbb2c09	-0.022848146
73	0x3dc1e442	0.09467365
74	0xbd0c5d3c	-0.034268603
75	0xbd7450e6	-0.059647463
76	0x3d17db51	0.03707439
77	0x3d8d22ef	0.06891429
78	0xbd14e301	-0.0363493
79	0xbccd19e1	-0.025036754
80	0xbd81a111	-0.06329549
81	0xbd991c5f	-0.074761145
82	0x3d280ca5	0.041027684
83	0xbdafb552	-0.08579506
84	0xbda57ff8	-0.08081049
85	0x3cd2b75b	0.025722196
86	0xbd68978a	-0.056785144
87	0x3da901ea	0.08252318
88	0x3d1fb87e	0.038994305
89	0x3ce7943e	0.02826893
90	0x3d36edde	0.04466044
91	0x3d64d642	0.055868395
92	0x3d9df88b	0.077134214
93	0x3d88640d	0.06659708
94	0xbd7c8f38	-0.06166002
95	0xbdb7b244	-0.08969548
96	0x3d8ac8e5	0.06776599
97	0xbdc1d093	-0.094636105
98	0xbd96ef5a	-0.073698714
99	0xbc97fe4e	-0.01855388
100	0x3b478417	0.0030443722
101	0xbd6a1ec2	-0.05715824
102	0x3d3fc04e	0.046814255
103	0xbdb7d7d7	-0.08976715
104	0xbbff6fac	-0.0077952947
105	0x3d510dba	0.05103848
106	0x3d4cc32f	0.04999083
107	0x3daf0a26	0.085468575
108	0xbd74b7f1	-0.059745733
109	0xbc807f71	-0.015685769
110	0x3d68db53	0.05684979
111	0x3cbbf756	0.022945087
112	0x3dde67c4	0.108596355
113	0x3dc8418a	0.097781256
114	0xbdec4259	-0.11536092
115	0x3d2209f6	0.03956028
116	0x3e0d397b	0.13791458
117	0x3d22c9a4	0.03974308
118	0x3d438e96	0.047743402
119	0xbdc97cca	-0.09838255
120	0x3d2c3ae1	0.04204834
121	0xbd2041bc	-0.03912519
122	0x3e1dd01e	0.15411422
123	0x3de3bece	0.111203775
124	0xbc86ac1e	-0.016439494
125	0xbce41d2d	-0.027845943
126	0xbd76a227	-0.060213234
127	0x3d9e62c2	0.0773368
128	0xbc553a1a	-0.013014341
129	0xbd0d3623	-0.034475457
130	0xbd4aa009	-0.049469028
131	0x3cf911f1	0.030404063
132	0x3d5dde2e	0.054166965
133	0xbd00b613	-0.03142364
134	0x3da147d1	0.07875026
135	0xbd8a79b4	-0.06761494
136	0x3daace98	0.08340186
137	0xbc73d267	-0.014881707
138	0x3d94f902	0.07274057
139	0x3bc89406	0.0061211614
140	0xbd483193	-0.048875403
141	0xbd62c665	-0.055364985
142	0x3c63508b	0.013874183
143	0x3d80f81f	0.06297325
144	0xbda84890	-0.08216965
145	0x3d9cd298	0.07657355
146	0x3d57cdf4	0.052686647
147	0xbcb52c52	-0.02211586
148	0x3cecfc72	0.028928969
149	0xbacdd87e	-0.0015704778
150	0x3d820d67	0.063502125
151	0xbd6f272c	-0.058386967
152	0x3c907456	0.017633598
153	0x3d8d1343	0.068884395
154	0x3ca02a64	0.019551463
155	0x3cc5fd16	0.024168532
156	0x3d0aa83b	0.033851843
157	0x3dab6b7a	0.08370109
158	0x3d83bd22	0.064325586
159	0x3d697aec	0.057001993
160	0x3da64444	0.081184894
161	0xbd9d6bbe	-0.07686566
162	0xbcdba72e	-0.026813116
163	0xbd8d9b2f	-0.069143645
164	0xbcb6488c	-0.02225139
165	0x3db60086	0.088868186
166	0x3dbc5676	0.091961786
167	0xbd959b4d	-0.07305012
168	0xbd09c6b6	-0.03363677
169	0xbc1c48ac	-0.009538811
170	0x3cf345b8	0.02969633
171	0x3c9f45e2	0.019442502
172	0x3dc143a3	0.09436729
173	0x3d5796f0	0.05263418
174	0xbccd287f	-0.025043724
175	0xbcf7492f	-0.030186264
176	0x3d839cd6	0.064263985
177	0xbdbbc570	-0.091685176
178	0xbdbe47ec	-0.09291062
179	0x3caa572a	0.020793516
180	0xbbe0bb99	-0.006858301
181	0xbdb976f3	-0.09055891
182	0xbdad3e8c	-0.084591955
183	0xbbc6a844	-0.0060625393
184	0xbd3ef981	-0.046624664
185	0x3da93f8d	0.082640745
186	0x3db9c7f1	0.09071339
187	0x3dbfb118	0.0935995
188	0x3d49f3bc	0.04930471
189	0x3d1d7c54	0.038448647
190	0xbbafdfe1	-0.0053672646
191	0x3cbec10a	0.023285408
192	0x3cc368e6	0.02385373
193	0x3d4ad3cc	0.04951839
194	0xbc996fab	-0.018730005
195	0xbd9b0edb	-0.07571193
196	0xbd580c69	-0.05274621
197	0x3cfe7e1c	0.031065993
198	0x3d8ffbc0	0.070304394
199	0x3d549ee4	0.051909342
200	0xbd6e747b	-0.058216553
201	0xbd57f5e4	-0.052724734
202	0xbd1f6627	-0.03891578
203	0xbdb96cab	-0.0905393
204	0x3d264615	0.04059418
205	0x3ce7d456	0.028299492
206	0x3d4f07f6	0.0505447
207	0xbd2e70af	-0.042587932
208	0xbdaa3c7a	-0.08312316
209	0x3cc29d23	0.02375657
210	0x3ba8b819	0.0051488993
211	0x3d56e476	0.05246397
212	0xbd03aa34	-0.03214474
213	0xbd80099e	-0.06251834
214	0xbd0a54d3	-0.0337723
215	0xbd6db0a2	-0.05802978
216	0x3d895865	0.06706313
217	0x3bc9e437	0.0061612385
218	0xbcfa6ff2	-0.030570958
219	0xbc94d48e	-0.01816776
220	0xbda3761c	-0.07981512
221	0x3c1b61d6	0.009483775
222	0x3d255dbb	0.04037259
223	0xbd5929b5	-0.05301829
224	0xbcbf732f	-0.023370354
225	0xbd87d831	-0.06633032
226	0xbdab0406	-0.08350377
227	0xbd00f15e	-0.031480186
228	0x3c897dc6	0.016783606
229	0xbd899bcf	-0.06719171
230	0xbca6905e	-0.020332512
231	0xbc1fd058	-0.009754263
232	0x3d637b17	0.05553731
233	0x3cb2e088	0.02183558
234	0x3d9dca3a	0.07704587
235	0x3dc63d67	0.0967968
236	0x3d59d428	0.053180844
237	0xbd6564c1	-0.05600429
238	0xbb9d7890	-0.004805632
239	0xbda0c9f8	-0.078510225
240	0x3c9af737	0.01891671
241	0xbc108a53	-0.008822042
242	0xbb151f19	-0.0022754131
243	0xbc2c4e05	-0.010516648
244	0xbd2e87a2	-0.04260982
245	0x3d8700bb	0.06591936
246	0x3c0b1c5f	0.008490651
247	0xbae5f36f	-0.0017543862
248	0xbda00d16	-0.07814996
249	0xbcbe05f6	-0.023196202
250	0xbdb9d7c6	-0.09074359
251	0x3d2d437e	0.042300694
252	0x3cc43b17	0.023953957
253	0x3d9f8072	0.07788171
254	0x3d9b6d4d	0.07589207
255	0x3db4e652	0.088329926

fc.0.bias f4 [64]
0	0x3cf04344	0.02932895
1	0x3e0787a3	0.13235335
2	0xbd8e6d8f	-0.069544904
3	0xbcc5e73a	-0.024158109
4	0x3e34c539	0.1765336
5	0x3ca996a8	0.020701721
6	0x37edefe4	2.836431e-05
7	0x3d7913d3	0.06080992
8	0xbd3feb08	-0.046855003
9	0xbd17bbe0	-0.037044406
10	0x3da16ed5	0.07882468
11	0x3e0a9569	0.13533558
12	0x3e26bf2a	0.16283861
13	0x3cfd9959	0.03095691
14	0xbbdf4ec5	-0.00681481
15	0x3d54fc56	0.05199846
16	0xbda40fa2	-0.08010794
17	0x3d876bd7	0.06612366
18	0x3df41ced	0.1191958
19	0x3d505829	0.050865326
20	0x3df64b6f	0.120261066
21	0xbd19abc8	-0.03751734
22	0x3d476872	0.04868359
23	0xbcf49458	-0.029855892
24	0x3d53ce9a	0.051710702
25	0x3d32b90a	0.0436335
26	0x3d68079b	0.05664788
27	0xbc8a6fdb	-0.01689904
28	0x3dfd561a	0.12369938
29	0x3e33dcd9	0.17564715
30	0x3ceaec4c	0.028677128
31	0x3d7cd72e	0.06172865
32	0x3d490b32	0.049082942
33	0x3a55f847	0.00081623014
34	0x3c2e7064	0.010646913
35	0x3e0edfe7	0.139526
36	0x3cb7932a	0.02240904
37	0x3c9ab472	0.018884871
38	0x3e02abd7	0.12760864
39	0xbd841399	-0.064490505
40	0xbd37ccb2	-0.044872947
41	0xbd88cb15	-0.0667936
42	0x3e24848f	0.16066192
43	0x3dba45c1	0.09095336
44	0xbda2581c	-0.07926962
45	0xbda97d43	-0.08275845
46	0x3d8fcc67	0.070214085
47	0x3cda6bf6	0.026662808
48	0x3db916a6	0.09037523
49	0x3d3f15d7	0.046651687
50	0x3d211e52	0.039335556
51	0xbd7027e5	-0.058631796
52	0x3c4514e6	0.012028908
53	0x3df1f45c	0.11814186
54	0xbda47d1e	-0.08031677
55	0x3d503096	0.050827585
56	0xbc53d633	-0.012929487
57	0xbd53404f	-0.051575
58	0x3e0a8e2d	0.13530798
59	0x3d65fc17	0.056148615
60	0x3b92c9a4	0.004479604
61	0xbb87a882	-0.0041399607
62	0x3d48b9ac	0.049005195
63	0x3c906f56	0.017631214

fc.2.weight f4 [64, 64]
0	0x3dd52233	0.104069136
1	0x3deafd16	0.114740536
2	0xbd37fe54	-0.04492028
3	0xbdbc244a	-0.09186609
4	0x3d09a6fa	0.033606507
5	0x3dd5a70a	0.10432251
6	0xbb8e315e	-0.004339381
7	0xbda296a8	-0.07938892
8	0x3c8ecfe9	0.017433124
9	0xbdb1a821	-0.08674646
10	0x3d86f441	0.065895565
11	0x3cfca50b	0.030840417
12	0x3d9c1842	0.07621814
13	0x3cbe4816	0.023227733
14	0x3d7f0a05	0.062265415
15	0xbe020e7f	-0.12700842
16	0xbd07ec65	-0.033184428
17	0xbdf47b28	-0.11937553
18	0xbcd2df6b	-0.0257413
19	0xbdb12a9a	-0.08650704
20	0x3d09fdb1	0.033689205
21	0x3d1f01f6	0.03882023
22	0x3c0147e7	0.007890678
23	0xbd40afcb	-0.04704265
24	0xbe056ad2	-0.1302903
25	0xbda4ac49	-0.08040673
26	0xbd92477c	-0.07142541
27	0x3d45eb7c	0.04832028
28	0xbb878f8a	-0.0041369842
29	0x3dccd1b6	0.10000937
30	0x3d2f7323	0.042834412
31	0x3d7b50ea	0.061356463
32	0x3d33a3b5	0.043857295
33	0x3dc45029	0.09585602
34	0x3dbb845b	0.09156104
35	0xbdb4a301	-0.08820153
36	0xbd99e9e1	-0.07515312
37	0x3de8a8e4	0.11360338
38	0x3c72fa97	0.014830253
39	0x3cf4488b	0.029819747
40	0xbcce7cbd	-0.025205964
41	0xbdb85c2a	-0.09001954
42	0x3d37afd9	0.044845436
43	0x3d4c92b9	0.049944613
44	0xbd165b58	-0.036708206
45	0x3d4cb9a3	0.049981724
46	0xbd840ec4	-0.06448129
47	0xbdb71189	-0.089388914
48	0x3ce0c859	0.027439283
49	0xbdf70ce0	-0.120630026
50	0xbd1038df	-0.035210487
51	0xbd14316d	-0.03617995
52	0x3dcb765c	0.09934685
53	0xbdea2a37	-0.11433833
54	0x3d14cbad	0.036327053
55	0xbcfe47fd	-0.031040186
56	0xbcb98ff1	-0.022651644
57	0xbdee0fe1	-0.116241224
58	0x3c8df837	0.017330272
59	0x3ce49911	0.027905019
60	0x3debfffa	0.11523433
61	0x3d2c14bc	0.04201196
62	0xbd9c0f76	-0.076201364
63	0x3d1cc67f	0.038275238
64	0xbde73786	-0.11289887
65	0x3dde37e3	0.10850503
66	0xbdc6ba75	-0.097035326
67	0xbd293f85	-0.041320343
68	0xbd742013	-0.0596009
69	0x3db61f3a	0.08892675
70	0x3da4ff37	0.08056491
71	0x3d6b7b96	0.057490908
72	0xbd09141f	-0.033466455
73	0xbc9469a9	-0.018116789
74	0x3d5ff53a	0.054677226
75	0xbd190908	-0.03736213
76	0x3cbbc75b	0.022922209
77	0xbddcc8f7	-0.107805185
78	0xbd9c9679	-0.07645888
79	0xbdbdb5c6	-0.09263186
80	0xbdf0a3d4	-0.11749998
81	0xbdeba624	-0.11506298
82	0x3dcf59f0	0.10124576
83	0x3cb8370b	0.022487184
84	0xbdd0ea97	-0.102009945
85	0x3ddfb10c	0.10922441
86	0xbdbb7ecc	-0.09155044
87	0xbc518f34	-0.01279049
88	0x3d823335	0.06357423
89	0x3dc8681f	0.097854845
90	0xbdc15038	-0.09439129
91	0x3e0030d3	0.12518625
92	0xbdd680f8	-0.104738176
93	0x3d5e9dc3	0.054349672
94	0xbd8768bd	-0.06611774
95	0xbd319587	-0.04335549
96	0x3d94f20b	0.072727285
97	0x3d15b3c6	0.0365484
98	0x3d0ace69	0.033888254
99	0xbda0b477	-0.07846921
100	0x3d8f70f4	0.07003966
101	0xbe038b30	-0.12846065
102	0x3cf8da7c	0.030377619
103	0x3dbc9fac	0.092101425
104	0xbda0b59c	-0.07847139
105	0xbd8a2562	-0.067454115
106	0x3d2e35ca	0.042531766
107	0x3d839db1	0.064265616
108	0x3dd32306	0.103094146
109	0x3ca1740b	0.019708654
110	0xbd03322a	-0.032030262
111	0x3c91bb7a	0.017789591
112	0xbb9d2406	-0.004795554
113	0x3dd32dd4	0.103114754
114	0xbd862127	-0.06549292
115	0x3da9ab9e	0.082846865
116	0xbdc8ba8d	-0.09801207
117	0x3da4fda5	0.08056191
118	0x3dc62f2a	0.096769646
119	0xbd156cd0	-0.036480725
120	0x3d102b6c	0.03519766
121	0x3d852e00	0.065029144
122	0xbdb54d30	-0.08852613
123	0xbe05f593	-0.1308196
124	0x3c1afe5a	0.009460056
125	0x3bbb9e1d	0.0057256357
126	0x3daef5e8	0.08542997
127	0xbddeb146	-0.10873656
128	0x3daad0cc	0.08340606
129	0x3c41017a	0.011780137
130	0xba2387a5	-0.0006238169
131	0x3c945573	0.018107152
132	0x3d1b087a	0.03784988
133	0x3bc8c86d	0.0061274082
134	0xbd59611b	-0.053071123
135	0x3d4ea928	0.05045429
136	0x3da4a845	0.08039907
137	0x3ac2ea8d	0.0014870927
138	0xbb1f30c6	-0.0024290546
139	0x3d2c875b	0.042121273
140	0x3b3aa4f4	0.0028479667
141	0x3dbbb4a6	0.09165315
142	0xbcff7180	-0.03118205
143	0xbd9b631f	-0.07587265
144	0xbde1c1ea	-0.11023314
145	0xbd8599e7	-0.06523495
146	0xbdf81bb7	-0.12114661
147	0xbdce85ee	-0.10084139
148	0xbd016059	-0.031586025
149	0x3cc54e0e	0.024085071
150	0xbe00358b	-0.12520425
151	0x3e01bc37	0.12669455
152	0x3da4a8a0	0.08039975
153	0x3d876c9a	0.06612511
154	0x3d37af46	0.04484489
155	0x3d82819f	0.063723795
156	0x3d36bf23	0.044615876
157	0x3d945b0a	0.07243927
158	0x3c13564c	0.008992743
159	0x3d0b47aa	0.03400389
160	0xbd027016	-0.031845175
161	0xbd3a9368	-0.045550734
162	0xbd12e227	-0.035860207
163	0xbd8bba2a	-0.06822617
164	0x3d8ab071	0.06771935
165	0xbda51951	-0.08061469
166	0xbda64896	-0.081193134
167	0x3db24743	0.08704998
168	0xbd7e1d4c	-0.06203966
169	0x3caf0b85	0.021367798
170	0xbdd3f4f8	-0.103494585
171	0xbd8b7b7b	-0.068106614
172	0xbd1a5374	-0.037677243
173	0xbd9fe5db	-0.07807513
174	0xbccaf5a3	-0.024775332
175	0xbdaf6554	-0.08564249
176	0x3dc933cc	0.098243326
177	0xbdc084b4	-0.09400311
178	0x3dba4836	0.090958044
179	0x3d8cc9b8	0.06874412
180	0xbd3d7f64	-0.046264067
181	0xbd2aa97f	-0.04166555
182	0x3db40a74	0.08791056
183	0xbd137369	-0.035998736
184	0x3c0a209f	0.008430629
185	0x3d27834a	0.04089669
186	0xbde3f055	-0.11129824
187	0x3d9c5ad9	0.07634515
188	0xbdc05180	-0.09390545
189	0x3d92ac5c	0.07161781
190	0xbd9c98cd	-0.07646332
191	0xbdcdaf90	-0.100432515
192	0x3e171848	0.14755356
193	0x3d086abb	0.03330491
194	0xbd9ccee3	-0.07656648
195	0x3d1e9115	0.03871258
196	0xbd89666a	-0.06708987
197	0xbc72a2d8	-0.014809333
198	0x3d66422f	0.05621546
199	0xbd6d3d7a	-0.057919957
200	0xbc8f6bdf	-0.017507492
201	0xbdd860a8	-0.10565311
202	0xbdc044c8	-0.09388119
203	0xbc579c93	-0.013159889
204	0x3da2df54	0.07952753
205	0xbd0fa84c	-0.03507261
206	0x3df98504	0.12183574
207	0x3c7ea1e9	0.015541532
208	0xbc9e7ea7	-0.019347502
209	0xbdf121f5	-0.11774055
210	0xbd49db40	-0.04928136
211	0x3c23e781	0.010003925
212	0x3e0798d5	0.13241895
213	0x3ca801a7	0.0205086
214	0x3dbfdd0a	0.09368332
215	0x3d78be51	0.060728375
216	0x3de3c222	0.11121012
217	0xbd9a1d30	-0.07525098
218	0x3ddc4e79	0.10757155
219	0x3d8d069d	0.06886027
220	0xbdc3ca41	-0.09560061
221	0xbda937f7	-0.082626276
222	0x3dd6f457	0.10495823
223	0x3dcd61e3	0.10028436
224	0x3ce18413	0.027528798
225	0xbd6cea3d	-0.057840575
226	0xbab9f509	-0.0014187406
227	0x3b4e1e8a	0.0031451308
228	0x3cc01360	0.023446739
229	0xbdfa5748	-0.12223679
230	0x3c88a62d	0.016680801
231	0x3de7c3bc	0.1131663
232	0x3d7f5eab	0.06234614
233	0x3d986f1d	0.07443068
234	0x3c8d8c69	0.017278867
235	0x3d1c6240	0.038179636
236	0xbd37a448	-0.044834405
237	0xbdcb97cd	-0.09941063
238	0x3d9f19d2	0.07768597
239	0x3c923db8	0.017851695
240	0xbd9ffdbe	-0.07812069
241	0x3dcc2d41	0.09969569
242	0x3e1171ba	0.1420354
243	0xbdeb7ec7	-0.1149879
244	0xbd4eeaea	-0.050517
245	0x3c51615f	0.012779563
246	0x3de86abf	0.11348485
247	0x3e198457	0.1499189
248	0x3deca457	0.11554783
249	0x3d1284da	0.03577123
250	0xbdc01711	-0.093793996
251	0x3da42b8d	0.08016119
252	0xbdaf35eb	-0.08555206
253	0xbd8d9307	-0.06912809
254	0x3dc44778	0.09583944
255	0xbd82cc0c	-0.06386575

fc.2.bias f4 [64]
0	0x3decccf6	0.11562531
1	0xbd63a339	-0.055575583
2	0x3d132a51	0.035929028
3	0x3dfc9ac6	0.12334208
4	0xbdcdd973	-0.10051241
5	0xbc9ac0a3	-0.018890684
6	0xbd8b1874	-0.067917734
7	0x3c82627d	0.015916103
8	0x3de88d30	0.113550544
9	0xbd746fb3	-0.059676837
10	0x3d40480a	0.0469437
11	0x3d27c089	0.0409551
12	0xbd453bdc	-0.04815279
13	0xbca0f85b	-0.019649675
14	0x3d647699	0.055777166
15	0x3d34b893	0.044121336
16	0x3d19c557	0.037541714
17	0xbc88a603	-0.016680723
18	0x3de2dd65	0.11077384
19	0xbd2a8c9f	-0.041638013
20	0x3d41b91d	0.04729568
21	0xbd7d792b	-0.061883133
22	0xbde04cf3	-0.10952177
23	0x3c665727	0.014058865
24	0x3d067453	0.03282578
25	0xbcd1058d	-0.025515342
26	0xbbd22db7	-0.006414141
27	0x3dee8d3c	0.11648032
28	0x3ccecff3	0.025245642
29	0x3df5b97e	0.119982705
30	0xbc4f02a0	-0.012634903
31	0x3e0824b8	0.13295257
32	0x3ddb710d	0.10714922
33	0x3d4c9ccc	0.04995422
34	0x3df80498	0.12110251
35	0x3e12d7dd	0.14340158
36	0xbdda42eb	-0.10657295
37	0x3d1a8446	0.037723802
38	0xbd921444	-0.071327716
39	0xbdcd9a77	-0.100392275
40	0xbdc35e6c	-0.09539494
41	0xbc64f0d4	-0.0139734335
42	0xbdb88dab	-0.09011396
43	0xbe076704	-0.13222891
44	0xbdc32af9	-0.09529681
45	0xbe02bbfe	-0.12767026
46	0xbddb3a77	-0.10704511
47	0xbcbbd9b9	-0.022930967
48	0xbc01603a	-0.007896477
49	0xbc9328c1	-0.017963769
50	0x3e009e8b	0.1256048
51	0xbdbd7e45	-0.092525996
52	0x3d2bb7d9	0.041923378
53	0xbcee4d2d	-0.029089535
54	0xbd5248d9	-0.051339004
55	0x3c777efb	0.015105958
56	0xbd1cb80e	-0.038261466
57	0xbddf6817	-0.109085254
58	0x3e09be99	0.13451613
59	0xbdec2ccc	-0.11531982
60	0x3d84be07	0.06481557
61	0x3ddefacb	0.10887679
62	0x3db81f75	0.08990375
63	0xbd31c55e	-0.043401115

actor.weight f4 [8, 64]
0	0xbc68ba62	-0.014204593
1	0xbd89fb41	-0.06737376
2	0x3d9d8b5e	0.07692598
3	0x3dfabd83	0.12243178
4	0x3dc153f8	0.09439844
5	0xbd5e24df	-0.05423438
6	0x3e2528a1	0.1612878
7	0x3c935f69	0.017989831
8	0x3e2a7ed3	0.16649942
9	0x3e770ecb	0.24126737
10	0x3def5d0c	0.11687669
11	0xbca106f4	-0.019656636
12	0x3e339a09	0.17539228
13	0xbc93bbf7	-0.018033965
14	0x3e188d23	0.1489759
15	0x3dbea58e	0.09308921
16	0xbdc74ca2	-0.097314134
17	0x3ca52b0d	0.02016213
18	0x3e042d24	0.12907845
19	0x3d1d93af	0.03847092
20	0x3e585b63	0.21128611
21	0x3ce18388	0.02752854
22	0x3c643179	0.013927811
23	0x3e369e74	0.17833883
24	0x3e417b0a	0.18894592
25	0x3d33e9f0	0.043924272
26	0xbd359535	-0.044331748
27	0x3e5573a5	0.20844896
28	0xbda363e3	-0.07978036
29	0x3e2d42cd	0.16920014
30	0x3e2d0694	0.1689704
31	0x3e0e6571	0.13905884
32	0x3e481715	0.19540055
33	0x3d84d9b8	0.06486839
34	0x3dce450d	0.10071764
35	0x3d186bd6	0.037212215
36	0x3dd2d5d7	0.10294693
37	0xbd9dc686	-0.07703881
38	0x3dfbeea9	0.1230138
39	0xbdeb086c	-0.11476216
40	0x3cb1a724	0.021686144
41	0x3dd3c3a5	0.103400506
42	0x3da5b835	0.08091775
43	0x3d30fb78	0.04320857
44	0x3d8643d1	0.06555904
45	0x3deca91d	0.11555693
46	0xbd3b526c	-0.0457329
47	0x3c8aa9f3	0.016926741
48	0xbdd93da9	-0.10607464
49	0xbd55ac25	-0.052166123
50	0x3d98e288	0.074650824
51	0x3d0e252d	0.034703422
52	0x3c71554a	0.014729807
53	0xbdd3c945	-0.103411235
54	0x3c8c54a9	0.017130213
55	0x3e128b8e	0.14311048
56	0x3e0f1b06	0.13975152
57	0xbcf96833	-0.030445194
58	0x3e15fa47	0.14646254
59	0xbd3a96c8	-0.045553952
60	0x3db164a8	0.08661777
61	0x3e494859	0.19656505
62	0xbd45ef61	-0.048323993
63	0x3c618fc2	0.013767185
64	0xbc3993c8	-0.011326738
65	0x3c017495	0.0079013305
66	0xbd62cec6	-0.055372976
67	0xbd6d3cba	-0.05791924
68	0x3da8807e	0.08227633
69	0x3d82e65a	0.06391592
70	0xbd189ad7	-0.03725704
71	0x3d3fc69a	0.04682026
72	0x3b77a227	0.003778586
73	0xbd996b91	-0.0749122
74	0x3d555755	0.05208524
75	0xbdc8bf55	-0.09802119
76	0x3db336e0	0.08750701
77	0x3a805528	0.0009791004
78	0x3d9e7e70	0.0773896
79	0x3ce797c8	0.028270617
80	0x3d390bb7	0.045177188
81	0xbdc882ba	-0.09790559
82	0xbc80249d	-0.015642459
83	0xbd9f3e17	-0.077755146
84	0x3d8430b2	0.064546004
85	0x3d9615bb	0.073283635
86	0x3dbaddf1	0.09124363
87	0xbc88cd2d	-0.016699398
88	0x3d8e0f5c	0.06936523
89	0xbd980fa3	-0.074248575
90	0xbd631175	-0.05543657
91	0x3da02247	0.07819038
92	0x3dbf4b8f	0.093405835
93	0x3c86bfff	0.016448973
94	0xbcc33810	-0.023830444
95	0x3e0cb72c	0.1374175
96	0x3e1703c6	0.14747533
97	0x3de40377	0.11133473
98	0x3d88fcdd	0.06688855
99	0x3d132f72	0.03593392
100	0xbc0ac477	-0.008469692
101	0x3df56ffb	0.11984249
102	0xbddeba3f	-0.108753674
103	0xbd65eac4	-0.056132093
104	0xbdb8413e	-0.08996819
105	0x3c098a5c	0.008394804
106	0x3d1d902e	0.03846758
107	0xbde8491e	-0.11342071
108	0x3baddbe7	0.0053057554
109	0xbda9743d	-0.08274124
110	0xb92dd897	-0.00016579252
111	0x3d691787	0.056907203
112	0xbc38fd99	-0.011290931
113	0xbd773a30	-0.060358226
114	0x3c992cda	0.018698145
115	0xbdb201a2	-0.08691718
116	0x3deaa0c8	0.11456448
117	0xbd0d7756	-0.034537636
118	0xbd84cbfb	-0.06484219
119	0x3daa2b84	0.08309081
120	0xbd42ac37	-0.047527518
121	0xbd21345a	-0.039356567
122	0x3c41c0fc	0.011825796
123	0xbb10c707	-0.0022091286
124	0xbd7a370a	-0.061087646
125	0xbd51547e	-0.05110597
126	0xbbbba68f	-0.0057266424
127	0x3df7530f	0.12076389
128	0x3e050382	0.1298962
129	0xbdddb361	-0.108252294
130	0xbc3749fd	-0.011187074
131	0xbde1eb66	-0.11031227
132	0xbdc34d62	-0.09536244
133	0xbd404d32	-0.04694862
134	0x3da83395	0.082129635
135	0xbd902ce7	-0.070398144
136	0xbdf063e8	-0.117378056
137	0xbddef944	-0.108873874
138	0x3da69109	0.08133132
139	0xbce6a11d	-0.028152997
140	0xbe0aba38	-0.135476
141	0xbd1928eb	-0.037392538
142	0xbbab7788	-0.005232755
143	0xbd5befc7	-0.053695466
144	0xbdb8cbca	-0.09023245
145	0x3d5a5b01	0.053309444
146	0xbb3098db	-0.0026946578
147	0x3dd03331	0.10166014
148	0x3d292218	0.04129228
149	0xbdc174ba	-0.09446092
150	0x3dae87c5	0.0852199
151	0x3d0697ac	0.03285949
152	0xbab594b6	-0.0013853523
153	0xbd9a4db9	-0.07534356
154	0x3cda81cc	0.02667322
155	0xbdb783e6	-0.089607045
156	0xbd832ef2	-0.064054385
157	0x3d7e9ff9	0.06216428
158	0x3d93a093	0.072083615
159	0xbd113fdf	-0.035461303
160	0xbdb63b51	-0.088980325
161	0xbd9e231d	-0.07721541
162	0xbcd7c7d4	-0.026340403
163	0x3cdddaf2	0.02708194
164	0xbc5ec3f2	-0.013596522
165	0x3db54d42	0.088526264
166	0x3dbf90dc	0.093538016
167	0x3de2f982	0.11082746
168	0x3d9b77f9	0.07591242
169	0x3d88489b	0.066544734
170	0x3d8df332	0.069311514
171	0x3df80743	0.1211076
172	0x3b91d5b1	0.004450523
173	0xbc22597a	-0.009909028
174	0xbbf6f08c	-0.0075359996
175	0x3cd03576	0.025416117
176	0x3dbd5758	0.09245175
177	0x3dc16325	0.094427384
178	0xbdb5cf3f	-0.0887742
179	0xbdc21d97	-0.094783
180	0x3abee536	0.001456416
181	0x3dab225f	0.08356165
182	0x3df0aa9c	0.11751291
183	0x3d4165b9	0.04721615
184	0xbdb5789f	-0.08860897
185	0x3da493d8	0.080360115
186	0x3c48d307	0.012257344
187	0x3c542f81	0.012950779
188	0xbdbfef50	-0.09371817
189	0xbddc74c5	-0.107644595
190	0x3ddbdba0	0.107352495
191	0x3da61766	0.08109932
192	0x3df3512d	0.118807174
193	0x3c240ae1	0.010012359
194	0xbdf56035	-0.11981241
195	0x3dfc862e	0.1233028
196	0x3d8b5d07	0.06804853
197	0x3d14563b	0.03621505
198	0x3cb6276b	0.022235593
199	0xbe021e6f	-0.12706922
200	0xbdbc12db	-0.09183284
201	0x3d6c88d2	0.05774767
202	0xbddd51af	-0.108065955
203	0xbd790eba	-0.06080506
204	0x3d6d3671	0.057913247
205	0x3de6499c	0.112445086
206	0xbd0ed4e3	-0.034870993
207	0xbd872652	-0.06599106
208	0xbd429a27	-0.047510292
209	0xbde0e1e0	-0.10980582
210	0x3d21455d	0.03937279
211	0xbda04596	-0.078257725
212	0xbe176464	-0.1478439
213	0x3d4f23f8	0.05057141
214	0xbd8475ed	-0.06467805
215	0x3d5d635c	0.054049835
216	0x3dbc4d4b	0.0919443
217	0x3cdb5a98	0.026776597
218	0xbd334c83	-0.04377414
219	0x3d5005bb	0.050786715
220	0xbdbacced	-0.09121118
221	0x3c7fb1ee	0.015606387
222	0xbe11f8bb	-0.1425504
223	0xbd2951eb	-0.04133789
224	0xbde4580f	-0.11149608
225	0x3cdbc0a2	0.026825253
226	0x3cc03093	0.023460662
227	0x3dce6a9e	0.10078929
228	0xbdef1da8	-0.11675578
229	0xbb17e8cf	-0.0023179536
230	0x3dc0c9e3	0.09413507
231	0x3c2575a5	0.010098849
232	0x3d466b78	0.048442334
233	0xbdb0ffb0	-0.086425185
234	0xbdf4a3f0	-0.11945331
235	0x3dbd98f2	0.09257688
236	0x3d36dc90	0.04464394
237	0x3dd67f77	0.10473531
238	0xbd9cccd7	-0.076562576
239	0x3dd94929	0.10609657
240	0xbda8a74b	-0.082350336
241	0x3d800410	0.06250775
242	0xbb8b5541	-0.0042521064
243	0x3dc0496f	0.09389006
244	0xbd0f0ff7	-0.034927335
245	0xbd93f0c8	-0.0722366
246	0xbd84a40f	-0.06476604
247	0x3d4c01f7	0.04980656
248	0x3dac4f58	0.08413571
249	0x3d1c73bb	0.038196307
250	0x3d546074	0.051849797
251	0xbca52e59	-0.020163702
252	0x3d2af518	0.041737646
253	0xbdc4d586	-0.09611039
254	0xbd879ec7	-0.06622081
255	0xbdce420b	-0.100711904

actor.bias f4 [8]
0	0xbd994db9	-0.074855275
1	0x3baec361	0.0053333496
2	0xbd2decd6	-0.042462192
3	0x3ddabb7f	0.10680293
4	0xbd82badd	-0.063832976
5	0xbd56e512	-0.052464552
6	0x3d99fce2	0.07518937
7	0xbdaaaf4c	-0.083342165

critic.weight f4 [1, 64]
0	0xbda32d74	-0.07967654
1	0xbd169798	-0.036765665
2	0xbdf9f952	-0.12205757
3	0x3d7fcc94	0.06245096
4	0xbca81800	-0.020519257
5	0x3d7f05e0	0.062261462
6	0xbdcbf45c	-0.09958717
7	0xbcb902a8	-0.022584274
8	0x3da1aa44	0.07893804
9	0x3ddd6da6	0.108119294
10	0xbc1e0460	-0.009644598
11	0xbdcc03f8	-0.099616945
12	0xbd8f7436	-0.07004587
13	0x3d25eea0	0.040510774
14	0x3c5a7660	0.013333887
15	0x3dc02d94	0.09383693
16	0xbd9b1720	-0.0757277
17	0xbd888258	-0.06665486
18	0xbd7d3540	-0.06181836
19	0x3d974c5e	0.07387613
20	0x3d8bee9e	0.06832622
21	0xbd8b12ea	-0.06790717
22	0x3dd57a96	0.10423772
23	0x3dee867e	0.11646746
24	0xbd9b9cce	-0.075982675
25	0xbdf5d94e	-0.12004338
26	0x3d0ed8dc	0.034874782
27	0xbb8bba60	-0.004264161
28	0xbdfd569a	-0.123700336
29	0x3dd1d40a	0.10245521
30	0xbd989298	-0.074498355
31	0xbd71ca38	-0.05903074
32	0xbd03a44c	-0.032139108
33	0xbd5d4f88	-0.054030925
34	0x3cb00a30	0.021489233
35	0x3d0366a4	0.032080308
36	0x3daebba6	0.08531885
37	0xbce10590	-0.027468473
38	0x37c46000	2.3409724e-05
39	0xbdeb2134	-0.11480942
40	0x3db08dc2	0.08620788
41	0xbdb7bf5c	-0.08972046
42	0x3d7f4708	0.0623236
43	0x3dcf8bc2	0.101340786
44	0xbdc14610	-0.094371915
45	0xbdd305f4	-0.1030387
46	0x3ce04210	0.027375251
47	0xbd6238a8	-0.055229813
48	0xbd9a7108	-0.0754109
49	0xbd69ac8c	-0.05704932
50	0xbdbcb202	-0.0921364
51	0x3d186a4c	0.037210748
52	0xbd4111ec	-0.047136232
53	0xbd95f134	-0.073213965
54	0x3d237d04	0.039914146
55	0x3db805e0	0.089854956
56	0xbda67856	-0.08128421
57	0x3d5575d8	0.052114338
58	0xbd7ebcd8	-0.062191814
59	0x3b21ff00	0.0024718642
60	0xbb5f8080	-0.0034103692
61	0x3dc4c6ce	0.096082315
62	0x3c786310	0.015160337
63	0xbd808676	-0.062756464
