models/HalfCheetah-v2/actor_critic_20241114_013716.pth (torch, 26081 bytes, 7 tensors)

fc.0.weight f4 [64, 17]
0	0xbbaabcd6	-0.0052104993
1	0xbdceb221	-0.10092569
2	0xbddcd206	-0.10782246
3	0x3e149cb8	0.14512908
4	0x3d8319fc	0.064014405
5	0xbc5891c9	-0.013218352
6	0xbd2e85fb	-0.042608242
7	0xbb0d4d1c	-0.0021560853
8	0xbe3f432f	-0.18677972
9	0x3e4034b9	0.18770112
10	0x3e13b54f	0.14424632
11	0xbe7a467b	-0.24440949
12	0x3cd2f625	0.025752136
13	0xbe34372b	-0.1759917
14	0x3e23827c	0.15967745
15	0xbb0cf9f8	-0.0021511298
16	0xbe18c880	-0.14920235
17	0xbd8e860a	-0.0695916
18	0xbd667e2d	-0.056272674
19	0x3e5d8cd9	0.2163576
20	0xbbb3d2b0	-0.0054877624
21	0x3db64881	0.08900548
22	0xbc3bbf0b	-0.011459122
23	0x3e34dfa0	0.17663431
24	0xbdd9c1b0	-0.10632646
25	0x3e53bbcb	0.20677106
26	0x3d42aa99	0.047525976
27	0xbdcc8412	-0.09986128
28	0x3e33d6ec	0.17562455
29	0x3e27b695	0.16378243
30	0xbdbc2b8f	-0.09187996
31	0xbe023098	-0.1271385
32	0x3e826c0f	0.25473067
33	0xbe218863	-0.15774684
34	0x3e04ae9b	0.12957232
35	0xbdb26207	-0.087101035
36	0x3dbe8d46	0.093042895
37	0x3e3e776c	0.18600243
38	0xbe35eeb4	-0.1776684
39	0x3deef60b	0.11668023
40	0x3d48094f	0.048837002
41	0x3e01d159	0.12677516
42	0xbd87b837	-0.06626933
43	0x3e08ddf1	0.13365914
44	0x3e5ec2d7	0.21754013
45	0xbe1c6952	-0.15274552
46	0x3e816b6d	0.25277272
47	0x3e7e777b	0.24850266
48	0xbc83f617	-0.016108556
49	0x3e244b84	0.16044432
50	0x3d1d843f	0.038456198
51	0x3d96a0c5	0.07354883
52	0xbcfdf251	-0.030999335
53	0x3e5c8ff8	0.21539295
54	0x3e3165ef	0.17324041
55	0xbcff2fa5	-0.031150648
56	0x3e870fa7	0.2637913
57	0xbe1367de	-0.14395091
58	0x3d120a6d	0.035654474
59	0xbe5ca738	-0.21548164
60	0x3b669bc4	0.0035188058
61	0xbe732fbe	-0.23748681
62	0x3c9d7e8a	0.019225378
63	0xbd62f422	-0.055408604
64	0x3e5e9535	0.21736605
65	0x3e00d088	0.12579548
66	0x3dad4fed	0.0846251
67	0x3e3a910e	0.18219396
68	0x3e22f6ef	0.1591451
69	0xbe3dbb27	-0.18528424
70	0x3bea6de8	0.007154215
71	0x3de32640	0.1109128
72	0xbdfdeec6	-0.12399058
73	0xbd33c3f5	-0.04388805
74	0x3e77dabe	0.24204537
75	0x3e85eb5e	0.26156133
76	0x3e2e1d03	0.17003255
77	0xbe257239	-0.16156854
78	0x3e8ac090	0.2710004
79	0xbe08affb	-0.13348381
80	0xbe870fec	-0.26379335
81	0xbe80df06	-0.25170153
82	0x3d705904	0.058678642
83	0xbd9b6982	-0.075884834
84	0xbe3ec434	-0.18629533
85	0xbe7cbf5b	-0.24682371
86	0x3e4bf93f	0.19919299
87	0xbd2dd0d2	-0.042435475
88	0x3e25255c	0.16127533
89	0x3e75fbde	0.24021861
90	0x3cc86142	0.024460439
91	0xbe27b636	-0.16378102
92	0x3cf464e9	0.029833274
93	0x3d80a99a	0.06282349
94	0x3d00b834	0.03142567
95	0xbe3d0dcf	-0.18462299
96	0xbe5075c9	-0.20357431
97	0xbe25e3aa	-0.16200128
98	0x3e319d60	0.1734519
99	0x3e420d25	0.18950327
100	0xbdb0cea0	-0.086331606
101	0xbe6dd22c	-0.23224705
102	0xbe9a1a6b	-0.3009828
103	0x3e5ff3d9	0.21870364
104	0x3dec3acd	0.11534653
105	0x3d1497f2	0.03627772
106	0x3e1efd74	0.15526372
107	0xbe0f768d	-0.14010067
108	0x3d85ce9b	0.065335475
109	0xbd8d59a1	-0.06901861
110	0xbe7f9032	-0.2495735
111	0xbdd6a19f	-0.104800455
112	0xbe515a4b	-0.204446
113	0xbe82d36d	-0.2555193
114	0x3dd2060e	0.10255061
115	0xbe462476	-0.19349846
116	0x3dfb8379	0.12280936
117	0xbb230170	-0.0024872683
118	0x3d9aa3f4	0.07550803
119	0xbd2f8744	-0.04285361
120	0x3e8b873d	0.27251616
121	0xbdf5c24d	-0.119999506
122	0xbe2adac6	-0.16685018
123	0xbd5040ae	-0.050842933
124	0x3e1cb7c6	0.15304479
125	0x3b70eadd	0.0036761083
126	0xbcb0be89	-0.02157523
127	0xbd9d04d0	-0.076669335
128	0xbdf83369	-0.12119181
129	0x3dcdb6a0	0.100445986
130	0xbe34786b	-0.17624061
131	0xbcbd5798	-0.023113057
132	0xbda0c63a	-0.07850309
133	0x3deb094c	0.114763826
134	0xbde4a142	-0.1116357
135	0x3dd7c44e	0.10535489
136	0x3b9d5522	0.0048014084
137	0xbc248b45	-0.01004297
138	0xbd581a5a	-0.052759506
139	0x3e28e9ae	0.16495392
140	0x3de08354	0.10962549
141	0xbd256a4d	-0.04038458
142	0xbd0e3f7f	-0.034728523
143	0x3e4901ff	0.19629668
144	0x3e8d61a8	0.27613568
145	0x3d4d597f	0.05013418
146	0x3e754f80	0.23956108
147	0xbe68ae8b	-0.22722833
148	0x3d9961bb	0.07489344
149	0x3db220ae	0.086976394
150	0xbe8fd68a	-0.28093368
151	0x3e3241aa	0.17407861
152	0x3e2a6f57	0.16644035
153	0xbe1d124a	-0.15339008
154	0xbd8cdfe2	-0.0687864
155	0x3e622e18	0.22087896
156	0xbe34a864	-0.17642361
157	0xbe677000	-0.22601318
158	0xbe663552	-0.22481278
159	0x3e587cde	0.21141383
160	0x3e4a8a83	0.197794
161	0xbdfcf72e	-0.12351833
162	0x3e4128da	0.1886324
163	0x3d6c2d1d	0.05766021
164	0xbdfed38a	-0.124426916
165	0x3e367301	0.17817308
166	0x3e002ff1	0.12518288
167	0xbe37a517	-0.1793407
168	0xbd2ae8c4	-0.04172589
169	0xbe4c4d78	-0.19951427
170	0x3dcdacc5	0.10042719
171	0x3e67f134	0.22650605
172	0xbdd96ad9	-0.10616083
173	0x3e107a8e	0.14109251
174	0x3dd7bd61	0.10534168
175	0x3e75df09	0.24010862
176	0x3e0cc9ea	0.13748899
177	0x3e1d27d8	0.1534723
178	0xbe8d82ec	-0.27638948
179	0x3a2e6fda	0.00066542404
180	0x3d6e180f	0.058128413
181	0xbe8aec94	-0.2713362
182	0x3dfb0a82	0.122578636
183	0xbe77a0ea	-0.24182478
184	0xbd9ff90b	-0.07811173
185	0xbdbf84e8	-0.09351522
186	0xbe52c180	-0.20581627
187	0xbe02df29	-0.12780441
188	0xbd908b31	-0.07057799
189	0xbdd74d5f	-0.10512804
190	0x3d299024	0.04139723
191	0xbe21b6f1	-0.15792443
192	0xbe164bc9	-0.14677347
193	0xbe2952cb	-0.1653549
194	0x3ddcb286	0.10776238
195	0xbe3b5156	-0.18292746
196	0x3e005d69	0.12535633
197	0xbd391ecf	-0.045195397
198	0xbdc13677	-0.094342165
199	0x3e85b811	0.26116994
200	0x3dc45145	0.095858134
201	0x3d6ed08f	0.058304366
202	0x3e6dfed7	0.23241745
203	0xbcd8c171	-0.026459428
204	0xbcaab492	-0.020838056
205	0x3e55a7fa	0.20864859
206	0xbdbba41f	-0.09162163
207	0x3dcffc94	0.10155597
208	0xbe1b0081	-0.15136911
209	0xbd9d6de9	-0.07686979
210	0xba613dc1	-0.0008592271
211	0x3c0d4c33	0.008624124
212	0x3e21a765	0.15786512
213	0xbd32833b	-0.043582182
214	0xbe82aa26	-0.25520438
215	0x3e13e127	0.14441358
216	0x3e3d6cde	0.18498561
217	0xbd9f0360	-0.077643156
218	0xbe77115f	-0.2412772
219	0x3e3c0196	0.1835998
220	0xbd0e2479	-0.03470275
221	0x3d0b2f91	0.03398091
222	0xbd7bfff6	-0.0615234
223	0xbdf9b5fe	-0.121929154
224	0x3da0dc3a	0.07854505
225	0x3d0335fa	0.032033898
226	0xbdfb0bf4	-0.12258139
227	0x3da8d28c	0.08243284
228	0x3db5aad5	0.08870474
229	0x3d3ce205	0.046113987
230	0xbe56c674	-0.20974141
231	0x3e27bfeb	0.16381805
232	0xbca52de1	-0.020163478
233	0xbdade4e8	-0.08490926
234	0x3e2efc19	0.17088355
235	0xbe1df4e8	-0.15425456
236	0x3db6cce9	0.08925802
237	0x3d9ae16e	0.075625286
238	0x3e1a7179	0.15082349
239	0xbe291ae0	-0.16514158
240	0x3e22df72	0.1590555
241	0x3e6dfc88	0.23240864
242	0xbd6b0d31	-0.057385627
243	0xbe08ea5c	-0.13370651
244	0xbe104202	-0.1408768
245	0x3e435f8f	0.19079421
246	0xbe3b647a	-0.18300048
247	0xbcfac686	-0.030612241
248	0xbe652842	-0.22378638
249	0x3e964d04	0.29355633
250	0x3e90c28e	0.28273433
251	0x3e60ca31	0.2195213
252	0x3e453845	0.19259746
253	0xbe2a64f2	-0.1664007
254	0xbe1f3113	-0.15546064
255	0xbe4f7140	-0.20258045

fc.0.bias f4 [64]
0	0xbd314bfe	-0.043285362
1	0x3db3990f	0.08769428
2	0xbbdfc130	-0.0068284497
3	0x3e7dd88f	0.24789642
4	0xbe16ce5c	-0.14727157
5	0x3d256fb9	0.04038975
6	0xbda971ed	-0.08273683
7	0xbdfb4ec1	-0.122708805
8	0x3db80d5f	0.08986925
9	0x3e4c3b03	0.19944386
10	0x3c557b66	0.013029909
11	0x3d888970	0.06666839
12	0x3e3143db	0.17311041
13	0x3e32ee21	0.17473651
14	0x3e88efff	0.26745602
15	0x3e42dbe3	0.19029193
16	0x3e181e0d	0.14855213
17	0x3deb973d	0.11503456
18	0xbd8636ec	-0.06553444
19	0xbd92681d	-0.07148764
20	0xbdf91589	-0.12162311
21	0x3e516dcb	0.20452039
22	0x3e37a75b	0.17934935
23	0x3d3c9ccc	0.04604797
24	0xbe05cc88	-0.13066304
25	0xbde1b7b8	-0.1102137
26	0x3e82a1d1	0.2551408
27	0xbc8c2078	-0.017105326
28	0x3e8f5178	0.27991843
29	0x3e1253c2	0.14289764
30	0x3e6ddd1a	0.23228875
31	0x3d593fc4	0.053039327
32	0x3dffcf68	0.124907315
33	0xbe04aa09	-0.12955488
34	0x3e1fbab7	0.1559857
35	0xbae28be4	-0.0017284122
36	0xbdbea5e7	-0.09308987
37	0x3e7aa51f	0.24477051
38	0xbbaf66f8	-0.005352851
39	0x3dc53930	0.09630048
40	0xbd72d0d2	-0.059281178
41	0x3e6f524f	0.23371242
42	0x3da93294	0.082616
43	0x3e58a9a4	0.21158463
44	0x3dbf7bfc	0.0934982
45	0x3da70cff	0.08156776
46	0x3d0101f0	0.03149599
47	0x3e89947c	0.26871097
48	0xbe597447	-0.21235763
49	0x3dd8887f	0.105729096
50	0xbd777054	-0.06040986
51	0x3e91b1a3	0.2845584
52	0x3dd45570	0.103678584
53	0x3e463d93	0.19359426
54	0x3e0386ba	0.12844363
55	0x3dd29280	0.10281849
56	0xbca3692c	-0.01994761
57	0xbe1cd4f2	-0.15315607
58	0x3daf779b	0.08567735
59	0x3dc6f185	0.09714035
60	0xbc2fc53f	-0.0107281795
61	0x3e5f08f9	0.21780767
62	0xbcf43f73	-0.029815411
63	0x3e5f5093	0.2180808

fc.2.weight f4 [64, 64]
0	0xbdc660d5	-0.09686438
1	0x3d203a70	0.03911823
2	0x3d358570	0.04431671
3	0xbd43484a	-0.047676362
4	0x3b6472e1	0.0034858512
5	0x3daa4b1d	0.08315108
6	0x3ca58d81	0.020209076
7	0xbdb2a9ae	-0.0872377
8	0x3c24127f	0.010014175
9	0xbd5c9441	-0.053852323
10	0xbd6fa753	-0.058509182
11	0xbbdf9dc7	-0.0068242284
12	0x3dd5dcdf	0.104425184
13	0x3b7be35b	0.0038435075
14	0x3cbf98fc	0.023388378
15	0x3d6fb541	0.058522467
16	0xbd195233	-0.037431907
17	0xbd7d3167	-0.061814692
18	0x3cb41237	0.021981342
19	0xbdac1781	-0.084029205
20	0xbdee0439	-0.11621899
21	0x3db518ef	0.08842646
22	0x3dcb6359	0.099310584
23	0x3e03adc4	0.12859255
24	0xbda54cdd	-0.08071301
25	0x3d214805	0.039375324
26	0xbcb30ef8	-0.021857724
27	0x3c7c33ea	0.015393237
28	0x3dd3f91f	0.103502505
29	0x3c2226fe	0.009896992
30	0xbdec68c3	-0.11543419
31	0x3c425936	0.01186209
32	0xbd80ff34	-0.06298676
33	0xbd9aa49d	-0.07550929
34	0x3d9639a0	0.0733521
35	0xbde43bc7	-0.11144214
36	0xbd26a9a2	-0.04068912
37	0xbc23ab6b	-0.0099896
38	0x3af690f5	0.0018811511
39	0x3d553284	0.05205013
40	0x3c3b6ab2	0.011439012
41	0x3e064b81	0.1311474
42	0x3d92028f	0.07129394
43	0xbd3db287	-0.046312835
44	0x3e031b6d	0.12803431
45	0x3d0464c4	0.03232266
46	0xbdf8f715	-0.12156502
47	0x3df74fdb	0.12075778
48	0xbd43f159	-0.04783759
49	0xbd99b1c4	-0.07504609
50	0x3df15051	0.11782897
51	0xbd3341c6	-0.0437639
52	0x3ba2e1d2	0.0049707675
53	0xbd0211ce	-0.03175526
54	0xbd1c5898	-0.038170427
55	0xbd9c22e4	-0.07623842
56	0xbdab9c62	-0.08379437
57	0x3dba671e	0.09101699
58	0xbe19f10a	-0.15033355
59	0xbae3a85e	-0.0017368903
60	0xbd8e64bd	-0.06952808
61	0xb9a68b3c	-0.00031765725
62	0xbd98826c	-0.07446751
63	0x3a1546d4	0.0005694453
64	0x3cc6a14d	0.024246836
65	0x3dc43c56	0.09581821
66	0xbe0a2344	-0.13490015
67	0xbdfe99f3	-0.12431707
68	0xbdf7bf13	-0.120969914
69	0x3c38c4f8	0.01127743
70	0xba685406	-0.0008862618
71	0xbc940d68	-0.018072799
72	0xbd8e0bce	-0.06935845
73	0xbd85c429	-0.06531555
74	0xbdf06771	-0.1173848
75	0x3ce7f04b	0.028312823
76	0x3be9c761	0.0071343635
77	0x3dc3ec63	0.095665716
78	0xbdc41306	-0.09573941
79	0x3b8699ed	0.004107705
80	0x3b8f7218	0.0043776147
81	0x3db1b3c4	0.08676866
82	0xbe0a16f6	-0.13485321
83	0xbe0aae47	-0.13543044
84	0x3da43cb7	0.08019393
85	0x3da6b044	0.08139089
86	0xbd9947c3	-0.074843906
87	0x3b198112	0.002342288
88	0xbd7ee36d	-0.06222861
89	0xbbe922c0	-0.007114738
90	0xbe0c3538	-0.13692176
91	0x3d301cc5	0.042996187
92	0x3d87c987	0.06630235
93	0x3dccf718	0.10008067
94	0x3c3b4233	0.011429357
95	0xbccdaee8	-0.025107816
96	0x3db584dc	0.088632315
97	0xbdac34f8	-0.084085405
98	0xbdc21eb9	-0.09478516
99	0xbd06fa5f	-0.032953616
100	0x3d5255a2	0.051351197
101	0xbd5ec8c3	-0.05439068
102	0xbc925bbf	-0.017866014
103	0xbca68bdc	-0.020330362
104	0xbc62a5ce	-0.013833476
105	0x3c92f584	0.017939337
106	0xbd803198	-0.06259459
107	0xbdafe90d	-0.08589373
108	0xbdd27ba0	-0.10277486
109	0xbdf1fc29	-0.11815674
110	0x3d4e32e6	0.05034151
111	0xbccfb57d	-0.025355095
112	0xbe0c44bd	-0.13698097
113	0x3cd22ee2	0.025657121
114	0x3a057421	0.0005090852
115	0xbd39e737	-0.04538652
116	0xbd6c9da4	-0.057767525
117	0xbde5129f	-0.11185192
118	0x3db38131	0.08764876
119	0xbdad0410	-0.084480405
120	0x3dc3be59	0.0955779
121	0x3d83c802	0.06434633
122	0x3c2104cb	0.009827803
123	0x3dc20c6f	0.09475028
124	0x3d95cba8	0.07314235
125	0xbe0864fd	-0.13319774
126	0xbbde59ff	-0.0067856307
127	0xbdebb210	-0.11508572
128	0x3d88cd8a	0.066798285
129	0x3da53271	0.080662616
130	0x3c13800a	0.009002695
131	0x3d8444f6	0.06458466
132	0xbae3c535	-0.0017377498
133	0x3cb98080	0.022644281
134	0x3d8c1236	0.06839411
135	0xbd29f186	-0.0414901
136	0xbdc05c72	-0.093926325
137	0xba8f160e	-0.0010916607
138	0x3dae87b7	0.08521979
139	0x3d75b2d0	0.059984982
140	0xbdc9ad5c	-0.09847519
141	0x3d25e39f	0.04050028
142	0x3b892e13	0.0041864007
143	0xbc429a08	-0.011877544
144	0x3dffad96	0.12484281
145	0x3d36c25a	0.04461894
146	0x3cf3ba71	0.029751988
147	0xbdf349f0	-0.11879337
148	0xbdb0bc48	-0.08629662
149	0x3d7779d6	0.060418926
150	0xbda28930	-0.07936323
151	0xbd4bf137	-0.049790587
152	0x3884ed83	6.3384905e-05
153	0xbd26ecf1	-0.04075331
154	0xbd28404d	-0.041076947
155	0x3d1e1f56	0.038604103
156	0x3dae8b60	0.085226774
157	0xbdb50802	-0.08839418
158	0xbcd3fb2b	-0.025876602
159	0x3d1d2580	0.03836584
160	0x3dc973d4	0.098365456
161	0xbc807a8a	-0.015683431
162	0xbd1b942b	-0.0379831
163	0xbd3c90ee	-0.046036653
164	0xbd52e9ce	-0.051492505
165	0xbc5c05fb	-0.01342916
166	0x3dd05068	0.10171586
167	0x3c3a1bdd	0.011359182
168	0xba5d789a	-0.0008448452
169	0xbd9f9aee	-0.07793222
170	0xbd60e13a	-0.054902293
171	0xbdedd86f	-0.11613547
172	0xb9440a37	-0.00018695822
173	0x3dc3024a	0.09521921
174	0xbdd01859	-0.10160894
175	0xbd982684	-0.07429221
176	0xbd74cd8d	-0.05976634
177	0x3d4e08c8	0.050301343
178	0xbd67ab12	-0.05655963
179	0xbdd503e7	-0.10401135
180	0xbabd5287	-0.0014444151
181	0x3dd161f1	0.10223759
182	0xbb85448d	-0.00406701
183	0x3de71534	0.11283341
184	0x3b236ed1	0.0024937878
185	0x3da4965c	0.08036491
186	0xbd094ee5	-0.033522505
187	0x3da4554e	0.08024083
188	0x3c82f5b5	0.015986303
189	0x3de265fa	0.11054607
190	0x3deb2e45	0.114834346
191	0xbc5a9581	-0.013341309
192	0x3cb81e89	0.022475498
193	0xbb1cd587	-0.0023930983
194	0xbcad7284	-0.02117277
195	0xbde4d85e	-0.11174081
196	0x3d327949	0.043572698
197	0x3d177a1d	0.03698169
198	0x3e2c6f0d	0.16839238
199	0x3e118732	0.14211729
200	0x3e139a70	0.14414382
201	0x3e164db6	0.14678082
202	0x3d9fd9cc	0.07805213
203	0x3d0e7f76	0.034789525
204	0xbe005ba2	-0.12534955
205	0x3df9aa80	0.121907234
206	0xbda810b5	-0.082063116
207	0x3da2d0a3	0.079499505
208	0xbd9aadea	-0.07552703
209	0xbbdb03a5	-0.006683784
210	0x3e0ac249	0.13550676
211	0x3d9d6898	0.07685965
212	0x3e680ffc	0.22662348
213	0xbbafc232	-0.005363726
214	0xbd19b60a	-0.03752712
215	0x3d447be9	0.047969732
216	0x3e2e9d31	0.17052151
217	0x3e0db77c	0.13839525
218	0x3cbc65cb	0.022997757
219	0x3e0324d1	0.12807013
220	0x3e143b01	0.14475633
221	0x3d1c94b8	0.038227767
222	0x3ddf7d25	0.10912541
223	0x3db49ba1	0.08818746
224	0x3d954419	0.07288379
225	0x3d8befcc	0.06832847
226	0x3e398b82	0.18119624
227	0x3e597af5	0.2123831
228	0x3d1b713b	0.037949782
229	0x3dcd34d4	0.10019842
230	0x3e302f4a	0.1720554
231	0x3db42ba0	0.08797383
232	0xbd8a3619	-0.067485996
233	0xbd3a4b8c	-0.045482203
234	0xbd885be2	-0.0665815
235	0x3de85df7	0.11346047
236	0x3df92ff9	0.12167353
237	0xbd51fd9c	-0.05126725
238	0xbce3597f	-0.027752636
239	0x3dbf7a7c	0.09349534
240	0x3dc54390	0.09632027
241	0x3c9c85e9	0.019106822
242	0x3ca0ade6	0.019614171
243	0xbd37d463	-0.044880282
244	0x3e01fea1	0.1269479
245	0x3d819d2a	0.06328805
246	0x3d8556ad	0.06510673
247	0xbd30a18c	-0.043122813
248	0xbd8d5a6b	-0.069020115
249	0xbdabdd61	-0.08391834
250	0xbdf9e16e	-0.122012004
251	0x3d8cdb81	0.068778045
252	0xbcced915	-0.025249997
253	0x3cf04199	0.029328154
254	0xbd581d81	-0.052762512
255	0xbaa18288	-0.0012322227

fc.2.bias f4 [64]
0	0x3e00ff1c	0.12597317
1	0x3db5aeff	0.088712685
2	0x3d5ff0f3	0.054673146
3	0x3dbf77f0	0.09349048
4	0x3e13f536	0.1444901
5	0xbdb7d0c1	-0.089753635
6	0xbdfb7ad1	-0.12279285
7	0xbd8dea62	-0.069294706
8	0xbb6a16dc	-0.0035719192
9	0xbdb648a9	-0.089005776
10	0x3df422a8	0.11920673
11	0x3dae594e	0.08513127
12	0x3dc854c0	0.0978179
13	0x3cd7abba	0.026327003
14	0xbd4e3379	-0.050342057
15	0xbd59fa73	-0.053217363
16	0x3dbf3e3f	0.093380444
17	0x3de03aae	0.10948692
18	0xbd19e62f	-0.037573036
19	0x3e171a8f	0.14756225
20	0x3a90fc7a	0.0011061572
21	0x3dd8dffa	0.10589595
22	0x3e11d486	0.14241228
23	0xbc8e8dd6	-0.017401617
24	0x3e07775c	0.13229126
25	0x3d60fcc3	0.054928552
26	0x3de6660c	0.11249933
27	0x3db1d889	0.08683879
28	0x3cb5f4db	0.022211483
29	0xbdbe8a31	-0.09303702
30	0x3d9d17da	0.07670565
31	0x3dfa3f4e	0.12219106
32	0x3dfe9f2b	0.12432703
33	0x3d81c3c8	0.063361704
34	0x3d58adac	0.0529
35	0x3d00c475	0.031437356
36	0x3c288e5a	0.0102878455
37	0x3c996cd4	0.018728651
38	0x3d9cd4cc	0.07657775
39	0x3d0f9d01	0.03506184
40	0x3e0fab22	0.14030126
41	0x3d138484	0.03601505
42	0x3d05e9eb	0.032693785
43	0x3d03d63e	0.03218674
44	0x3d42ae00	0.04752922
45	0x3ce4b218	0.027916953
46	0x3dcf50fe	0.1012287
47	0xbabcf78a	-0.0014417034
48	0x3cd5ee31	0.026114555
49	0x3d44ef78	0.048079938
50	0x3ded3b16	0.115835354
51	0x3d864f4f	0.06558096
52	0x3da35201	0.079746254
53	0xbdb99d35	-0.09063188
54	0x3d59f90c	0.053216025
55	0xbd933b90	-0.07189095
56	0xbcc72610	-0.024310142
57	0x3ddcd137	0.10782092
58	0x3d9e62cf	0.0773369
59	0xbd6a123c	-0.057146296
60	0xbbf1e8eb	-0.0073825023
61	0xbceb6294	-0.02873353
62	0xbdf8bd5d	-0.12145493
63	0xbcf51d84	-0.0299213

actor.weight f4 [6, 64]
0	0xbb11df56	-0.0022258363
1	0x3df1dc95	0.11809651
2	0x3e24226c	0.16028756
3	0x3d4370fe	0.04771518
4	0x3e7f5593	0.24934988
5	0xbd3e0058	-0.046387047
6	0x3db487e5	0.08814982
7	0x3e2607de	0.16213939
8	0x3dfdd267	0.12393647
9	0x3c0384a9	0.008027234
10	0x3d14f37e	0.036365025
11	0x3de5def5	0.11224166
12	0x3c0bab1f	0.008524685
13	0x3e666455	0.22499211
14	0xbd44709d	-0.04795896
15	0xbdd41267	-0.103550725
16	0x3e1ccbe7	0.15312158
17	0x3d9a1463	0.0752342
18	0x3e3839fe	0.17990872
19	0x3e0999c1	0.13437559
20	0x3da6b2d3	0.08139577
21	0xbd63954f	-0.055562314
22	0x3d419f3c	0.047271
23	0xbc04893b	-0.008089359
24	0x3e321085	0.17389114
25	0xbd741394	-0.059588984
26	0x3e407e32	0.1879814
27	0xbd937ab7	-0.072011404
28	0xbc337e7a	-0.010955447
29	0x3d98130a	0.074255064
30	0x3d1bb7aa	0.038016953
31	0xbd4dc949	-0.05024079
32	0xbd889eef	-0.06670939
33	0xbd71a0f3	-0.058991384
34	0x3d7c2a2b	0.061563652
35	0xbdf1bd9a	-0.11803742
36	0xbc236408	-0.00997258
37	0xbb28abe9	-0.0025737232
38	0x3e003316	0.12519488
39	0x3e12cc8f	0.14335845
40	0xbd66dcd5	-0.056362946
41	0x3d154299	0.036440466
42	0x3c384db3	0.011248994
43	0x3d2f220d	0.042757083
44	0x3e006923	0.12540106
45	0x3d357c93	0.044308256
46	0xbd258f73	-0.040420007
47	0x3d5b22a4	0.053499833
48	0x3c2d6511	0.010583178
49	0xbdecb8dd	-0.115586974
50	0x3cf1ded9	0.029525207
51	0x3e278e69	0.16362919
52	0xbc9cad30	-0.019125551
53	0x3b134eca	0.0022477382
54	0x3d83a0fc	0.0642719
55	0xbd9f0bf8	-0.07765955
56	0x3cc01d6a	0.023451526
57	0x3e0c175c	0.13680786
58	0x3e2ce5f3	0.16884594
59	0x3d2470aa	0.040146507
60	0xbd67fe00	-0.056638718
61	0x3e08a736	0.13345036
62	0xbdbd2c40	-0.09236956
63	0xbd374d2d	-0.044751335
64	0x3d5bc278	0.053652257
65	0xbd8b9991	-0.068164
66	0x3c88e88e	0.016712453
67	0x3d8c8e12	0.06863035
68	0x3d46913d	0.048478354
69	0x3dc2244b	0.094795786
70	0xbdc5a6a2	-0.09650923
71	0xbd79ceff	-0.060988422
72	0x3d894639	0.06702847
73	0xbc3dfc10	-0.011595741
74	0x3c273b2f	0.010206982
75	0xbd8a10bf	-0.06741475
76	0x3db8c3f7	0.09021752
77	0xbde65514	-0.11246696
78	0x3e02656b	0.12734
79	0xbd41ed1e	-0.047345273
80	0xbd860a50	-0.06544936
81	0x3db96df3	0.09054174
82	0x3e078a85	0.13236435
83	0xbd87d085	-0.06631569
84	0xbda26a98	-0.079304874
85	0x3d3673fb	0.0445442
86	0x3e3865b0	0.1800754
87	0xbc9bae70	-0.019004077
88	0xbdc6d198	-0.097079456
89	0x3d8a0152	0.06738533
90	0xbb95a66a	-0.0045669572
91	0x3ddf2b87	0.10896974
92	0xbd36ef8b	-0.04466204
93	0x3deb33b5	0.11484472
94	0xbd1c3490	-0.038136065
95	0x3d2ed8af	0.042687114
96	0x3e114ecf	0.1419022
97	0x3bf62e9c	0.0075128805
98	0x3e01578b	0.12631051
99	0xbd8961b4	-0.067080885
100	0xbd4298d4	-0.04750903
101	0x3db2bae6	0.08727054
102	0xbd9e9029	-0.0774234
103	0x3e100733	0.14065246
104	0x3e2222e1	0.15833618
105	0x3c01136b	0.007878165
106	0x3d58f34d	0.052966405
107	0x3ca9eae9	0.020741897
108	0xbcd7f095	-0.026359836
109	0x3d4cabdf	0.049968597
110	0x3d661b9d	0.056178678
111	0x3dad9588	0.084757864
112	0x3c9a76bf	0.01885545
113	0x3e07b7dd	0.13253732
114	0x3e1b8b97	0.15189968
115	0xbcca554a	-0.024698872
116	0xbdd57523	-0.10422733
117	0x3da2ea3b	0.07954832
118	0x3db4eac6	0.08833842
119	0xbd124b51	-0.03571636
120	0x3ce05f74	0.027389266
121	0x3d9bec1e	0.07613395
122	0xbdd2921b	-0.10281774
123	0xbdece71b	-0.11567517
124	0xbd715703	-0.05892087
125	0xbdbb8019	-0.09155292
126	0x3df881a0	0.12134099
127	0xbc66d006	-0.014087683
128	0xbdae708e	-0.08517562
129	0xbd6ba8aa	-0.057533897
130	0xbd71cf03	-0.059035312
131	0xbd80587f	-0.06266879
132	0xbcae729e	-0.021294888
133	0xbe01e827	-0.12686215
134	0xbd57dca0	-0.05270064
135	0xbd58d3d0	-0.052936375
136	0xbcaada41	-0.020856025
137	0xbcec21c4	-0.028824694
138	0x3da353c6	0.07974963
139	0xbe03d2ba	-0.12873355
140	0xbced84b9	-0.028993951
141	0xbe21fc9b	-0.15819018
142	0xbcbe0e83	-0.02320028
143	0xbd3d588a	-0.046227016
144	0x3d1e6e34	0.038679317
145	0x3da51596	0.08060758
146	0x3dd65860	0.10466075
147	0xbd8b3887	-0.06797891
148	0x3bbdc5a1	0.0057913815
149	0xbd8aa5cb	-0.06769904
150	0xbcf9c6fa	-0.030490387
151	0xbd518246	-0.05114963
152	0xbd25d853	-0.040489506
153	0x3d2c0388	0.041995555
154	0xbca981f9	-0.020691859
155	0x3be32eff	0.0069330926
156	0x3d8c8072	0.068604365
157	0xbd5cbdfe	-0.05389213
158	0xbcb1eae8	-0.021718457
159	0x3ddc612b	0.10760721
160	0x3ddc14b6	0.10746138
161	0xbbd986e2	-0.0066383937
162	0x3dc687cb	0.09693869
163	0x3cf9936a	0.0304658
164	0xbde2ed2e	-0.11080395
165	0xbd990ec0	-0.074735165
166	0x3c2c9002	0.010532381
167	0x3d74e54c	0.059788987
168	0xbb17f153	-0.0023184612
169	0x3d8a3560	0.06748462
170	0xbe0d62da	-0.1380724
171	0x3d8510d7	0.064973526
172	0xbdf3744c	-0.11887416
173	0xbcf904ee	-0.030397858
174	0x3dd5202e	0.104065284
175	0x3d622044	0.055206552
176	0xbd0c414e	-0.034241967
177	0x3dd9ad86	0.106288
178	0xbd76e3e0	-0.060275912
179	0xbac97696	-0.0015370424
180	0xbdddc639	-0.108288236
181	0x3cb68709	0.022281187
182	0x3d7c77db	0.06163774
183	0xbd2647f4	-0.040595964
184	0xbcf62e76	-0.030051451
185	0x3ced2d31	0.028952213
186	0xbd463867	-0.048393633
187	0xbdda46a0	-0.10658002
188	0x3dd62581	0.10456372
189	0x3d981550	0.0742594
190	0xbd3bc00d	-0.04583745
191	0x3d6aa137	0.057282653
192	0xbda7d476	-0.081948206
193	0xbdaeb4c4	-0.08530572
194	0xbdf77635	-0.12083093
195	0xbdd02f3d	-0.1016526
196	0xbc82ad4c	-0.015951775
197	0x3d53dec1	0.051726107
198	0xbccc6db1	-0.024954649
199	0xbc84babd	-0.016202325
200	0x3cb2b2cf	0.021813778
201	0xbddc8452	-0.107674256
202	0xbd850827	-0.064956956
203	0xbc9727f6	-0.018451672
204	0xbdd7a0b4	-0.105286986
205	0xbd379793	-0.044822287
206	0x3d90d084	0.07071021
207	0x3d931bb0	0.07183015
208	0xbc7baa1c	-0.015360381
209	0xbde4932e	-0.11160885
210	0xbe04be0e	-0.12963125
211	0x3cb27e42	0.02178872
212	0xbdd28330	-0.10278928
213	0xbd9d2e11	-0.07674802
214	0x3d79bb5a	0.060969688
215	0x3da4d0ec	0.08047661
216	0xbe1c1914	-0.15243942
217	0x3d872dc9	0.0660053
218	0xbc16325e	-0.009167282
219	0x3d97f789	0.074202605
220	0xbbfc427d	-0.0076983557
221	0xbd8f7f0d	-0.07006655
222	0xbd69efe0	-0.05711353
223	0xbd431f0a	-0.047637023
224	0x3d2bb09d	0.04191648
225	0xbcd28922	-0.025700156
226	0xbdc2ab90	-0.09505379
227	0x3d819a57	0.06328266
228	0x3d82cca3	0.063866876
229	0x3db11786	0.08647065
230	0xbd372798	-0.044715494
231	0xbdf36022	-0.1188357
232	0xbdba5d1a	-0.09099789
233	0xbd8dc03c	-0.069214314
234	0x3c8f8178	0.01751779
235	0xbd09bfac	-0.03363006
236	0xbdf2112f	-0.11819684
237	0xbbfa775b	-0.007643623
238	0xbca60532	-0.02026615
239	0xbd92288c	-0.0713664
240	0x3b9ea50e	0.0048414534
241	0x3c00993a	0.007849032
242	0x3d78cb89	0.06074098
243	0x3d35afeb	0.04435722
244	0xbdf4e440	-0.11957598
245	0xb942d833	-0.00018581822
246	0xbde62610	-0.112377286
247	0x3bf9a693	0.007618734
248	0xbd6908cd	-0.05689316
249	0x3dcf5bba	0.10124917
250	0xbdf3f15f	-0.11911272
251	0xbcc1da02	-0.023663525
252	0x3ca1ee1a	0.019766856
253	0xbe133aa4	-0.14377838
254	0xbccaf707	-0.024775995
255	0x3d364c31	0.044506256

actor.bias f4 [6]
0	0x3c01a220	0.007912189
1	0x3e047215	0.12934144
2	0xbda05d76	-0.07830326
3	0x3d482223	0.04886068
4	0xbd9c222f	-0.076237075
5	0xbd932d05	-0.07186321

critic.weight f4 [1, 64]
0	0xbc34a0c8	-0.011024661
1	0x3d9f155e	0.07767747
2	0xbde1205f	-0.109925024
3	0x3dbd37e7	0.09239178
4	0x3e6fe017	0.23425327
5	0xbd5ddb3c	-0.054164156
6	0x3cf510c1	0.029915215
7	0xbd6d843e	-0.057987444
8	0x3e2de881	0.16983224
9	0xbd3bebf4	-0.04587932
10	0xbc6d5e22	-0.014487775
11	0xbdd9350d	-0.10605822
12	0x3e552bd2	0.20817497
13	0x3e9dbaf6	0.30806702
14	0xbe1c070d	-0.15237065
15	0x3b9c28a7	0.0047655883
16	0xbd7ea244	-0.062166467
17	0xbddd3c73	-0.108025454
18	0xbd86467c	-0.065564126
19	0xbbcc39ac	-0.006232461
20	0x3de12ac5	0.10994486
21	0xbd4c0601	-0.049810413
22	0x3e1616a0	0.14657068
23	0x3e48c81b	0.19607584
24	0xbdcadc69	-0.09905321
25	0xbe087ef8	-0.13329685
26	0xbdc3b4b6	-0.09555952
27	0xbd5eb5df	-0.054372665
28	0x3d376cbe	0.04478144
29	0xbd62661f	-0.05527317
30	0xbe040daf	-0.12895845
31	0x3e257465	0.16157682
32	0xbe0a88b8	-0.13528717
33	0x3da69eb0	0.08135736
34	0xbc7db6eb	-0.015485506
35	0x3d7f7275	0.062365014
36	0xbe090d95	-0.13384087
37	0xbdf75542	-0.120768085
38	0xbda33001	-0.079681404
39	0xbe046fff	-0.12933348
40	0x3e84bc28	0.25924802
41	0xbcfc3f18	-0.030791804
42	0x3deaf965	0.114733495
43	0x3e725bde	0.23667857
44	0x3dc685ef	0.096935146
45	0xbe09e9c0	-0.13468075
46	0xbd25f6f4	-0.040518716
47	0x3e3938cb	0.18088071
48	0x3d1110c1	0.03541637
49	0x3e22f9f7	0.15915667
50	0xbde46028	-0.11151153
51	0xbdaaea42	-0.083454624
52	0x3de6381a	0.11241169
53	0xbdf6ee6e	-0.120571956
54	0xbdbfbda4	-0.09362343
55	0x3def2134	0.11676255
56	0xbe0815a1	-0.13289501
57	0xbd367970	-0.044549406
58	0xbe14e7dd	-0.14541574
59	0x3d2bc2fd	0.041934002
60	0xbdd6e701	-0.10493279
61	0xbc94b5d9	-0.018153118
62	0x3ce48dbd	0.027899617
63	0xbe195a49	-0.14975847
