models/HalfCheetah-v2/ppo_kl_20241114_013211.pth (torch, 26021 bytes, 7 tensors)

fc.0.weight f4 [64, 17]
000000 53 29 c1 bd ab 08 9c 3c 04 e3 3b 3e 75 f1 51 3e
       -0.0943171 0.019047102 0.18348318 0.20502265
000010 14 d4 92 3e 20 05 2c 3e d6 5f 97 bd 5c bf ae 3d
       0.28677428 0.1679883 -0.07391326 0.08532593
000020 0f f0 cd bd db 1d 88 bd 3b 33 9d bd f7 41 ef bd
       -0.10055553 -0.066463195 -0.07675787 -0.11682504
000030 09 92 74 be d2 91 70 be 00 37 5d 3d 99 55 27 be
       -0.23883833 -0.23493126 0.05400753 -0.16341247
000040 fa 5b 76 3e 63 81 63 bd a5 85 a3 3e 78 3e ea 3d
       0.24058524 -0.055543315 0.319379 0.11437696
000050 4e 79 1b be 88 a4 7c 3e c0 15 92 3e 21 82 09 3e
       -0.15182993 0.24672139 0.2853222 0.13428546
000060 ff 10 c5 bd 25 5d e0 bd 1b 31 1d be 57 40 af be
       -0.096223824 -0.10955266 -0.15350763 -0.34228775
000070 32 45 6b 3c 01 29 fb bc 9c 37 34 be f6 d2 e5 3d
       0.014359759 -0.0306592 -0.17599338 0.11221878
000080 80 5c fb 3d 8b b1 76 be 6c 8f 65 bd 01 37 9b 3e
       0.12273502 -0.24091165 -0.05604498 0.30315402
000090 c1 43 9d bc bb 5d 40 3e ee dd fc 3d 57 f3 8f 3e
       -0.019197347 0.18785755 0.12347017 0.2811534
0000a0 2e ab 6a bd 51 ac a7 bd 68 ca a6 bd 0e b4 6e 3e
       -0.057292156 -0.081871636 -0.08144075 0.23310873
0000b0 a4 ea 82 be cb 22 4f 3e 51 a7 34 be 47 cb 12 3e
       -0.25569642 0.20228116 -0.17641951 0.14335357
0000c0 74 45 0b be a3 31 80 3a c8 b2 21 be a7 8a 1d bc
       -0.13600713 0.0009780418 -0.15790856 -0.009615577
0000d0 d5 48 dc 3d e6 8e 01 3d ea 69 75 3e c9 69 a0 3e
       0.10756079 0.03163042 0.23966184 0.31330708
0000e0 a9 eb 59 3e 19 cd 90 3e da a7 91 3c f3 f9 fd 3d
       0.21281303 0.28281477 0.017780233 0.1240119
0000f0 d1 86 41 3e 5d 04 0e bd 18 52 0f be d2 93 2f be
       0.18899085 -0.03467213 -0.1399616 -0.17146233
000100 d9 8c 8a 3e b7 03 a8 3d bc e4 52 be d3 17 2d 3e
       0.27060583 0.082038336 -0.20595068 0.1690362
000110 f1 db a8 bc 85 24 c7 bd ea d7 1a 3e 0c 23 03 be
       -0.020612689 -0.097237624 0.15121427 -0.12806338
000120 cb 31 54 3e 6f 81 03 3d 1b f6 4d 3d 7e 24 63 3e
       0.2072212 0.03210586 0.050283533 0.2218189
000130 23 3d a3 bc 98 71 ab 3d 25 bb 13 bd cf 21 4d 3e
       -0.019926613 0.08371276 -0.036067147 0.20032428
000140 48 17 06 be 0a bf d7 bd b7 0c f6 3d 54 d0 8e 3e
       -0.13094819 -0.10534485 0.12014144 0.27893317
000150 d7 51 8c bc 9a 9a 86 be 8f f3 89 3e 4b 50 a7 3e
       -0.017128868 -0.26289827 0.26943633 0.32678446
000160 dc 71 9a bd 0a 1e 90 3e ad 9f b8 3d 93 c2 80 3c
       -0.07541248 0.28147918 0.09014831 0.01571778
000170 72 48 41 3d 38 a7 d9 bd d4 6b 40 3e 9d 2a 08 3e
       0.04718823 -0.106275976 0.18791133 0.13297506
000180 a0 65 24 3b 20 e6 b3 3c af 11 bf ba a2 99 bd bd
       0.0025084987 0.021960318 -0.0014577414 -0.09257819
000190 f3 59 a3 ba 66 35 46 bc 95 67 11 bd b2 40 98 3d
       -0.001246272 -0.012097692 -0.035499174 0.07434215
0001a0 e5 d5 28 bd a4 7e 9b 3e 19 58 f9 bc 22 7b 8f bd
       -0.04121961 0.30370057 -0.030437516 -0.070059076
0001b0 d0 c4 18 be 4a a6 eb bd 0a 1e 87 3e 95 89 62 3e
       -0.14918828 -0.115063265 0.26390105 0.22122796
0001c0 27 cf 34 3e 74 5f 99 bc 38 d0 b4 3c c9 3f 11 be
       0.17657147 -0.018722273 0.022071943 -0.14184488
0001d0 8a f5 5d 3d 3c 74 3f 3e 8c e9 c1 bc 6e c6 56 be
       0.054189242 0.18696684 -0.023670934 -0.20974132
0001e0 da e6 2b 3e 8c 02 ae 3d db 01 ae 3d 63 ac bc bd
       0.16787282 0.084965795 0.08496448 -0.09212568
0001f0 32 a2 88 bd df 54 a6 3d ae e7 31 3e 21 23 2e 3d
       -0.06671561 0.081216566 0.17373535 0.04251397
000200 e7 eb 66 bd 43 ba 39 be e9 1d 0e be 7b e0 8e bc
       -0.056377318 -0.1813746 -0.13878597 -0.017441025
000210 bd d9 15 3e 14 bb 19 be be ed 8c 3d fb 95 25 be
       0.14633842 -0.15012771 0.06881283 -0.16170494
000220 8e 32 6a be 46 98 1d bd a1 4a 87 3e c6 08 c2 bd
       -0.22870848 -0.038475297 0.26424125 -0.0947433
000230 0f dd ff 3d 7c b2 41 3e 48 00 10 be 18 7f a7 3e
       0.124933355 0.18915743 -0.14062607 0.32714152
000240 e7 0a 9d be 66 61 eb 3d bb 2c ee bd c1 14 63 3c
       -0.3067238 0.11493187 -0.116296254 0.013859929
000250 d4 44 04 be 0b 7a b4 3c 59 f7 75 3c bd 7c 57 3d
       -0.12916881 0.02203085 0.015012586 0.052609194
000260 1f 95 7c 3d 08 0a b6 bd f7 a4 85 3e 01 75 80 3e
       0.06166565 -0.08888632 0.2610242 0.25089267
000270 91 57 f2 3c 71 73 58 3e 71 bc 42 3d 76 81 2c 3d
       0.02958277 0.21137787 0.047542993 0.04211565
000280 a4 5d bc 3c 8a 2b ce bd 50 2d 4d be d2 98 1f be
       0.02299387 -0.10066898 -0.20036817 -0.1558564
000290 47 b5 43 bd 8c 46 4b be 5b 81 06 3e 3e 5c 58 be
       -0.0477803 -0.1985113 0.13135283 -0.21128938
0002a0 19 bb 4f 3e bc d0 86 bd b4 03 ab be eb 19 c9 bd
       0.20286216 -0.06582782 -0.33401263 -0.098193966
0002b0 39 87 49 3d 91 d6 17 3e 8a 2a fc bd 7f b8 6a 3e
       0.049201224 0.14827944 -0.12312801 0.22921942
0002c0 76 11 00 be 18 69 bf bd fd a3 08 bd 0f dc 45 be
       -0.12506661 -0.09346217 -0.033359516 -0.19322227
0002d0 da da 9c 3d 22 71 dd bd d8 2c c5 3c e8 81 07 bd
       0.0765893 -0.10812594 0.024069235 -0.033082873
0002e0 41 d0 48 be fe cf 7e 3e 74 5f 48 bd 12 9a ab 3d
       -0.19610693 0.2488403 -0.048919156 0.08378996
0002f0 e2 06 04 be 26 f5 71 3e 01 4b d8 3d c5 de 09 3d
       -0.1289325 0.23628673 0.10561181 0.033659715
000300 87 aa b2 bd c4 7b f6 3b ca 19 4c 3e bb c2 fb 3d
       -0.08723932 0.007522078 0.19931713 0.12293001
000310 59 9b ee 3d fe c9 80 3d c3 03 1a be 6a 65 53 be
       0.11650724 0.06288527 -0.15040497 -0.20644155
000320 ce 9a 0d be af 41 59 3e 10 63 91 3d 03 12 12 3c
       -0.13828585 0.21216463 0.07098973 0.008915427
000330 4c da e6 3c 0c bf 96 bd 1d b9 bf bd 0e e0 79 bd
       0.028180264 -0.07360658 -0.093614794 -0.06100469
000340 ea bc cc bd 86 04 a9 3d dd ac 48 3c c4 76 89 3d
       -0.0999697 0.08252816 0.012248245 0.06712106
000350 ad c0 39 3e 26 87 17 be 97 f1 18 be 88 c2 05 3d
       0.18139906 -0.14797649 -0.14935909 0.032656223
000360 67 f0 02 3e 04 1d a9 bd 0e 74 ca bd b0 e3 57 39
       0.12787019 -0.082574874 -0.09885417 0.00020588818
000370 59 dd 41 bc 70 2c 4b be 42 b7 83 bd ff ff 27 3e
       -0.011832559 -0.1984117 -0.06431438 0.16406249
000380 d8 6f 85 3a 36 c3 24 3e bb 5e e3 3d e7 75 7e 3e
       0.0010180427 0.16090092 0.11102053 0.24849664
000390 dc 8f 80 3e f5 f5 8c be cf d6 a5 bd 96 15 79 be
       0.25109756 -0.275314 -0.08097612 -0.2432464
0003a0 41 5f 8b 3a 59 90 69 be c5 e1 d1 bc 92 91 a4 bd
       0.0010633246 -0.2280897 -0.02562035 -0.08035578
0003b0 98 65 a9 bd 47 ff 15 3e aa 44 22 3d d1 ba 9c 3a
       -0.082713306 0.14648162 0.039616264 0.0011957531
0003c0 2b e9 94 3d bc 5f aa 3e d4 80 09 3e 5f 4a 94 bd
       0.07271036 0.33276165 0.1342805 -0.07240748
0003d0 ef 23 58 bd 85 1a 49 3e d0 7d 92 be 45 c6 10 be
       -0.052768644 0.19639023 -0.28611612 -0.14138134
0003e0 49 93 e9 3d ad e6 29 3c 53 08 f9 bd 1d 06 21 be
       0.114050455 0.010369939 -0.12159791 -0.15724988
0003f0 8f 7c 12 be a4 57 61 3e 5a 33 9e 3d cb 09 ad be
       -0.14305328 0.22006088 0.07724638 -0.33796534

fc.0.bias f4 [64]
000000 be dd 1b 3e 07 2e b4 3d 9e 4f 4c 3e c8 9f 17 3e
       0.15221307 0.087978415 0.19952247 0.14807045
000010 3b c2 90 3e 66 aa 4c 3e 51 95 9b 3d ec bc 99 3e
       0.28273186 0.19986877 0.07596839 0.30026948
000020 a0 4a 98 3d b9 70 3b bd 23 8c 00 be 21 08 1c 3d
       0.074361086 -0.045761798 -0.12553458 0.03809369
000030 7e 40 42 be 1b e3 49 3d 01 3a a2 3d 38 ab b2 bd
       -0.18969914 0.04928885 0.079212196 -0.08724064
000040 a8 a6 8d 3e 21 4e 49 3e 9a 67 9e 3e 5f b0 6c 3e
       0.2766621 0.1965871 0.30938417 0.23114155
000050 08 48 bb bc ad 6d 73 3e 5f aa f7 3d 2c 77 1a bd
       -0.022861496 0.23772307 0.120930426 -0.037711307
000060 56 58 07 3e 3b 42 98 3e af f4 d4 bd f8 30 57 bc
       0.13217291 0.2973803 -0.10398232 -0.013134234
000070 12 09 67 3e 54 88 96 3e af 2a f8 bd 51 b3 84 3c
       0.22562054 0.29400885 -0.12117516 0.016198786
000080 92 ea 95 3e 1a ef 2e 3e ea a0 6f 3e ae 80 65 3e
       0.29280525 0.17083398 0.23401228 0.22412369
000090 50 5e c2 3d ee f6 46 bd 67 5c 8a bd 1f 9a f7 3c
       0.09490645 -0.048575334 -0.067559056 0.030224858
0000a0 ef 98 ff 3d 9c 21 2d 3e 62 a6 25 3e 67 e7 78 3d
       0.12480342 0.16907352 0.16176751 0.060767557
0000b0 9f 2f 93 bd 41 96 77 3e ac 31 87 3e 09 ad 5c 3d
       -0.071868174 0.24178411 0.26405084 0.053875957
0000c0 c2 1a 62 3d 00 ba 6f 3e d8 e5 8e 3e 24 12 b3 bd
       0.0552013 0.23410797 0.27909732 -0.087436944
0000d0 63 bd 33 3d e0 13 96 3e f7 8c e7 3d 54 f1 02 be
       0.043881785 0.29312038 0.11306184 -0.12787372
0000e0 31 69 65 3d 67 11 9f 3e d5 c6 75 3e e5 a1 7c 3e
       0.05600852 0.31067964 0.2400163 0.24671133
0000f0 fc c3 5c 3e c3 0d ab bd ff b5 96 3e 88 da 4c 3e
       0.21559137 -0.08352234 0.29435727 0.20005238

fc.2.weight f4 [64, 64]
000000 0d af 38 bd fa 7c bd bd 85 72 de 3c 15 cb a4 bd
       -0.045088816 -0.09252353 0.027154217 -0.08046547
000010 56 1b f9 bd f3 5b ae 3c fb ce 7a 3d 3d 47 c3 3d
       -0.12163417 0.02128408 0.06123255 0.09535072
000020 cb dd c5 3d 81 f5 67 bd 58 2d d5 3d 4a 0b 92 3c
       0.09661444 -0.056630615 0.10409039 0.017827649
000030 9e bf 83 bd 56 17 b3 3d 17 a1 2c bd c7 41 8a bd
       -0.064330325 0.08744685 -0.042145815 -0.06750827
000040 bf 26 d3 3d 27 92 b1 bd 66 2c 8c 3b 5a 75 e4 3d
       0.103101246 -0.086704545 0.0042777536 0.111551955
000050 da 0a c6 bd 7c b9 a3 3d 73 ec a5 bd 12 49 95 3c
       -0.096700385 0.07994363 -0.0810174 0.01822332
000060 22 90 04 bd 64 0e ec bc 17 39 d2 3d 3c ae f3 3d
       -0.03236402 -0.028815456 0.10264795 0.11898467
000070 4d 31 f6 bd 21 64 39 3d eb 90 04 bd af 27 2f 3d
       -0.12021122 0.045261506 -0.032364767 0.042762455
000080 16 6e 5b 3d f0 eb ef bd 60 42 07 be 24 c5 d7 3c
       0.053571783 -0.117149234 -0.13208914 0.026339121
000090 39 60 41 3c df b3 63 3d 07 ae 44 bd 10 db cc 3d
       0.011802726 0.05559146 -0.048017528 0.1000272
0000a0 8c 79 97 bd 27 02 44 bd 11 54 40 bd 22 b1 99 3c
       -0.0739623 -0.047853615 -0.046955172 0.018761221
0000b0 82 17 a8 3d a5 a2 ee bd 6e 1a 0b bd 29 86 80 bd
       0.08207609 -0.11652116 -0.033960752 -0.06275589
0000c0 f2 47 af 39 8a d4 26 bd bc 3c 89 3c be 3e f9 3b
       0.00033432205 -0.040730037 0.016752593 0.0076063564
0000d0 d4 e4 b4 3d 6e c8 c2 bd ec 2d ee bc b3 ce 08 3d
       0.08832708 -0.09510885 -0.029074632 0.03340025
0000e0 7f fe 4c 3d 0b 40 af bd 00 73 1e bd 9d 01 00 be
       0.050047394 -0.08557137 -0.03868389 -0.12500615
0000f0 d6 a2 3e bc d9 25 d3 3d 5a 83 a1 3d 89 7c af 3d
       -0.011635503 0.10309953 0.078863814 0.08568675
000100 cc 13 da bd e2 46 95 bb a1 a6 dc bd cc 0e 94 bc
       -0.10648307 -0.004555569 -0.107739694 -0.018073462
000110 8f 11 10 3c 32 ca 27 bc ab 9e ba bd 82 a7 16 3d
       0.008793249 -0.010241078 -0.09112295 0.03678084
000120 89 2f 92 bd 68 e0 a7 3c 81 90 c7 3d 74 72 a9 3c
       -0.07137973 0.020492747 0.09744359 0.020684458
000130 4e bb b8 3d 32 b2 fb 3c d3 3c a9 3d d0 e4 bb bd
       0.090201005 0.030724619 0.082635544 -0.09174502
000140 f6 aa 58 3d 6e 31 ff bd 61 51 84 bd ca dc a9 3d
       0.052897416 -0.124606 -0.06460834 0.08294065
000150 be 13 10 3d b3 7c 5b bc 5d 07 bd bd 1b ca 1f 3d
       0.035175078 -0.01339643 -0.0922992 0.039011102
000160 62 a4 ec bd 06 43 8d bc f1 d3 91 bc 70 5d cf bd
       -0.11554791 -0.017243873 -0.017801257 -0.10125244
000170 75 d4 8e 3c 67 94 81 bc 39 b8 c4 bd 45 bd 99 bd
       0.017435292 -0.015817834 -0.0960545 -0.075068034
000180 b1 37 51 3d 05 01 23 3d 90 49 31 3d e8 c7 a9 3d
       0.051078502 0.039795894 0.043283045 0.08290082
000190 f3 86 8e bd e0 4a 73 bc f7 87 e8 3c 79 14 96 bd
       -0.06959333 -0.014849395 0.028385146 -0.073281236
0001a0 91 b3 f0 bd 27 7d e9 3d 82 00 a6 bb 1a 89 67 bd
       -0.117529996 0.11400824 -0.0050659785 -0.056527235
0001b0 a6 61 38 3d 12 27 b2 3d d2 d5 00 be 21 b3 4d 3d
       0.045015 0.08698858 -0.12581566 0.05021966
0001c0 9f b4 43 bd 31 da 75 bd 8c c8 cf 3d a5 2c e6 bc
       -0.047779676 -0.060022537 0.10145673 -0.02809746
0001d0 41 85 37 bd 01 a7 14 bd 88 50 af 3d b7 4c a1 bd
       -0.044804815 -0.03629208 0.08560282 -0.0787596
0001e0 cd f4 9c bd 55 be 60 bd 9d 6d dc 3d be f2 f7 bd
       -0.076638795 -0.054869015 0.107630946 -0.12106846
0001f0 9a 2a f2 bd b0 d0 0c 3d 93 f2 cf 3b be 61 ec bc
       -0.11824532 0.034378707 0.006346056 -0.0288552
000200 df 1c 8a 3d 54 ad 0b 3e 0c a2 3b 3e 57 a4 b2 3d
       0.06743788 0.13640338 0.18323535 0.087227516
000210 ce 81 1d 3e 26 48 97 38 93 a7 9f bd 43 d6 95 bc
       0.15381548 7.21368e-05 -0.07795634 -0.018290645
000220 0c 35 e6 bc 5f 61 87 3d 40 06 3c 3c 56 b0 31 bd
       -0.028101467 0.06610369 0.0114760995 -0.043381058
000230 b7 da c2 3a 49 2d b5 bc e0 b1 b8 3d c3 fb d7 3d
       0.0014866207 -0.02211632 0.09018302 0.105460666
000240 bd dc 4d 3c bf 4c 8f 3d d4 1e eb 3d 92 1d f2 bc
       0.012564835 0.0699706 0.114804894 -0.029555116
000250 df da 88 bd 67 49 5e 3d 9e 1b 01 3d 32 25 41 3e
       -0.06682371 0.05426922 0.03152048 0.18861845
000260 40 5c 39 3e 85 2c e6 3d 84 75 2c bd e6 99 27 bc
       0.18101597 0.1123896 -0.04210426 -0.010229563
000270 4c 64 b5 bc 30 f5 3b 3e f4 35 f3 bd 40 8b a6 bd
       -0.022142552 0.1835525 -0.11875525 -0.081320286
000280 4a 5f d6 3d 65 5a c0 3d bd 1a 57 bc 0a 6a a1 bd
       0.10467394 0.093922414 -0.0131289335 -0.078815535
000290 22 7e c2 bc ad d6 70 3d 18 cc a2 3b a2 2f 3c 3d
       -0.023741785 0.05879848 0.0049681775 0.045943864
0002a0 a2 e7 65 3d 40 98 96 bd 15 ab 08 3e 11 8b 0d 3e
       0.056129105 -0.07353258 0.13346513 0.13822581
0002b0 9f 65 1f 3d fe 85 a4 3d 0d ae 09 3e 3a fa bd 3d
       0.038915273 0.080333695 0.13445301 0.092762426
0002c0 b0 2e 00 bd a5 8a 1f 3e 25 82 7e 3d 31 49 78 bc
       -0.031294525 0.15580232 0.062135834 -0.015154169
0002d0 b0 f0 94 bc 00 02 08 3d 0c f2 1c 3e 24 8a ba 3d
       -0.018181175 0.033205032 0.15326709 0.091083795
0002e0 29 2c 03 3e 93 79 86 3d 09 16 57 3c 4c 94 77 bc
       0.12809815 0.06566157 0.013127812 -0.01511104
0002f0 c9 7a 01 bc 34 c7 42 bd 33 ec 9a bc 4b 6e 9e 3d
       -0.007902809 -0.047553256 -0.018911457 0.077358805
000300 56 c2 ef 3d 4a 78 bd 3d 26 f2 8b 3d ce 39 82 bc
       0.117069885 0.09251459 0.068332955 -0.015896704
000310 3a 40 17 3e 3a 38 e0 3d 5b ea e5 3d de a2 27 3e
       0.14770594 0.10948224 0.112263404 0.16370723
000320 fe 49 4e 3e 1d 88 90 3c bf a0 10 3d 7e 99 53 3d
       0.20145413 0.017643029 0.03530955 0.051660053
000330 88 e1 99 bd 00 e0 dd bc c4 75 5e bd 42 d4 f2 3c
       -0.0751372 -0.02708435 -0.05431153 0.029642228
000340 2c 02 35 3e d2 ce b5 3d 3a 23 25 3e 8d 13 35 3e
       0.1767661 0.088773385 0.16126719 0.1768324
000350 9f 7b 23 3c 88 7d 18 3e 00 dd be 3d a9 a1 35 3e
       0.009978204 0.14891636 0.09319496 0.1773745
000360 40 06 86 bc 50 6b 06 3d 09 6e 94 3c 80 2c a8 bc
       -0.016360402 0.032817185 0.018118875 -0.020529032
000370 a5 3a e3 bc 11 b2 07 3e 71 98 cf bd eb 1e 7e 3b
       -0.027737925 0.1325152 -0.10136498 0.0038775753
000380 1c 4a ab bb c6 19 20 3d 1c bb 12 3e e6 58 29 3e
       -0.0052273404 0.03908708 0.14329189 0.16537818
000390 2e 7a 00 bd cc 51 b4 bc 99 3e f3 3d d6 24 53 3d
       -0.03136652 -0.02201166 0.11877174 0.0515488
0003a0 8b 9e 52 bc bc 93 b0 bd 9d 8a c0 3c 50 40 c2 bd
       -0.012855182 -0.08621928 0.023503596 -0.09484923
0003b0 59 9f 20 3e 37 15 24 3e c0 56 fd bc cd 6c 22 3d
       0.15685786 0.16023718 -0.030925155 0.03965454
0003c0 73 45 54 3e 8f 5a 10 3e b2 55 21 bd 8f 49 0d 3e
       0.20729618 0.14097045 -0.039388366 0.13797592
0003d0 ca 3d 19 bd 8e 15 b2 3c 01 77 05 3e 9a b6 42 3d
       -0.037412442 0.021738794 0.13033678 0.047537424
0003e0 16 52 08 3e 7d af 9b 3d 93 25 96 3c fc 55 16 3d
       0.13312563 0.07601831 0.018328464 0.036703095
0003f0 54 80 97 bc c7 36 ef 3d 4a da ff 3a c3 17 55 3d
       -0.018493809 0.1168037 0.0019520011 0.052024614

fc.2.bias f4 [64]
000000 3a d1 1a bd f7 a7 cf bc d3 ba 53 bd 39 57 44 bd
       -0.03779719 -0.025348647 -0.05169184 -0.047934745
000010 6f 9f f5 3c 54 cc f2 3d ec c9 74 bd 8b 1c d3 3d
       0.02998325 0.11855379 -0.05976288 0.103081785
000020 23 ae e1 bd 1a 1a 2c bc 3f cf 1b 3e a4 9f 36 bd
       -0.11019542 -0.01050427 0.15215777 -0.04458584
000030 97 10 f8 bb df e4 52 3d 04 29 31 3e f7 31 1d bc
       -0.007570337 0.0514878 0.17300802 -0.009594432
000040 55 b1 08 3c 4c 07 d6 3d df fb db bc 20 06 21 bc
       0.0083430605 0.104506105 -0.0268535 -0.0098281205
000050 3e d2 e9 3c fa 51 13 3c a5 07 5d 3d 9e 61 ee 3d
       0.028542634 0.008991713 0.05396237 0.11639713
000060 38 a0 93 bc bb 4b bb bd 0e 61 2f 3e af 10 23 3d
       -0.018020734 -0.09145304 0.17126867 0.039810833
000070 c9 f0 fe bd 41 76 17 3d 20 37 49 3d 47 56 59 3d
       -0.1244827 0.03697801 0.049124837 0.053060796
000080 53 93 09 3e 0e 90 07 3e c5 b8 b9 3d 7d 0b b2 bd
       0.13435106 0.13238546 0.09068445 -0.086935975
000090 78 b0 9d bd b3 9b 99 bd a0 2d 68 3d 2b ad 0c be
       -0.07699674 -0.075004004 0.056684136 -0.13737933
0000a0 7e 29 34 3b 67 f6 25 3e 73 98 ea bb 72 9a 9a 3d
       0.0027490552 0.16207276 -0.0071592866 0.07548989
0000b0 00 c4 0e 3c 0f 11 2c 3c 88 f7 dd bd 2c 1a cb bd
       0.008713722 0.010502114 -0.108382285 -0.09917101
0000c0 51 16 8a 3c e4 4f 48 3e e2 38 d8 bc 68 85 64 3d
       0.016856344 0.19561726 -0.026394311 0.05579129
0000d0 e0 5b a6 3d 7c e2 f4 bd 4d ca fd 3d 2d 83 45 3d
       0.081229925 -0.11957261 0.123921014 0.048220802
0000e0 1c 98 d6 bd 32 27 db 3d 4a d1 d7 bc ea 2d 32 3e
       -0.10478231 0.10700835 -0.026344914 0.17400327
0000f0 19 c5 ca 3c 28 6e 19 3e 81 80 d7 3a cb 6a cd 3d
       0.024752187 0.14983428 0.0016441495 0.10030135

actor.weight f4 [6, 64]
000000 6a 73 25 3d d3 da 78 bc b2 09 05 3e 4d 1e 9b 3d
       0.04039327 -0.0151888905 0.1299198 0.07574139
000010 e2 64 75 bd a0 2c 94 bd 07 b8 53 3c 31 94 4a 3c
       -0.059910662 -0.07235074 0.0129222935 0.012364433
000020 ba ef 8b bd c8 f8 c9 3b d0 65 28 3c aa d9 94 bd
       -0.068328336 0.0061636902 0.01027818 -0.072680786
000030 69 06 16 3d 7c d8 32 3d cd b1 37 3d b9 0b 14 bd
       0.036627207 0.043663487 0.0448473 -0.036143992
000040 7a 16 f6 3d 90 ab 9a bd e2 b8 71 bd 57 09 db bd
       0.12016006 -0.07552254 -0.05901421 -0.10695141
000050 18 d3 4d 3d 2e bc ae 3a 63 27 60 bd 32 b3 c5 bc
       0.050250143 0.0013331228 -0.054725062 -0.024133299
000060 84 02 b7 3c 13 0f 9e 3d 18 a8 c9 bd 42 34 36 3d
       0.022340067 0.07717719 -0.098465145 0.04448343
000070 1f 58 65 bd 1a 4c aa bd 11 7a 8c 3d 47 4f 41 3d
       -0.055992242 -0.083152965 0.0685922 0.047194745
000080 85 a6 15 bd 97 39 66 bc 22 ba 84 bd 1f 14 e6 3d
       -0.03653576 -0.014051816 -0.064808145 0.112343065
000090 68 bb 52 bc 95 57 db 3d 84 e0 87 3d b8 6f 36 bc
       -0.012862064 0.10710064 0.0663462 -0.011135034
0000a0 8e bf be bd a1 a7 aa bd 75 88 d8 bd 5d ba c6 bd
       -0.0931388 -0.08332754 -0.10572902 -0.09703515
0000b0 85 91 2a bc 42 49 a1 bc 33 37 58 bd 41 d8 bd bd
       -0.010410671 -0.019688252 -0.052787017 -0.09269763
0000c0 bc 7d 8a bd 0e f6 08 bd d1 88 23 bd 53 f5 dc 3d
       -0.06762263 -0.03343778 -0.0399254 0.107889794
0000d0 d2 9b 57 bd 78 dd e4 bd 82 08 d0 3c 12 55 1d bc
       -0.052638836 -0.11175054 0.025394682 -0.009602802
0000e0 30 6d c4 3d 81 de 80 bd 51 b3 32 bd ce 1c aa bd
       0.09591138 -0.06292439 -0.04362804 -0.08306275
0000f0 2e 44 aa 3c 7f 1f b5 bd d4 83 fe 3d a3 2a 41 bd
       0.020784464 -0.08843898 0.12427488 -0.047159802
000100 45 85 06 3d c3 b4 5b 3b 69 6c fe 3c a9 86 04 bd
       0.03284194 0.003352449 0.031057553 -0.032354984
000110 ed e7 5a 3e d5 6e 8d 3d ee b1 1a 3e 8f 96 ec 3d
       0.21377535 0.06905905 0.15106937 0.11552154
000120 2d 99 d4 3c 04 df 6a 3d 09 66 d6 3d 67 47 c7 3d
       0.025951946 0.05734159 0.104686804 0.09730416
000130 de 9d 0a 3e 4d ff 4e 3e 81 6a 36 3e 6c d0 2f 3e
       0.13536784 0.20214577 0.17814066 0.1716935
000140 2f f9 d4 3d 2a 92 63 3c 09 be f4 3d e4 b5 8b bb
       0.103990905 0.013889829 0.11950309 -0.0042636264
000150 8d 78 ee bc a0 4c 20 3e b3 96 e3 3d 3c cc 85 3d
       -0.029110217 0.1565423 0.11112728 0.06533095
000160 f2 98 e1 3c 68 4b 8e 3d 7f 46 bd bc 48 75 06 3e
       0.02753875 0.06947976 -0.023104904 0.13130677
000170 26 6a a5 3c 09 9c b6 3d ae 2b 8f 3d 01 17 c0 bd
       0.020192217 0.0891648 0.06990753 -0.09379388
000180 ec 21 66 3c 63 48 6e bc b1 80 09 3d c1 8a 8f bd
       0.014046174 -0.0145436255 0.033569995 -0.07008887
000190 b7 f8 d4 3c df 81 2d 3d 76 64 04 3e 1b ef 26 bd
       0.025997503 0.042360183 0.12928948 -0.040755372
0001a0 b6 8d 66 3d 92 a2 b6 3d 51 43 3b 3e 3e 21 1e bd
       0.05628749 0.089177266 0.18287398 -0.03860592
0001b0 6a 0e 14 3e be b2 d2 3d 4b 6e bb 3d 32 44 46 bd
       0.14458624 0.102879986 0.09151896 -0.04840488
0001c0 78 c1 d0 3d 2d 1a f1 3d 14 db a6 3b f8 f2 58 3d
       0.10193151 0.11772571 0.005092034 0.052966088
0001d0 f6 85 4c 3c 14 d7 3e bd 70 d6 9f 3d 7f aa 9b bc
       0.012483111 -0.046591833 0.078045726 -0.019002197
0001e0 cf 97 82 3d f1 2f c4 bd 59 9c 95 3d 54 f4 cd 3d
       0.063766114 -0.095794566 0.073052116 0.100563675
0001f0 e8 f1 02 3e 74 50 1e 3e 93 3e 99 3d 89 fa 66 bd
       0.12787592 0.15460378 0.07482638 -0.056391273
000200 e8 d7 e0 bd 3d 3b 19 3c 22 d8 69 bd 16 c3 63 3c
       -0.10978681 0.009352502 -0.057090886 0.013901493
000210 30 0a bd bd 0b b2 f6 bd 7a 25 51 3d d7 42 a9 bd
       -0.09230459 -0.12045678 0.05106113 -0.08264702
000220 c4 c9 f3 3c f2 ad 1b bb 70 b7 46 3d ac c0 eb 3d
       0.029759295 -0.0023754803 0.048514783 0.115113586
000230 d2 ff 6b bc 82 fb 5a bd 65 09 0a bd fb e1 8f bd
       -0.014404254 -0.053462513 -0.033700366 -0.07025524
000240 77 a9 8d bc b6 bb e4 3d a9 30 12 3d 32 8c a5 3d
       -0.017292721 0.111686155 0.035690937 0.08083381
000250 1e a6 b3 bd 6b 9a 95 bc fb ec 16 bd a4 f2 b9 bd
       -0.08771919 -0.018262109 -0.036847096 -0.09079483
000260 49 9c dc 3d ef b2 fe 3c be ef ed 3b 82 b1 c9 bd
       0.107719965 0.031091182 0.0072612455 -0.0984831
000270 ca aa d9 3d e4 44 62 bd f4 f7 c2 bd 56 73 a1 bd
       0.106282786 -0.05524148 -0.095199496 -0.07883327
000280 60 21 f8 3d ea 30 cf bd 1b 95 e6 3b a7 e0 b8 3b
       0.12115741 -0.101167515 0.0070368177 0.005642015
000290 f6 45 36 3d ab 03 a7 3d 7a 0e a7 3d 9a 67 e4 3d
       0.044500314 0.081549965 0.08157058 0.11152573
0002a0 4d 4d db bd 6c da 77 bc bf 6e 3d bd 5e 79 95 bd
       -0.10708103 -0.015127759 -0.046248194 -0.072985396
0002b0 d0 5c c1 3d 41 2f 81 bd 74 90 71 bd b4 4c c2 3d
       0.09441531 -0.06307841 -0.05897565 0.09487286
0002c0 88 be 5b 3d 0a 34 7f 3b eb fa cd bb 20 b3 99 3d
       0.0536485 0.003894093 -0.0062860153 0.075048685
0002d0 e1 24 c2 bc e9 fb b0 bd 37 21 39 3c 8d ef e2 bd
       -0.023699226 -0.08641798 0.011299423 -0.11080847
0002e0 93 cb 9c bd fa 42 8f 3d be 7f c2 bd 32 36 aa bd
       -0.07656016 0.06995197 -0.09497021 -0.08311118
0002f0 0c e2 59 3d 4c 81 f0 3b 3a 95 97 bd ba 31 9d 3d
       0.05319409 0.007339632 -0.074015096 0.076755
000300 8e c1 af 3d 63 36 b3 bd 03 cc 06 3d e5 be 55 3d
       0.085818395 -0.08750608 0.032909404 0.052184004
000310 f3 0f cd bd 1d a2 78 bd fc b7 e5 3c 46 d6 ad 3d
       -0.10012808 -0.06070148 0.028041832 0.08488135
000320 4b 69 e3 3d dc b9 04 bd f5 38 07 be 2a 37 39 bd
       0.111040674 -0.03240381 -0.13205321 -0.045218624
000330 7c 8a a4 3d b1 0f 48 3d 85 39 c3 3b 50 4b eb bd
       0.08034226 0.04884309 0.0059577846 -0.11488974
000340 e8 77 c6 3d d6 82 7b 3d cb f9 8f 3d 55 a9 02 be
       0.09690839 0.06140407 0.07030066 -0.12759908
000350 a2 db 0f bd 08 37 90 bd 10 e0 ed 3d fa 28 16 bc
       -0.035121568 -0.070417464 0.11615002 -0.009165043
000360 6b 73 b1 bd 23 07 3b bd 0a 91 89 bd a5 57 13 3d
       -0.08664592 -0.045661103 -0.06717117 0.035972256
000370 c4 f2 b3 bd 8c 02 c3 bd 96 89 27 3d 27 7b 8e 3c
       -0.08786538 -0.0952197 0.040902697 0.017392708
000380 61 68 f2 bd 62 50 ce bd a2 33 16 be 19 71 01 bd
       -0.11836315 -0.100739256 -0.14668134 -0.031602
000390 99 83 ef bb 38 81 fe bd 0d 51 c1 bd 0b c4 c4 3d
       -0.007309389 -0.1242699 -0.09439287 0.09607705
0003a0 bc 54 19 3c 98 fc 8d bd f6 f9 31 bd 9a a0 a0 bd
       0.009358581 -0.06932944 -0.043451272 -0.07843132
0003b0 39 58 bb bc 4d 8d b1 3d b4 2f d4 3d bc 9c f7 bd
       -0.022869216 0.08669529 0.10360661 -0.120904416
0003c0 f5 8f 97 bd bb e3 df bd ba 9d 8b 3b 21 20 e6 3c
       -0.074005045 -0.10932108 0.004260746 0.028091492
0003d0 ce 59 af 3d 79 45 d0 bd 5e 0e c6 3d fa 58 1c bb
       0.08562051 -0.10169501 0.09670709 -0.0023856745
0003e0 01 83 d4 3d 6d 26 02 be 2d ed c1 bd e0 f8 e1 bd
       0.103765495 -0.12709971 -0.09469066 -0.11033797
0003f0 6a 52 a7 bd e1 91 00 be d3 db e5 bd 2e 76 9c bc
       -0.08170016 -0.12555648 -0.11223569 -0.019099321

actor.bias f4 [6]
000000 d7 d7 76 bb 85 78 17 3e d4 ff e6 3c 74 0b ba 3d
       -0.0037665272 0.14792068 0.02819816 0.09084216
000010 7e fe 4a bd f7 29 8e 3d
       -0.04955911 0.06941598

critic.weight f4 [1, 64]
000000 4a 60 da 3c 5e b2 9c 3d 21 63 3e be 18 cd 37 be
       0.026657242 0.07651208 -0.18592502 -0.17949331
000010 b8 ec e4 bd fd b2 8c bd 7c 89 06 be 2e db 4d 3b
       -0.11177963 -0.06870077 -0.13138384 0.003141116
000020 81 49 f8 3c cb 0b ba 3b 73 2c 22 be 0c bb 9e 3b
       0.030308487 0.0056776754 -0.15837269 0.004844075
000030 d2 89 21 be 77 6b 0c be d1 00 72 bd bb 54 d5 bd
       -0.1577523 -0.1371287 -0.05908281 -0.10416552
000040 b1 8c 2c 3a 00 a6 f3 bd 13 ea b4 bd 43 8c ca bd
       0.0006582244 -0.11896896 -0.088337086 -0.09890034
000050 56 92 00 3d 0e c2 fc bd 27 f9 a3 3c de 80 0b be
       0.031389557 -0.123417005 0.020016266 -0.13623378
000060 8f fe 01 be d2 34 a3 3d 58 14 e8 bd 15 6f 53 3d
       -0.12694763 0.07969059 -0.11332005 0.051619608
000070 5d b7 00 3d cf 2a 40 be c2 5c 2f be 71 f8 a3 3d
       0.03142487 -0.1876633 -0.17125228 0.08006371
000080 d3 19 b7 bd fc b9 f6 bd 82 73 ef bd c7 c4 95 3d
       -0.089404725 -0.120471925 -0.11691953 0.07312923
000090 c9 e5 c6 3d 82 68 e5 3d 29 17 28 be 9c 8f c6 3d
       0.09711797 0.11201574 -0.16415085 0.0969536
0000a0 8f 96 0b be fc d7 c5 bd bf 66 0e be 33 3e 35 be
       -0.13631652 -0.096603364 -0.13906382 -0.17699508
0000b0 0b ae 0f be 3b a6 f1 bd 75 88 c5 3d 27 36 0f 3d
       -0.14031236 -0.11799284 0.09645168 0.034963753
0000c0 0e ce c7 3d 96 f2 af bd f6 d8 28 3d 8e b4 ff bd
       0.09756099 -0.085911915 0.041222535 -0.1248561
0000d0 2a 1f 1f be 63 98 df 3c f5 0b 46 be 48 73 3f be
       -0.15539232 0.027294343 -0.19340499 -0.1869632
0000e0 e3 cd cd 3c d5 23 8b 3d 76 63 ab 3c f4 38 d5 bd
       0.025122589 0.06793944 0.02092145 -0.104112536
0000f0 8f c2 05 be 47 a4 12 be b2 a0 10 be 4d 83 df 3d
       -0.130625 -0.1432048 -0.141238 0.109137155
