models/HalfCheetah-v2/ppo_clipped_20241114_012722.pth (torch, 26071 bytes, 7 tensors)

fc.0.weight f4 [64, 17]
00000000: 64d8 85be bf6f 2e3e 9761 6b3e f336 7ebd
00000010: d6a7 593d e105 35bd 1fed 293e 01c2 f63d
00000020: 3c4b 0abe 5ab2 5b3e bb49 85bc 99b5 51be
00000030: 90ba 49be 650b 9f3c 9c72 d73d 352b 08bd
00000040: 787d 11be 4dac 363d 2790 cdbd 4f0c 3c3c
00000050: 6cd0 e33d 416c 9b3d 0ed1 673e 61d1 7d3e
00000060: 0bd6 52bc 6ee8 3f3d 5d9f df3d 35eb ddbd
00000070: 6c92 16be c100 38bc cc3b 69be db25 d8bd
00000080: b4e2 01be 0468 97bd a442 60bd e2d9 aa3e
00000090: b503 753d ffb0 133d c967 d73d 5b99 e4bc
000000a0: 1b47 013e c9a7 7b3e 2a6d 443c c521 1f3e
000000b0: 3af1 63bd 1acf 7d3d 6f17 263e 7b0e 43be
000000c0: 749a 883c 60e4 1d3e c7e4 90be f50f 75be
000000d0: a406 00bc 80d1 013e 1f35 833e f931 ee3c
000000e0: 1df5 ce3d d24a 853e 5ab3 493e 2dc7 0dbe
000000f0: 660d 023e 4b41 433e eb76 d0bd 4531 5bbe
00000100: 9e3e 5abe 9361 f33d 3710 403e ce74 203e
00000110: 52e0 ce3b d9b6 053e a6b7 dcbd 4098 493d
00000120: 2b36 a73e 5c02 adbd e277 603d 6753 853e
00000130: 99ad 5cbe bd8c 1f3e 5722 c9bd b104 adbd
00000140: 447f 783e dc23 533e 042a 84ba ffb6 1fbe
00000150: 94c1 68bd 1382 a3be 693d 7f3e 004d 4a3e
00000160: de1d 023e ef08 8d3e d475 443e 1415 0abb
00000170: 9b8f 823e 8f4c 4dbd b829 153e 598e f1bd
00000180: d1dc 453a 8ec2 4a3d 8448 3cbe 8770 e9bc
00000190: 4b97 583e 2d5c fc3d 5a1d 1d3d 5bd5 503d
000001a0: 70a7 81bd e710 0d3e 0a49 9b3e 9c21 8f3e
000001b0: 26a8 383e ca55 64bd f08c 1dbe c9e1 e7bd
000001c0: 6695 81bd f5d1 09be 3fdf 1cbe 350e 393e
000001d0: d822 1cbe bd20 0f3e 76ed 063e da64 1fbc
000001e0: 1118 ca3d 7a42 af3e 9db3 a4bc 7417 d0bd
000001f0: f21f a43e 9900 953e cf9c 963a 0430 9abe
00000200: 91f3 12be efe3 b93d ba37 62bb a9ca 2ebe
00000210: 54df 47bd c9de 893d 1b8a 993c 759b 75bc
00000220: fc61 ac3d d7f9 abbd ebd9 3c3e 6f65 733e
00000230: c426 e7bd b4a8 a53e 8e56 27bd edc1 943e
00000240: 7e7f 9cbd 070e 57bd 8fd2 323e b212 ad3d
00000250: fe03 763e 31ac 3f3d 76dc 213d 8e68 183e
00000260: dab8 913d c5f5 34be 7cec 003e c0c1 2dbe
00000270: c271 e9bd af2e 7a3d 1e1c b2bd f346 8bbd
00000280: fc61 9abd dbc2 423d eafb 3dbe a763 a53d
00000290: 9756 4c3e 1fe2 303e 8f12 37be 7c06 14be
000002a0: 0ef1 88be 2bb9 1bbe 7ebb 7c3d e7d3 8b3e
000002b0: 42ef b53d 2db2 f8bd fd37 08be bd42 363b
000002c0: d214 5f3e 4209 7a3e 0308 023d a58a 243d
000002d0: fc20 99bd 55f3 7b3e 4db7 0abe e98b 093d
000002e0: 4b0b 31be 804b 81bd 0cc1 64be be1e 4c3c
000002f0: 306e bcbd a0ec 193e 1a56 3a3e 74d2 04be
00000300: 8879 663d 665f af3d c6ca dcbd aa97 5fbd
00000310: 548e 783c 5975 8fbe 9c68 743e 06b6 593d
00000320: 11ba 4fbe f66c 9a3d 533a 10be 5017 663e
00000330: 54ac 5a3d 1163 d9bd 1b50 ddbd 3b96 e6bc
00000340: 8598 863e bfd0 cd3d 09ba 7a3e e00e 933e
00000350: 049f e8bb e593 d5bd 7908 23be fdf2 673e
00000360: 628f 843e 7f61 b4bd f357 1abe 1187 e3bb
00000370: 0bbc 8dbd 9179 633d bdb8 13be d4fa 6c3e
00000380: 5551 87bd b589 363d 4676 463e 1837 d3bd
00000390: 357e 993e 5489 863c 0b5d 24bd 405e 3dbe
000003a0: 51d9 8b3d 8851 313e e3de 203e 94af 133e
000003b0: d56f 44be a4ac 67be d3d3 90be 2644 01be
000003c0: 4262 a23e f07a e23d b4f3 8f3d c223 3c3d
000003d0: 884f 9ebc 1e3f 653e 668c 15bd bc4d 1dbe
000003e0: 3fd2 2cbe d0e7 4f3e 32ea 3e3e 8480 683e
000003f0: 9b3b 17be 66a0 de3d ea56 88bd 9c85 53be
-0.26141655 0.17034815 0.22986446 -0.062064122 0.053138576 -0.04419506 0.16594361 0.12048722
-0.13505262 0.21454754 -0.016270509 -0.2047943 -0.19700074 0.019414613 0.10519907 -0.03324433
-0.14208019 0.044597913 -0.100372605 0.011477544 0.11123738 0.07589007 0.22638342 0.24786903
-0.012868415 0.04685252 0.10919068 -0.10835878 -0.14704293 -0.0112306485 -0.22776717 -0.10554095
-0.12684137 -0.07392886 -0.054751053 0.33369356 0.05981799 0.03605747 0.10517842 -0.027905157
0.12624781 0.24575724 0.011988917 0.15540226 -0.055649973 0.061965086 0.16219877 -0.19048493
0.016675211 0.1541915 -0.28299543 -0.23931868 -0.007814083 0.12677574 0.25626466 0.029076563
0.101053454 0.26033646 0.19697323 -0.13845511 0.12700424 0.19067876 -0.10178932 -0.21405514
-0.21312949 0.11883845 0.18756185 0.15669557 0.006313362 0.13058032 -0.10777216 0.049217463
0.32658514 -0.08447716 0.05480183 0.26040193 -0.21550597 0.15581031 -0.09821003 -0.084481604
0.24267298 0.20619148 -0.0010083322 -0.15597151 -0.056825235 -0.31935176 0.2492577 0.19755936
0.12706706 0.27545878 0.19185573 -0.0021069692 0.25500187 -0.05012184 0.14566696 -0.11794729
0.0007547858 0.049501948 -0.18387038 -0.02849604 0.21151464 0.12322269 0.03835807 0.05098472
-0.06330764 0.13775979 0.30329162 0.2795533 0.18032894 -0.055745877 -0.15385795 -0.11322362
-0.063273236 -0.13458999 -0.15319537 0.18071826 -0.15247667 0.13977332 0.13176522 -0.009728635
0.098678716 0.34230405 -0.020105178 -0.10160723 0.32055622 0.29102018 0.0011490824 -0.30114758
-0.14350726 0.09076678 -0.003451808 -0.17069496 -0.048796967 0.06731946 0.018742612 -0.014990677
0.084171265 -0.083972625 0.18442504 0.23769163 -0.11286691 0.32355273 -0.04085403 0.29054204
-0.07641505 -0.052503612 0.17463134 0.084508315 0.2402496 0.046795074 0.03951689 0.14883634
0.07115336 -0.17671879 0.12590212 -0.16968441 -0.11398651 0.061079677 -0.08696769 -0.06800642
-0.0753822 0.04754911 -0.18553129 0.08075648 0.19954906 0.17273758 -0.17878173 -0.14455599
-0.2674641 -0.15207355 0.061702244 0.27310106 0.088835254 -0.12143359 -0.13302608 0.0027810775
0.21785286 0.24417594 0.03174592 0.040171284 -0.074769944 0.24604543 -0.13546486 0.033580694
-0.17289464 -0.063132286 -0.22339267 0.012458501 -0.09200704 0.15031672 0.18196908 -0.12970906
0.056268245 0.08563118 -0.107808635 -0.054587997 0.015170652 -0.28019217 0.2386803 0.053152107
-0.20285822 0.07540314 -0.14084749 0.2246983 0.053387 -0.106145985 -0.108062945 -0.028147807
0.26288238 0.10049581 0.2448503 0.28722286 -0.0070990343 -0.10428599 -0.15921201 0.22651286
0.25890642 -0.088076584 -0.15072612 -0.0069435914 -0.06920632 0.055535857 -0.14425941 0.23142558
-0.0660731 0.04456492 0.19381055 -0.10313243 0.299791 0.016422905 -0.040127795 -0.18492985
0.06828559 0.17316258 0.15710025 0.14422446 -0.19183286 -0.22624451 -0.2828661 -0.12623653
0.3171559 0.11058605 0.070289046 0.04593254 -0.019325033 0.22387359 -0.036510848 -0.15361685
-0.16877078 0.20303273 0.18644026 0.22705275 -0.14768831 0.10870437 -0.066572025 -0.20656437

fc.0.bias f4 [64]
00000000: 91c6 d0bc a67a 5e3e 0353 babd 0343 7a3d
00000010: f560 5e3e be14 0dbe 7efc cd3c 976c 89bd
00000020: 91ef 703e 5b28 cb3d 9886 523e 6210 7c3e
00000030: 7e98 8a3d 390f d33d 8a81 753e af0c 2a3e
00000040: e81a 80bc e209 6a3e c89a d23d 2d25 5c3d
00000050: aafe 653e d475 eabb 86fd e53c 8788 943d
00000060: aec1 c3bd 4d15 623e be37 a43e 3551 903e
00000070: 32d0 963e dfe2 5a3e 0f74 753e a7d5 da3d
00000080: fc84 4c3e 07ac 183d 59f9 a2bc b37f 483d
00000090: 0d4f 9f3d 7112 78bc c082 a63e 8900 d9bd
000000a0: 2f31 a83c bdbc 603e a51f 25be de89 753d
000000b0: 5eb8 9d3d 8ace 27be 6e23 863e 31a7 883e
000000c0: 2137 093e 1123 8e3e 2d4b 963d ee4c 75bd
000000d0: d59f 15be 85a3 a23e 35c1 983d 2821 933e
000000e0: 2fe2 fcbd b54a 583e cf8d d7bd 15d5 a5bc
000000f0: 4f6f cd3d f415 d43d 345f bf3d 7e1f 3dbe
-0.025485309 0.21726474 -0.090978645 0.061099064 0.21716674 -0.13777444 0.025144812 -0.06710165
0.23528887 0.099198066 0.20559156 0.24615625 0.06767367 0.10305638 0.23975196 0.16606401
-0.01563783 0.22855332 0.102834284 0.05374639 0.22460428 -0.0071551595 0.028074991 0.07252603
-0.09558426 0.22078438 0.32073778 0.28186956 0.29455715 0.21375607 0.23970054 0.10685282
0.19972605 0.037273433 -0.019894289 0.04894991 0.077787496 -0.0151411155 0.3252163 -0.10595805
0.020531265 0.21946998 -0.16125353 0.059945934 0.07701181 -0.16387382 0.26198906 0.26690057
0.13399936 0.2776113 0.073385574 -0.05988782 -0.14611752 0.3176538 0.07458726 0.28736234
-0.123478286 0.21122248 -0.10525095 -0.020243207 0.10030996 0.1035575 0.093443304 -0.18469045

fc.2.weight f4 [64, 64]
00000000: 7172 0d3e e6b4 f23d 5de2 413e 5d23 ee3d
00000010: 5f11 05bd 3461 233e d852 c73d b44a 063e
00000020: 0137 f53d c630 613b 9f7c 3d3e f0fa 1f3c
00000030: fc66 43bd 8094 4c3d 2d8a 09bd 5474 983d
00000040: 99dc 0b3e 748d 4a3d b27a 653c e2cf 3fba
00000050: ae25 7b3d f287 f83d e2a8 323e a25e 913c
00000060: 0fc0 863a 1e78 3b3e 25ef fb3c 6f61 be3d
00000070: 0b13 cabc 37cb 8d3d c8a3 e43d 2b2a aa3d
00000080: b821 d03d a5c4 3a3d 387b 0d3e d810 0c3b
00000090: 1432 913d 1049 e13d 1078 363d 8982 b73d
000000a0: 4e76 b83d c44b 843d 8a75 bebb 9945 1e3d
000000b0: 7486 6fbc 6faa b73d 632c 463e 95e4 dabc
000000c0: 2da2 1f3d 88fa 283e a398 7a3b 25f7 0a3e
000000d0: 3dc2 d03c 1933 043d 4773 093e 3554 91bc
000000e0: 727f 2c3d adf7 9abd 1a02 a93d 2295 103d
000000f0: d36f f23d a9e5 823d 7b67 4bbd 3cde 22bc
00000100: a16f f13c 964b cdbc b725 cf3d 5c49 fdbd
00000110: 2683 dcbb c3af ccbd 181a d2bc 6739 4fbd
00000120: 4671 c23d 2345 aa3c bebb 933d e7e2 d13d
00000130: 2863 7e3d 8379 fabd bdbe cc3c a897 833d
00000140: 70f0 bc3c 5fce fcbc 057f 64bd 548c aa3d
00000150: f179 bc3d 2470 d6bd f046 843d 8795 41bc
00000160: cb03 e83d b93c 21bd 7374 08bd 425c 0f3d
00000170: 11dc df3d bfda 18bd 9f85 4dbc 6fb3 9fbd
00000180: 0494 923d 6cc9 8e3b da47 b3bd 26fd d8bd
00000190: eafd 08be da14 c3bd 5a89 4b3d ca42 e83d
000001a0: a50f d1bd e689 c3bd 1e59 293d bee3 333d
000001b0: 811c 8e3d 231d c7bc a4a3 f6bd 4194 d3bd
000001c0: 9813 b9bd 0564 7fbc 5568 d43d 707e 4fbc
000001d0: d4bf b63d c4bc 76bd a921 ebbd db43 2e3d
000001e0: 2f16 3fbd cbb1 663d 0447 4cbd 8a10 c9bd
000001f0: 46f9 3ebd d62f 5abc 0afe dfbc 42ce 28bd
00000200: 1403 0f3e 37f6 88bc 755f d6bb d402 023e
00000210: 25fc 61bd 4d0e 403e 3369 213e 57cf 213e
00000220: 340e 173e e429 063e 2a33 453c febb 1d3e
00000230: b1b4 f43d 19c1 0d3e 2851 213d d45d 203e
00000240: 96f6 2a3e dc94 203e 0b4f 97bd 1c40 c03d
00000250: 8fd2 ae3d a300 503e 0058 123e 089f 9e3b
00000260: f3b9 c13c b904 eb3d caab 4b3d 4ac6 a23d
00000270: 3696 06bc bed1 b4bc 6dd8 283e be1f 11bd
00000280: bf17 243e bb19 f13d 170e 063e b1f0 893d
00000290: 6352 ffbb f1e9 053e 9b56 163e ef1a 043d
000002a0: 2fbe 963d 54cb 233e f3b3 4abd 5e59 ad3d
000002b0: a2a4 abbc 9142 983c 60a1 d7bc 40ca 923c
000002c0: d53d 1c3e 9437 efbc c067 e53d 39e9 413e
000002d0: 181b 1c3c ca78 1b3e 3608 173e 521e 383d
000002e0: 9bb5 353e eb2f 1b3e b9ab cb3d af9a d6bb
000002f0: 28c5 873d b4bd 3f3e 08f0 7bbb 2d45 3ebe
00000300: 3c97 6b3d cbed 5dbd bbf5 2abd 2033 273e
00000310: cd63 253d 3282 da3d a6c1 143e 4b9a 643c
00000320: 67c4 bc3d 8b29 183e 77e3 443e 7736 0d3e
00000330: 8d80 01bd 921e 88bd 9d55 133e 0844 0a3e
00000340: 45b2 ae3d cc2b b1ba 4c67 003e 3525 d63d
00000350: 572c 29ba 002a ee3d 2ed7 1c3e bfa5 f1bc
00000360: 2145 bb3d 89a1 f53d 3045 373e 8fe1 343e
00000370: 1cc6 63bc 63eb 423e cc5a 30bc e62b b93c
00000380: 0c29 4bbd 874f 1f3d 5662 24bd 2a84 0fbd
00000390: 740f 52bd 0bd8 3c3e 7538 f73c 4969 083d
000003a0: 9d13 0ebc bf12 4b3e c951 ad3d cc32 053e
000003b0: ee9e 1cbd 1fce db3d dfef 223e c334 383e
000003c0: d4c6 82bd d32b 1a3e 048e aa3d 5024 693d
000003d0: 7ca1 97bc 7a21 79bd b5d6 a7bc a79b c23d
000003e0: c953 c73d 8a83 fa3d f61e 85bd f494 293e
000003f0: 8013 1c3d e803 d33c 0d09 a03d 1932 943d
0.13813187 0.1185091 0.18934007 0.11627839 -0.03248727 0.15955049 0.09732598 0.13114434
0.11973382 0.0034361347 0.1850457 0.009764418 -0.047705635 0.049946308 -0.03357904 0.07444063
0.1365837 0.049451306 0.014006304 -0.0007317049 0.06131523 0.121353045 0.17447236 0.01774532
0.0010280627 0.1830754 0.030753681 0.09295928 -0.024667284 0.06923526 0.11164051 0.08308824
0.10162681 0.04559769 0.13816535 0.0021372344 0.0708963 0.11000264 0.044548094 0.089604445
0.0900694 0.06459764 -0.0058123516 0.038640592 -0.0146194585 0.089680545 0.1935287 -0.026720325
0.038973022 0.1650182 0.0038237951 0.1357084 0.025483245 0.032275293 0.13422881 -0.017740348
0.04211373 -0.07566772 0.08252354 0.035298474 0.11837735 0.063914604 -0.049659234 -0.00994068
0.029472174 -0.025060456 0.101146154 -0.12367508 -0.0067295013 -0.099944614 -0.025647208 -0.050591853
0.094942614 0.02078492 0.07213543 0.10248356 0.06210628 -0.12230208 0.024993295 0.064254105
0.023063868 -0.030860124 -0.055785198 0.08327547 0.09202946 -0.10470608 0.06458843 -0.011815435
0.113288485 -0.03936455 -0.03331418 0.035000093 0.10930646 -0.037317988 -0.012544065 -0.07797896
0.07157138 0.0043575075 -0.08753939 -0.10595159 -0.1337811 -0.095254615 0.049691536 0.11340864
-0.10208062 -0.095477864 0.041344754 0.043918364 0.069390304 -0.024305886 -0.12042931 -0.103310116
-0.0903694 -0.015587811 0.10371462 -0.012664422 0.08923307 -0.060238615 -0.114810295 0.04254518
-0.046652015 0.0563219 -0.049872413 -0.09817608 -0.046624444 -0.013317069 -0.027342815 -0.041212328
0.13966018 -0.016718967 -0.006542141 0.12696391 -0.055172104 0.18755455 0.15762787 0.1580175
0.14751512 0.13101918 0.012036124 0.15403745 0.11948527 0.13843192 0.039384037 0.15660793
0.16695628 0.15681785 -0.07388123 0.09387228 0.085362546 0.20312743 0.14291382 0.0048407353
0.023648238 0.1147551 0.049724378 0.07947977 -0.008214524 -0.02207267 0.1648881 -0.035430662
0.16024683 0.11772486 0.13091312 0.06735361 -0.0077918037 0.13077523 0.14681475 0.03225225
0.073604934 0.15995532 -0.04948802 0.08464311 -0.020952526 0.018586429 -0.026322067 0.017918706
0.15257962 -0.029201306 0.11201429 0.18936624 0.009527944 0.15182796 0.14749226 0.04495079
0.17745058 0.15154998 0.09944863 -0.0065492014 0.066294014 0.1872471 -0.003844263 -0.18581076
0.057517275 -0.054181855 -0.041738253 0.16328096 0.04037838 0.10669364 0.14526996 0.013952802
0.09217148 0.14859597 0.19227396 0.13790308 -0.031616736 -0.06646456 0.14388128 0.13502514
0.08530096 -0.0013517081 0.12539405 0.104563154 -0.00064534455 0.116291046 0.1531646 -0.02949798
0.09144045 0.11993701 0.17897487 0.17664169 -0.013902213 0.19035105 -0.010763835 0.02260394
-0.049599692 0.038894203 -0.040132843 -0.03503815 -0.05128427 0.18441789 0.030178288 0.033303533
-0.008671668 0.1983137 0.08462865 0.13007659 -0.038237505 0.10732674 0.15911816 0.17988877
-0.0638558 0.1505578 0.083278686 0.056919396 -0.018509619 -0.06082294 -0.020488122 0.095023446
0.097327776 0.1223212 -0.06500046 0.16560727 0.038104534 0.025758699 0.07814226 0.07236118

fc.2.bias f4 [64]
00000000: d8c7 6c3c ae88 ffbd 27f6 033e 9153 223e
00000010: 9acc e13c 68dc a2bd d690 513e 15cf b43c
00000020: de17 3b3d 2c58 ccbd a127 a33d c6ad 243d
00000030: a38a 86bc c82a 3a3e 5ea5 54bd f9be e53d
00000040: 4b85 653d fc35 95bd 6930 863d 8261 1e3d
00000050: a02a 45bd 61b5 f4bd 09f1 a13c 5544 00be
00000060: ade5 dabd 2abf 233c 986d eabc 0251 b3bc
00000070: 5d1b a9bb d374 d73d 5861 abbd 26ff 193d
00000080: e055 133a b63d 26bc 0e21 053e 6318 893d
00000090: 8b7b ffbc c353 42bd 8d6b d8bd 9e91 e53d
000000a0: 99a4 eabd cf1e 353e f519 403e 1903 173e
000000b0: 0b68 e33c 707d f2bd 26d6 503c d45f 513d
000000c0: 0d62 68bc 6f31 d9bc c935 2c3e 7320 c8bd
000000d0: 745a 613d 50a1 4bbd fcc8 a9ba cac2 acbd
000000e0: 8bc3 7b3d 9021 06bd 47c8 dfbc e1f8 9abd
000000f0: 71b3 ad3c 1c34 2ebd da59 2bbd 949e 013e
0.014451943 -0.124772415 0.12886868 0.1585219 0.027563382 -0.079521954 0.20465407 0.0220714
0.04567706 -0.09977755 0.07966543 0.040204786 -0.016423529 0.18180382 -0.05191552 0.11218066
0.05603532 -0.07285687 0.06552202 0.03866721 -0.048136353 -0.11948658 0.019768255 -0.12526067
-0.106883384 0.0099943075 -0.028616711 -0.021889213 -0.0051607327 0.10520329 -0.08368176 0.037596844
0.00056204014 -0.010146549 0.1300089 0.066941045 -0.03118684 -0.047443163 -0.10567389 0.11209415
-0.11457176 0.17687534 0.18759902 0.14747275 0.027759572 -0.118403316 0.0127463695 0.05111678
-0.014183533 -0.02651283 0.16817392 -0.09771814 0.055017903 -0.049714386 -0.0012953575 -0.084355906
0.06146578 -0.03274685 -0.02731718 -0.07567001 0.021203728 -0.042530164 -0.041833736 0.12658149

actor.weight f4 [6, 64]
00000000: 48cf 523c cd88 55bb ef3f f63d e789 9ebd
00000010: e295 fc3d d0a0 c2bd 6ae7 f1bb ff3b 07bd
00000020: 5958 f03c 9213 99bb cd70 72bd da44 c33d
00000030: 85f9 b63d 6f63 56bd 37e7 08bd 2ca3 b4bd
00000040: 520c cebd 94e5 53bd 8856 16bd a922 ee3d
00000050: 3766 e4bd 6476 d93d ceba 1cbd 139c 69bd
00000060: 1d39 c43d 6123 fabd 34f2 b0bd 2a3e c83d
00000070: 275c 9c3d fc38 1dbd d723 b1bd 093a 443c
00000080: c718 a03c c8e6 73bd 5e77 d8bb 54cb c6bb
00000090: 7091 d53c 644e ea3c bc21 233c 2118 9fbb
000000a0: 17b0 063c 240c c9bd c709 adbd 7b8a 6e3d
000000b0: 8f34 bd3c 1a96 033d e960 e1bd a200 6ebd
000000c0: 38fa 2dba a87e a0bc 10b3 43bc fc67 d13d
000000d0: dcf3 303d b038 b43d 38b7 633d dea4 ebbd
000000e0: ca47 783d 92a0 3abc c369 ac3d a192 c5bd
000000f0: be8a 10bc 2cb4 e2bd 13f8 d0bd 1da0 d63d
00000100: 57d1 28bc 843d b6bd ec64 cb3d 1e71 0a3e
00000110: bf06 5dbc ba5c a2bd c3cc 173d 3ff4 2d3e
00000120: 8f11 2f3e 1457 c03d 7767 96bd ff68 d53d
00000130: 44d5 de3d cf7f 7b3d 1c77 583e c838 0cbd
00000140: a069 213e 83c5 d93d b4a2 323d 84a8 e03d
00000150: f6d0 eabc 69c0 853b 75a5 443e b07b cfbd
00000160: 8174 c23d 07a6 433c 2fca 45bd a46c 213e
00000170: 056c d63d 2609 033e 0a0e c7bd 011a a63d
00000180: 16f6 983d 6172 cdbd c9d2 f73c 8050 ccbd
00000190: 295d 70bc 8e69 0abd b174 00bd b5b1 133c
000001a0: ab86 d53d 5e16 523e a55b c53d 0e8e 943d
000001b0: 9458 ec3d f5f4 d4bd 01dc e13d 9162 053e
000001c0: 8e21 033d 2216 623d 8635 11bd 3fbc bebc
000001d0: b99f 0e3e 0568 353d 1b64 83bd 1c97 9cbc
000001e0: 761a f53d e4e9 8d3b 73b1 abbd 0281 1a3d
000001f0: 5c22 403e c73d 873d a9d2 263e 2976 393e
00000200: 097b c23c b9af 8b3d c202 1fbd b7c2 9d3d
00000210: f6c1 3e3c 25ee a23d 123e d93d e591 44bd
00000220: 680d 473d bc27 de3c 88a6 3abd 7c28 65bb
00000230: ea43 36bd 26dd a93d e370 373d 8f54 e2bc
00000240: f8e4 87bd 8dd4 153c 82a1 6abc fe9c 573d
00000250: d564 8c3d aed1 973d 010f c53d 7fa3 cc3d
00000260: d716 55bd 03e8 ccbd 93a7 54bc 9654 073d
00000270: 7ebc 213d 4b1a f53d c3af 943d fa65 93bd
00000280: ebb7 f13c 90c1 823d c821 d2bc fa86 b93d
00000290: 3a2d cebd 8542 b83d 3036 c63d c156 903c
000002a0: 47ae e93c 00a1 adbd b2de 523d c46c b73d
000002b0: f2eb 88bc 3b5c 863d be47 05bc 5d19 39bd
000002c0: 6754 d63d f696 ea3d 4fbf c53d 3f54 88bd
000002d0: c1c0 aa3d 6e5b ff3d 8938 b73c 065c 29bd
000002e0: ad79 ef3c 4220 cf3d 05c6 58bd b6f4 623c
000002f0: 9180 dfbd 24e5 b43c 1e96 36bd 26f8 a5bd
00000300: fe2a fd3c 6b3e a63c 2149 03be 9f2c c3bc
00000310: 5eb5 5b3d eaca 773d 98eb 093d 83af 83bd
00000320: e8f9 92bd d87c 543d ae2c f23d f742 6c3d
00000330: 1c85 d2bd 539b 19be 08e6 5e3d 1169 9abd
00000340: 4be0 91bd b0b5 a23d 9377 4cbd 4706 ae3c
00000350: 27db 26bd 905e 053d 9627 77bd a54b 45bd
00000360: a45a b9b8 385a cabd 299c 413c e83e c13d
00000370: 1b39 8a3d 33b6 c43c 63f8 a1bd 15cc 063d
00000380: 42d1 613d 32ce e33d 74d3 b4bc ab33 86bc
00000390: 6f60 cc3c 6c59 733d 7d25 783c 0d45 96bd
000003a0: f2a7 18bc ae5c 0ebe 4e0e 7cbd dedf ae3a
000003b0: 520f 533d ee6f eabc 09a2 9f3d bdcb 1f3d
000003c0: 5268 e8bc c151 7a3d 7b63 c2bd 8b88 a8bd
000003d0: cef7 9c3b 6ef3 39bd f76f 8e3d 85c0 943d
000003e0: e34c e33d 99d1 72bd d728 873d 7e39 fabd
000003f0: ff04 acbc 43f7 b5bd 2893 bf3d 2ca1 ae3d
0.0128668025 -0.003258276 0.12023913 -0.077411465 0.123332754 -0.09503329 -0.007382323 -0.0330162
0.029339002 -0.0046715224 -0.059189606 0.09534617 0.08934311 -0.05234092 -0.03342363 -0.08820185
-0.10060944 -0.051732615 -0.036703616 0.11627705 -0.111523084 0.10618284 -0.03826409 -0.05703361
0.09581206 -0.12213779 -0.086399466 0.09777482 0.07634764 -0.038384423 -0.08649414 0.011976727
0.019543065 -0.059546262 -0.0066060266 -0.006066719 0.026070327 0.028601833 0.009956773 -0.0048551713
0.008220694 -0.09816769 -0.084491305 0.058237534 0.023096351 0.03212557 -0.11004812 -0.058106072
-0.0006636712 -0.019591644 -0.011944547 0.102249116 0.043201312 0.08799875 0.055594653 -0.11506055
0.06061534 -0.011390822 0.0841861 -0.09647108 -0.008822141 -0.11069521 -0.102035664 0.10479758
-0.010303817 -0.08898452 0.09931359 0.13519713 -0.013490378 -0.079278424 0.03706051 0.16987704
0.17096542 0.09391609 -0.07343953 0.10420417 0.10880521 0.061401185 0.21139187 -0.03423384
0.15762949 0.106333755 0.043612197 0.10969642 -0.028664093 0.004081775 0.19203742 -0.101310134
0.094948776 0.0119414395 -0.04828852 0.157641 0.10469822 0.12796459 -0.097194746 0.081104286
0.07468812 -0.10031582 0.030251877 -0.09976292 -0.014670649 -0.03379207 -0.031361286 0.009014537
0.104260765 0.20516345 0.096366204 0.07253657 0.115403324 -0.10398284 0.110282905 0.13025881
0.032014422 0.05519689 -0.035451435 -0.023283122 0.13928117 0.044288654 -0.06415578 -0.019115023
0.11967938 0.0043308605 -0.08383455 0.037720688 0.18763107 0.0660358 0.16291298 0.18111481
0.023740308 0.06820626 -0.03882099 0.077031545 0.011642924 0.07955579 0.10607542 -0.0479907
0.04859677 0.027118556 -0.045568973 -0.0034966758 -0.04449836 0.08294134 0.04478539 -0.027628211
-0.06635469 0.009144914 -0.014320733 0.052639954 0.0685517 0.0741304 0.096220024 0.09992122
-0.052023735 -0.1000519 -0.012979406 0.03303965 0.0394864 0.119679056 0.072600864 -0.07197185
0.029506644 0.06384575 -0.025650874 0.09058948 -0.1006722 0.089970626 0.09678304 0.017619492
0.028525485 -0.08477974 0.05148191 0.08956292 -0.01671407 0.0656056 -0.00813478 -0.045190204
0.10465317 0.11454575 0.0965563 -0.06656694 0.08337546 0.12468611 0.022365825 -0.041347526
0.029232824 0.101135746 -0.05292322 0.013852289 -0.10913194 0.022081919 -0.044576757 -0.08103971
0.03090429 0.020293435 -0.12820865 -0.023824988 0.053639762 0.06049625 0.033671945 -0.064299606
-0.07176572 0.051876873 0.11824928 0.05768105 -0.10279295 -0.15000658 0.054418594 -0.07539571
-0.071228586 0.079448104 -0.049918722 0.021243228 -0.040736344 0.032560885 -0.060340486 -0.048167843
-8.8383706e-05 -0.09880489 0.011817017 0.094358265 0.06749173 0.02401266 -0.07908704 0.03290947
0.055131204 0.11123313 -0.022073485 -0.01638206 0.024948327 0.05941145 0.015145657 -0.07337389
-0.009317385 -0.13902542 -0.06153708 0.0013341864 0.051528282 -0.028617825 0.07794578 0.03901266
-0.028370056 0.061113123 -0.09491631 -0.082291685 0.004790283 -0.04539817 0.06954949 0.07263283
0.11098649 -0.05928192 0.065995865 -0.12217997 -0.020998476 -0.08885052 0.0935424 0.08526835

actor.bias f4 [6]
00000000: c325 38bd 2e27 fc3c 9532 c53d 4d48 f3bd
00000010: edfd bb3d ae7f bf3c
-0.044957887 0.030780401 0.096287884 -0.11879025 0.09179292 0.023376312

critic.weight f4 [1, 64]
00000000: 20b1 3dbe 15ba 683d 2aaf 96bd 3e6f eebd
00000010: 9c69 08be 7268 f53c 87de a6bd fe9a abbd
00000020: 318d 05be 2f62 cb3d ddaf b83d 1661 27be
00000030: 8492 b63d f3e6 c6bd 081a 2ebe e231 2bbe
00000040: 4793 31be 3443 3f3d 34f8 05be f313 243d
00000050: 6437 c13b 492a ad3d 1747 23be b552 b83d
00000060: 7531 e13c 1449 e33c 8c9a eebd 0859 b5bd
00000070: 2e0c bf3d 7d78 b5bd 2766 243d 5333 23be
00000080: 2401 01be 20dd a73d ef35 34be dc2a c23c
00000090: 3461 9f3d d681 d03d 2111 173d cd0b 21be
000000a0: 2f54 1a3d 2f76 fdbd 8ae8 95bd af03 08be
000000b0: 4da2 39be 83e3 923d 51c9 fe3b 2653 b63d
000000c0: 09bd 553c cc70 eebd 1ca6 0dbe 14c6 a13d
000000d0: 03fe 3dbe e84b bd3d 6f0b 133d 7c33 a03d
000000e0: f57f 073d dc2d 0b3d 785c c83c e4f2 8a3c
000000f0: 4d4a 08be 45d3 9a3d f9e9 d6bd 04c6 0abe
-0.18524599 0.056818087 -0.07357629 -0.116423115 -0.13321537 0.02995703 -0.081479125 -0.08379172
-0.13042141 0.099308364 0.09017918 -0.16345629 0.089146644 -0.09712019 -0.17002118 -0.16718248
-0.17341338 0.04669495 -0.13082963 0.040058088 0.0058964957 0.08455331 -0.15945087 0.0900015
0.027489403 0.027744807 -0.11650571 -0.08854872 0.09328495 -0.08860872 0.040136483 -0.15937547
-0.12598091 0.08196473 -0.17598699 0.023702078 0.07782212 0.10181014 0.03688157 -0.15727158
0.03767794 -0.12376057 -0.07319744 -0.13282655 -0.18128319 0.07172301 0.0077754636 0.08902578
0.013045558 -0.11642608 -0.13832897 0.078991085 -0.18553929 0.092429936 0.035899576 0.0782232
0.033081014 0.03397928 0.024458155 0.016961522 -0.13309593 0.07559828 -0.104938455 -0.135521
