models/HalfCheetah-v2/reinforce_20241114_014212.pth (torch, 26051 bytes, 7 tensors)

fc.0.weight f4 [64, 17]
000000 fa a5 4e be 1a 83 af 3d 00 e8 07 be cc f2 27 3e
       -0.20180503 0.085699275 -0.13272095 0.16401213
000010 43 d3 46 3e 67 54 9a bd fd cc 3b be 41 01 21 be
       0.19416527 -0.0753563 -0.18339916 -0.15723135
000020 73 b8 1a be 74 e6 a5 bd 18 e6 2f be 1f 0d 61 3b
       -0.15109424 -0.08100596 -0.17177618 0.0034340096
000030 42 25 41 3e ba ab 08 3e ae 89 1d bb 57 7c 7c be
       0.18861869 0.13346758 -0.0024038362 -0.24656807
000040 98 d1 c6 bd 65 8d ba bc 4c 92 01 be 94 58 7b 3e
       -0.097079456 -0.0227725 -0.12653464 0.24545509
000050 5e cd 27 be e6 97 60 3e 66 6a 26 be 37 62 16 be
       -0.16386935 0.21932945 -0.16251525 -0.14685903
000060 f6 2b 82 bd ef 44 5b 3e be 41 42 bd 70 08 16 3e
       -0.06356041 0.21413015 -0.047425978 0.14651656
000070 f2 57 7f 3c 5e 4d bb 3d ba 4d 42 be ec 56 c5 3d
       0.015584933 0.09145616 -0.18974963 0.0963572
000080 e7 b3 26 be 75 62 61 3e b4 96 76 be 21 77 06 be
       -0.16279565 0.22010215 -0.24080926 -0.13131382
000090 b0 5d 7d 3d fb e0 94 bd 4c f3 25 bd 2c d6 9a bd
       0.061856925 -0.07269474 -0.04051523 -0.07560381
0000a0 f7 04 86 bd d1 a6 8c 3e 29 83 3e be 66 80 d3 bd
       -0.06543916 0.2747102 -0.18604721 -0.103272244
0000b0 97 56 38 be 40 de 66 be e6 32 23 3d 67 b5 90 bd
       -0.18001781 -0.22545719 0.039843462 -0.0706585
0000c0 fb 5a 6e 3b 78 e9 55 be ac ba ac bd d4 7e 9c be
       0.0036370147 -0.20889843 -0.08434042 -0.30565512
0000d0 9d 04 48 3e 3e 4d cc bb 07 5c a6 bd 88 6f e6 3d
       0.1953301 -0.006234794 -0.081230216 0.11251742
0000e0 46 a7 c3 bd 51 80 50 bd f6 05 f4 3b 85 c8 79 3e
       -0.09553389 -0.050903622 0.0074469997 0.24392898
0000f0 2d c2 d3 bd 90 09 c9 bd ce b1 b0 3d e7 73 56 be
       -0.103397705 -0.09816277 0.086276636 -0.2094265
000100 3a d7 c2 bd fc 00 6b bd 67 bd 6c 3e 72 f7 dc bd
       -0.095137075 -0.057373986 0.23119126 -0.10789384
000110 45 38 e5 bd 1b dd a5 bd 48 c6 64 3e 96 28 72 3e
       -0.11192373 -0.08098813 0.22341263 0.23648295
000120 0e 33 4a bd 29 96 33 3e e9 1f 00 3e d8 7e 25 be
       -0.049365096 0.1753775 0.12512173 -0.16161668
000130 a6 ea 34 bd 5a ea 22 3d 89 df 69 3e c2 73 1b 3e
       -0.04416909 0.039774276 0.22839178 0.15180877
000140 9b 3f 23 be d4 d7 ad bd f8 a9 39 3e bb d9 72 be
       -0.15942232 -0.084884316 0.18131244 -0.2371587
000150 2c e7 73 bc 9f 7b 47 be bd b8 35 bd 67 70 40 3d
       -0.014886659 -0.19480751 -0.044365633 0.046982195
000160 1e 5e 99 bd 9f 89 32 be 9d 9a 6e 3e 40 d1 9b 3d
       -0.074886546 -0.17435311 0.23301168 0.07608271
000170 14 09 47 be f2 b2 8c bd 9d 49 22 be 29 5d 16 3e
       -0.19437057 -0.068700686 -0.15848394 0.14683975
000180 b0 fd 1b 3e 38 85 58 3e d0 83 40 3d c1 a8 01 be
       0.15233493 0.21144569 0.047000706 -0.12662031
000190 06 00 68 be 8d 71 13 bd d3 c5 4b be 45 38 ef 3c
       -0.22656259 -0.035996962 -0.19899683 0.029201636
0001a0 75 3d 3f bc 41 88 34 be 24 85 58 bd 6f fc d3 bb
       -0.011672367 -0.17630102 -0.052861348 -0.0064693014
0001b0 eb 4e 0a 3e 9d 41 3b 3e 90 5f 21 3e de fe 0c be
       0.13506667 0.18286748 0.1575911 -0.13769099
0001c0 a4 56 56 3e 2f cf 8e bd b9 29 59 3e 2c 5e 0b 3e
       0.20931488 -0.06973111 0.21207322 0.13610142
0001d0 af ac 24 3d da bc 5c bd 51 bf 9d 3c 99 a5 79 be
       0.040203746 -0.05389104 0.019256266 -0.24379577
0001e0 90 a7 f6 bd 82 ce 31 3d 78 f7 c0 3a 39 ae 40 be
       -0.12043679 0.04340983 0.0014722189 -0.1881646
0001f0 73 a9 a7 bd 97 12 02 bd d1 ac 07 be 15 d5 1f bd
       -0.08186617 -0.03175601 -0.13249518 -0.03902157
000200 22 10 37 be a2 4a 7f 3e 2f ec 7f bd 1a 2a 11 3e
       -0.17877248 0.24930814 -0.0624811 0.14176217
000210 ed 84 54 be b1 32 ad bc 08 0e 77 be cd 5c 9f bd
       -0.20753832 -0.021142336 -0.24126446 -0.07781372
000220 a0 e5 2b be d6 66 e9 3d 78 a9 65 bd f5 48 13 be
       -0.16786814 0.113965675 -0.05606982 -0.143833
000230 e6 a3 1b 3e d7 77 55 be 29 8c d2 bd d7 f4 83 3c
       0.15199241 -0.20846497 -0.1028064 0.01610796
000240 21 55 a3 3d 62 e1 cf bb 36 97 5e be 7d 95 3d be
       0.079752214 -0.0063440064 -0.2173737 -0.18514057
000250 9c f7 49 3e 8a 33 10 3d d2 a8 39 3e 55 54 3e be
       0.19723362 0.0352054 0.18130806 -0.18586858
000260 0a 06 99 bc 06 41 50 bd 7f 88 21 3e 9d 14 18 3e
       -0.018679637 -0.05084326 0.15774725 0.14851613
000270 93 4b 48 be bb 7d 53 3e e8 f4 2d be 76 d6 01 3e
       -0.1956008 0.20653431 -0.16987956 0.12679467
000280 2c c7 3d 3e 6c 3b 92 bb e3 cb 34 bd db 4e 0b 3e
       0.1853301 -0.00446265 -0.044139754 0.136043
000290 da 75 33 3e 39 9b 14 be 17 6e 03 bd 01 a8 6b 3e
       0.17525426 -0.14512338 -0.03208741 0.23013307
0002a0 63 50 c5 bd ae 7a df bd 82 83 46 be 4b 41 3a be
       -0.09634473 -0.10912071 -0.19386104 -0.1818897
0002b0 28 1f 85 3e 12 ab 41 3e d9 ba 91 3e c0 bd fd 3d
       0.26000333 0.18912914 0.28462866 0.123897076
0002c0 9c c4 82 3e 82 cc 2b be 28 64 13 be b2 c1 04 be
       0.25540626 -0.16777232 -0.14393675 -0.12964514
0002d0 de 4e 75 bd 9e 4e 5e be 62 f8 36 3e 67 f1 d2 3d
       -0.059889667 -0.21709678 0.17868188 0.1029995
0002e0 5b fa 38 be a9 bc 83 3e 35 82 5f be e9 0c 1b be
       -0.18064253 0.25729874 -0.21827014 -0.15141644
0002f0 4d c2 3c be d4 d6 c1 bd d3 be 08 be 89 34 9e bd
       -0.18433495 -0.09464803 -0.13354044 -0.07724864
000300 b4 11 81 bd 9a 9f 4f 3e 9e ab 1d 3e 38 d7 41 be
       -0.06302205 0.20275727 0.15397498 -0.18929756
000310 7c d8 49 3e 3f bd 60 be b1 a0 07 be 0c 8f 89 3e
       0.19711488 -0.21947192 -0.13244893 0.2686695
000320 a2 7c 48 3e 56 80 8a 3c 43 1b e6 bd 66 de 66 be
       0.19578794 0.016906898 -0.112356685 -0.22545776
000330 75 7d 17 be 4c 8a 50 3e 1d eb 0d 3e 85 a4 2c be
       -0.14793952 0.20365256 0.1385922 -0.16859634
000340 10 1a 3b be 49 1d f1 bd 5a dd b5 bd 16 b2 ab bd
       -0.18271661 -0.11773164 -0.0888011 -0.083835766
000350 d3 2c 5f 3e 9f 2e 75 bd 78 26 ba 3d ba fa 00 3e
       0.21794443 -0.059858914 0.090893686 0.12595645
000360 c7 0a 70 3d da 9c 1c be ee 29 5a 3e d0 e1 6f 3e
       0.058604028 -0.15294209 0.21305057 0.23425984
000370 16 ed 51 3e f0 50 de 3d 7f bf a4 3c 92 0a 52 be
       0.20500597 0.10855281 0.020110844 -0.20511845
000380 22 96 20 3d 7f aa 0f 3e a2 9b 7f 3e 92 7c 40 be
       0.039205678 0.14029883 0.24961713 -0.1879752
000390 e8 7b 6b 3d 9c 32 f1 3b bc 09 76 3d 28 2f 7f 3e
       0.057491213 0.0073607694 0.060067877 0.24920332
0003a0 7e ac 7d bd 43 0b 79 3e 33 ae 92 3d 4c 5c 05 3d
       -0.06193208 0.24320702 0.07162132 0.032558724
0003b0 9d d9 31 3e cc 32 1f bd e6 c5 be 3b 98 03 86 3e
       0.17368169 -0.038866803 0.005821931 0.26174617
0003c0 1d 28 ff bd c7 aa 63 3e d4 5b db 3d f1 89 80 3e
       -0.12458823 0.22233115 0.10710874 0.2510524
0003d0 7f 57 e0 bc 0b 0a bf 3d 3c 92 e2 3c 2c f5 cc 3d
       -0.027385471 0.093280874 0.02765762 0.100077
0003e0 17 89 0d 3e 05 fd 6d be d3 5d c5 bd 7a 87 b2 bd
       0.13821827 -0.2324105 -0.09637036 -0.08717246
0003f0 5c 55 55 3e 94 c3 1e 3b aa 52 34 be c9 ec 85 be
       0.20833343 0.002422546 -0.17609659 -0.26157215

fc.0.bias f4 [64]
000000 05 1d 2f bd c3 68 a0 3d c7 de 02 be 05 1c 9d bd
       -0.042752285 0.07832482 -0.12780295 -0.0767136
000010 e1 59 7a be 22 d1 cc 3d 93 d8 43 bd 7d b6 97 3e
       -0.24448349 0.100008264 -0.047813963 0.29631415
000020 ed 4e 11 bd c3 9d 3c be 92 c7 ab bc 94 4c 6f 3e
       -0.03547566 -0.18419556 -0.020969186 0.23369056
000030 a6 87 88 3d 52 9b ef bd ed c9 69 bd 60 a4 4a be
       0.06666498 -0.11699547 -0.057077337 -0.19789267
000040 f6 97 b0 3d a2 30 d8 bd ed dd cf 3d 96 16 29 bd
       0.08622734 -0.10556151 0.10149751 -0.041281305
000050 7f a1 70 3b 14 d4 27 3c 54 76 52 be e2 f6 bd 3d
       0.0036717353 0.010243434 -0.20552951 0.09275605
000060 d1 6f 43 bb e2 3f 5f bd 46 5e 62 3d 5a 0c e8 3d
       -0.0029821286 -0.054504283 0.055265687 0.11330481
000070 93 0b 23 3e 9c 96 12 3e b4 a3 a8 bd da f2 bb bc
       0.15922384 0.14315265 -0.08234349 -0.02294295
000080 f1 4c 06 bc 35 ea 8f 3e dd 9b 02 3e 48 9b 5d 3e
       -0.008197055 0.28108373 0.1275477 0.21641266
000090 2d f9 59 bd 34 34 33 be 0a 1e cd bd 1e ff cc bd
       -0.05321615 -0.17500383 -0.10015495 -0.10009597
0000a0 52 b1 fa 3d 31 0e 12 bd a8 73 80 3d 85 b7 f6 3c
       0.122408524 -0.035658065 0.0627206 0.030116806
0000b0 b5 aa 15 3d 0f 0b 2a 3e c4 d1 f1 3c 49 0b 4e 3e
       0.036539752 0.16605781 0.02951897 0.20121492
0000c0 71 bf e4 bd fa 59 94 3c 9a 30 48 bd 4a c7 b7 bb
       -0.11169327 0.01810931 -0.048874475 -0.005608474
0000d0 70 3d c8 bc 5e c9 11 3e 12 91 90 3e 92 b5 f3 3d
       -0.024443358 0.14236972 0.2823568 0.11899866
0000e0 e5 83 35 be 6e 01 8b 3e 6b 1c 34 3d 1a 84 50 3e
       -0.17726095 0.27149528 0.043972414 0.20362893
0000f0 4c 97 42 be 55 2b 24 be 29 87 43 be dc 9c 0f be
       -0.19003028 -0.16032155 -0.19094528 -0.14024681

fc.2.weight f4 [64, 64]
000000 23 fd 49 3d a5 11 9a bc 64 4b 0a 3d d6 2e 47 bd
       0.049313676 -0.018807242 0.033763304 -0.04862865
000010 ce 06 c0 3d c9 41 1d bd 15 f4 00 3e aa 9a 32 3d
       0.09376298 -0.038392816 0.1259311 0.04360453
000020 40 b0 fc bc fa a1 94 3c 06 d3 f6 bd 1c 5d 02 3e
       -0.030845761 0.018143643 -0.12051968 0.12730831
000030 2e 17 d5 bd f1 eb a8 3d aa 17 1f bd 2e e7 f4 bd
       -0.10404812 0.08248127 -0.038840927 -0.119581565
000040 69 58 fc bc 5d d7 80 3c 0a 23 ce bd 60 fb 90 3c
       -0.030803876 0.015727693 -0.10065277 0.01769799
000050 ca c7 3a bd c9 be 8f bd a9 26 e4 3c ff 0a 05 be
       -0.04560069 -0.07018811 0.027850466 -0.12992476
000060 fa d1 e6 3b bd 45 01 be 57 df 37 3c 2f d1 31 3d
       0.007044074 -0.1262426 0.011222682 0.043412384
000070 eb 15 85 bc db 96 7f bd 01 cc 94 3d 37 43 da 3d
       -0.016245803 -0.062399726 0.07265473 0.106573515
000080 62 cc a5 3b b3 5b 30 3c ce e1 1b 3d 6d f0 ba 3d
       0.0050597647 0.01076405 0.03805714 0.09127889
000090 33 bf b2 3c 35 e4 8f 3d 5f aa 7f bd 12 8d 05 3d
       0.021819687 0.07025949 -0.062418338 0.03260524
0000a0 97 12 a1 3d 0c 91 b6 bd ae 2b 27 bd d1 82 98 3d
       0.07864874 -0.08914384 -0.04081314 0.07446826
0000b0 b0 72 b1 bd 0a 2a cb 3d d7 5e 00 bd 2d 79 8b 3d
       -0.08664453 0.09920128 -0.031340446 0.06810222
0000c0 60 87 8a bd 53 ee b4 bd c2 a8 78 3d ab f3 fe bd
       -0.06764102 -0.08834519 0.060707815 -0.1244882
0000d0 62 c7 54 bd 9a e1 ea 3d fe be 8f 3d a4 a0 7f 3d
       -0.05194796 0.11468811 0.07018851 0.06240906
0000e0 08 6a c8 bd 14 be 8c 3d 77 72 bb 3d d1 7f 5a 3d
       -0.09785849 0.06872192 0.09152692 0.05334455
0000f0 50 49 88 bd e9 54 67 bd 4c 58 c0 3d 46 50 ea bd
       -0.06654608 -0.05647746 0.09391841 -0.11441092
000100 8c 4b 2f 3e 84 dd d0 bc fb 92 be 3d 40 dc 37 be
       0.17118663 -0.025496252 0.09305378 -0.17955112
000110 2f 27 ef bd 69 75 a0 bc 05 f7 87 3c ed aa 24 3e
       -0.116773956 -0.019587236 0.01659728 0.16080828
000120 2b e4 ee 3d fe 14 57 3d ce 9a 06 3e eb 7b 43 3e
       0.11664613 0.052510254 0.13144991 0.1909024
000130 e0 4b 52 3c 89 ee c9 3d e9 ce 12 3b 4c 29 76 bd
       0.012835473 0.0985995 0.002240116 -0.060097978
000140 d4 4c 43 3e 3a 08 4c bd 04 b4 5d bc 6e 8e 16 3e
       0.19072276 -0.049812533 -0.013531689 0.1470277
000150 ca c4 02 3c c5 b2 8d 3b f0 a0 f6 3d 29 63 cb bd
       0.0079814885 0.0043242895 0.12042415 -0.09931023
000160 69 ca 09 be f7 1f 60 bc fb ec ce bd 55 7d 53 3c
       -0.1345612 -0.013679496 -0.10103794 0.012908299
000170 26 33 21 bc ee 54 cb bd 01 07 8e 3a 0d 8c 35 3e
       -0.009838855 -0.099283084 0.0010835828 0.17729206
000180 94 aa 7c 3d 8f ff f2 3d fc c9 4f bd e3 d5 4d bd
       0.061686113 0.1186515 -0.050729737 -0.050252806
000190 be c9 6d bd 86 7b 8e 3d fc 95 51 3d 28 05 97 bd
       -0.058053724 0.06957154 0.051168427 -0.0737403
0001a0 ba 5e 8e 3d 9e 67 19 3e 55 16 fe 3d 94 a4 08 3e
       0.069516614 0.14980933 0.12406603 0.13344032
0001b0 23 c2 16 3e 27 80 91 bd 15 73 bf 3d 22 4c 10 3e
       0.14722495 -0.07104521 0.09348122 0.14091542
0001c0 65 81 90 bd 57 69 95 3d 6a 1b 1c be 6d f9 af bb
       -0.0705593 0.072954826 -0.15244833 -0.00537031
0001d0 7f a5 fc 3c e2 89 cd bb d4 2e 1c 3e 19 f4 65 3c
       0.030840633 -0.0062725404 0.15252239 0.014035248
0001e0 6a 37 e9 3c 09 37 a3 3d e6 59 d7 bd 5c 94 27 be
       0.028468806 0.079694815 -0.10515194 -0.16365188
0001f0 e5 1b 21 bd 84 bd 16 bd 3f d7 12 3c f1 ea ab bc
       -0.039333243 -0.03680183 0.0089624515 -0.020986052
000200 5d 2e db 3d 84 5d f5 3d d1 1e a4 bd a6 f6 d7 3d
       0.107022025 0.11980727 -0.0801369 0.10545091
000210 62 cd 49 3c 92 33 8d 3d e8 6d 25 3e 71 ad f6 3d
       0.0123170335 0.06894602 0.16155207 0.120448
000220 4b 8b 70 bc 07 ff 15 bc b9 3f e8 bc ea 0f aa 3d
       -0.0146816475 -0.009155042 -0.028350698 0.083038166
000230 0b cd b4 bd f7 b4 37 bd 39 78 0d 3e 39 ba 18 3e
       -0.08828171 -0.044850316 0.13815393 0.14914788
000240 8c 40 3e 3d f0 0e 9b 3d ff 75 4c 3d 29 9e b7 3d
       0.046448275 0.075712085 0.049917217 0.089657135
000250 9b 0e b3 bd 28 0b d5 3c 97 43 0a bd aa 05 14 bd
       -0.0874302 0.026006296 -0.033755865 -0.036138214
000260 9a ed ff 3d 1d 20 6c 3d 5d 35 53 bd 27 41 e3 bc
       0.12496491 0.057647813 -0.051564563 -0.027741028
000270 47 54 5c bd f1 d9 e0 3d 2e b0 ed 3d c5 cc 81 bb
       -0.05379131 0.10979069 0.11605869 -0.003961178
000280 19 83 27 3e bd 2b 52 bd f6 75 02 bd d7 7e b6 3d
       0.16358604 -0.051311243 -0.031850778 0.089109115
000290 8b eb 0f bd 08 ec ef bb 74 06 8a 3d bc d0 c4 3d
       -0.03513674 -0.0073218383 0.06739512 0.096101254
0002a0 c6 75 87 3d cf 7c 0c 3d c7 9a 80 bc 0c b3 4a b9
       0.066142604 0.034298714 -0.015698804 -0.00019330921
0002b0 69 47 a1 3d 83 94 80 bd 67 09 17 3e a8 76 96 3d
       0.078749485 -0.06278326 0.1474968 0.07346851
0002c0 1c 85 09 3e f5 48 52 bd 2f 14 86 bd 72 b5 7a bd
       0.13429683 -0.05133911 -0.065468185 -0.061208196
0002d0 c3 76 6d bd 6d 77 82 bd 6a 67 d1 3d 6a 19 e9 3d
       -0.057974588 -0.06370435 0.10224803 0.113818005
0002e0 31 84 14 bd d6 3c 00 3e ef 17 b1 bc 06 c5 ac 3d
       -0.03625888 0.12523207 -0.021617858 0.08436017
0002f0 79 9b df 3d 00 c4 16 3d 17 57 ac bc 94 c9 10 3d
       0.10918326 0.036808014 -0.021037621 0.03534849
000300 70 b3 10 3d cb bb 8d 3d 13 14 e3 3d 8f 33 8d 3d
       0.035327375 0.06920584 0.11087813 0.068946
000310 58 1d 9f bd df 9c 2b bc a4 1a 08 3d 0a c2 b5 3d
       -0.07769269 -0.010474413 0.03322853 0.08874901
000320 f8 f7 f9 3b 7a be 16 3d 67 86 6a 3c 65 45 d9 3d
       0.007628437 0.036802746 0.014314271 0.10608939
000330 28 fa a4 bd ce 30 83 bd 2d c6 d5 bc f7 b2 be 3d
       -0.08055526 -0.06405793 -0.026095474 0.093114786
000340 18 b1 c9 bc c6 8f 21 bc 51 8e ee 3c 39 14 6e bd
       -0.024620578 -0.009860938 0.029120596 -0.058124755
000350 80 69 fe bc db 83 85 3d 7c 90 f6 3b b2 42 e2 bd
       -0.031056166 0.0651929 0.007524548 -0.11047877
000360 62 14 bd 3c c6 df e7 bb 12 32 3a 3d a9 4d e4 3d
       0.023081008 -0.0070762364 0.045457907 0.11147625
000370 b8 1b c3 3d 80 c2 85 3c 81 ca e2 3d e2 9f 11 3b
       0.09526771 0.016328096 0.11073781 0.0022220542
000380 48 8c 44 bd bd d3 46 3d 7f 2d e5 bd 9c 09 23 3c
       -0.047985345 0.048541773 -0.11190318 0.0099510215
000390 74 9b 0d 3c a2 a7 82 3c a4 61 fc bd a7 dc 9d 3d
       0.00864302 0.015949074 -0.12323311 0.07708102
0003a0 c7 30 3d 3d 40 3c f9 bc 8f ae b2 bd 34 a7 b8 bd
       0.046189096 -0.030424237 -0.08724701 -0.090162665
0003b0 20 06 20 bd bd 36 aa 3d cb 83 cc 3d 7a 2d bf bd
       -0.03906834 0.08311222 0.09986075 -0.09334846
0003c0 75 9e 92 bd 42 60 78 3d 18 39 a1 3d 3a f7 27 3d
       -0.071591295 0.060638674 0.07872218 0.041007258
0003d0 42 d5 ab 3b c6 ea 00 bd 96 37 04 3e 00 20 de bd
       0.005243928 -0.031473897 0.1291183 -0.10845947
0003e0 50 76 92 bd ba ca db 3d 77 39 7d bd 66 15 e2 3d
       -0.071514726 0.107320264 -0.06182238 0.11039238
0003f0 f8 f5 92 bd 3b 1d 9e bd 4a 9c 8c 3c a1 5f d1 bd
       -0.07175821 -0.07720419 0.017164368 -0.10223318

fc.2.bias f4 [64]
000000 bc ac e5 bd 9a 35 36 3c 5a c3 4e 3d db c6 8c bc
       -0.11214587 0.011121178 0.05047927 -0.017184665
000010 c5 c5 8a bc a4 3d a7 3c 6c fd fc 3d a2 b3 05 bc
       -0.016940007 0.020415135 0.12353024 -0.008160504
000020 ec 2a c9 3d 1c a7 f7 bd 8b 79 4e bd 59 6b 26 3d
       0.0982264 -0.120924205 -0.05040888 0.04062972
000030 e8 83 41 b9 5e cd 9c 3d b0 78 55 3c 33 1e 98 bc
       -0.00018455053 0.07656358 0.013029262 -0.018569088
000040 3d 7e c4 3d 9f ac c5 3d 11 d9 99 bd 7c b9 c5 bc
       0.095943905 0.096520655 -0.07512105 -0.024136297
000050 c7 a9 93 bb 3e 8d 2a 3b 0a 63 48 bd f6 32 32 3d
       -0.004506323 0.0026024128 -0.048922576 0.04350563
000060 00 1a 4d bd 0f d4 66 bd 2b 05 cb 3d 80 8a 4d 3d
       -0.050073624 -0.05635458 0.09913095 0.050180912
000070 3c b2 8e bd ce d2 0c bb e8 eb 26 bd 73 8f 22 bc
       -0.06967589 -0.0021487954 -0.04075232 -0.009921896
000080 c5 e5 cc 3d a6 ff 05 3d e0 60 06 3c fc ff f2 3c
       0.100047626 0.03271451 0.008201808 0.029663078
000090 6b e0 b6 bd b2 34 4c 3b fc ca 23 3d 7a 70 7f bb
       -0.08929523 0.0031159339 0.039988503 -0.0038976953
0000a0 a0 23 ec bd 7e 45 96 bc d0 5b 99 3d 15 83 db bc
       -0.115302324 -0.018343683 0.07488215 -0.026795903
0000b0 7e 68 0d 3e 62 c9 fe 3b ce 31 e5 bd 8f 44 9d 3c
       0.13809392 0.0077754715 -0.1119114 0.01919773
0000c0 68 fa 5f bb 38 d6 13 3c 73 4c e8 bc a8 2e c6 bc
       -0.0034176353 0.009023242 -0.028356766 -0.02419217
0000d0 2f ff 96 bd a8 85 b6 bd 40 b8 5c bb 66 f7 f3 bd
       -0.07372891 -0.08912212 -0.0033679157 -0.11912422
0000e0 03 38 9d bd a0 bb ad 3d e3 ae 65 3d 21 9e e6 bd
       -0.07676699 0.08483052 0.056074988 -0.112606294
0000f0 6d 51 be 3d 88 cb 98 bd 2b 99 6f 3c c7 5f bc 3d
       0.092928745 -0.074606955 0.01462392 0.091979556

actor.weight f4 [6, 64]
000000 ef 07 9a bc cf c1 35 be 03 e2 3f bd 70 37 23 bc
       -0.018802611 -0.17749713 -0.0468464 -0.009961948
000010 d7 8f d8 3d c5 8b 5c bd 91 aa 26 3e cb da 8b bd
       0.1057431 -0.053844232 0.16276003 -0.06828841
000020 bb 44 e0 3d e9 d4 1c 3d 3d bb 53 3d fd a9 b7 3d
       0.10950609 0.038288984 0.051692236 0.089679696
000030 cb bc 91 bd d0 1a 1f 3c 6d 89 37 3e 8b ca b7 3d
       -0.071160875 0.009710982 0.17923518 0.08974179
000040 3c b1 12 bd 92 8f 16 3e d9 94 83 3b bf c5 9c bc
       -0.035813555 0.14703205 0.0040155468 -0.019137261
000050 2e f2 05 be 9c 24 5b 3b 45 49 cc bd 51 9e d2 3a
       -0.13080665 0.003343857 -0.099749126 0.001606891
000060 f6 93 18 3d 83 18 8b bd e5 cd bd bb 43 e9 d7 3d
       0.03725048 -0.067917846 -0.005792367 0.10542538
000070 74 b0 8a 3d fa 70 2c 3e 35 65 77 ba 82 b1 80 3d
       0.06771937 0.16839972 -0.0009437383 0.06283857
000080 aa c5 9a bd c5 6d 07 3e 1c d8 84 3d 62 c6 93 3d
       -0.07557233 0.13225468 0.06486532 0.07215573
000090 7c ea 94 3d d9 d2 0e be ef ea 0a 3e a3 aa 06 3e
       0.07271287 -0.1394762 0.13566183 0.1315103
0000a0 46 b4 fd bd 6c 51 ec 3d 59 91 25 3e 8f 6c 0c 3e
       -0.123879 0.115389675 0.16168727 0.13713287
0000b0 99 5c 39 3e c9 78 7d bd 40 06 71 bd 98 4a 02 3e
       0.1810173 -0.061882768 -0.05884385 0.12723768
0000c0 6f 2a 51 bd ba 43 f3 bd 32 e9 36 bb 8f 7d 39 3d
       -0.05106586 -0.11878152 -0.0027909991 0.045285758
0000d0 31 5c 3c 3d 9f 43 be 3d 33 ca 12 3e bb 6a 8a bd
       0.045986358 0.092902415 0.14334945 -0.067586385
0000e0 30 63 0e 3e 36 ff 1f 3e d3 e0 19 3e 31 00 fe bc
       0.13905025 0.15624699 0.1502717 -0.03100595
0000f0 e4 96 0c bd 9c 0e e7 bd 2d 0c 8b 3c 4e e6 fd 3d
       -0.034323588 -0.112820834 0.01697358 0.12397443
000100 eb 45 1f 3e 8c 1a 8a 3e 6c 5d e6 3c 5a 40 25 3d
       0.15554015 0.2697338 0.028120719 0.040344574
000110 d5 a3 85 3d 4a 5f 6a bd 36 6c 0a 3e 86 ab 7b bd
       0.06525389 -0.05721978 0.13517842 -0.061442874
000120 f1 16 b9 3d 4a 7f b8 bd 90 b5 20 3e 4c 04 0f 3d
       0.09037579 -0.090086535 0.1569426 0.034916207
000130 60 db dd 3d 51 b5 81 bd 8c 42 8b bb f2 0c a1 bd
       0.10832858 -0.063334115 -0.0042498764 -0.07863797
000140 bc d9 18 bd 33 3c d3 bb 9f cc e9 bc 8f ab bb 3d
       -0.037317023 -0.0064463853 -0.028539954 0.091635816
000150 f0 b5 4a 3e 4a cf 0d 3d 44 83 2c 3d bf 49 ad 3d
       0.19795966 0.034621514 0.042117372 0.084613316
000160 3b 5f c1 bd 1d 9c 29 3e 50 61 ac 3d f1 c3 78 bd
       -0.09441992 0.16563459 0.084169984 -0.06073374
000170 47 25 0b 3e 97 82 d4 3b 7f 09 0a 3e 8c df 4b 3b
       0.13588439 0.006485294 0.13480185 0.0031108586
000180 1e 73 6e 3d c6 bd ee bb d7 82 74 bd 29 8b 2a 3e
       0.058215253 -0.0072858064 -0.05969509 0.16654648
000190 c3 a5 6c bd 6d 24 1d 3e 5e 91 9b 3d 32 07 b3 bd
       -0.05777527 0.15345927 0.07596086 -0.08741607
0001a0 75 ba 9f bd b2 ee ee bc 80 ef da b9 5a f3 b5 bd
       -0.07799236 -0.029166553 -0.00041758642 -0.08884306
0001b0 84 9c 07 3d cb e0 a8 bd df 28 80 bb 1e c4 d0 3d
       0.03310825 -0.08246001 -0.003911122 0.101936564
0001c0 b0 3b 01 3e e2 2b de 3d dc b4 3a 3d 82 a5 71 bd
       0.12620425 0.10848214 0.045582637 -0.05899573
0001d0 9f 68 10 3d fd 32 45 bb a5 3d 89 bd d8 15 13 3e
       0.035256024 -0.0030090206 -0.06701211 0.14363801
0001e0 d0 5d 9a bd 46 61 6d 3d b2 ad 82 3d 67 54 7d 3b
       -0.075374246 0.057954095 0.06380786 0.0038655044
0001f0 b7 26 0c 3e 4e 1a c2 3d 5f 0b 90 3d 4c ed 6c bd
       0.13686644 0.094776735 0.07033419 -0.05784349
000200 5d 9c c0 bd 1d 9e 5f 3d fa 2e 34 3d 4c 73 ba 3d
       -0.09404824 0.054594148 0.043990113 0.091040224
000210 35 76 c7 3d 3f f5 c3 3c db 2d 00 bd c2 44 68 bd
       0.09739343 0.023920653 -0.03129373 -0.056706198
000220 32 33 65 3d 75 bc 30 3d d4 6b ff 3c 8b 0f ff 3d
       0.055957027 0.043148477 0.031179346 0.124541365
000230 4e 6b c1 3d 37 26 a3 3b 06 2f 97 3d 9a c5 a1 bd
       0.09444295 0.004978921 0.07382016 -0.07899018
000240 6e 84 01 3d a5 2e c6 3d d0 c8 75 3c cf 71 fd 3b
       0.031620435 0.096768655 0.015001491 0.0077345143
000250 ce 1f ce bc 32 20 d8 bd 03 b6 86 bd df a7 8f bd
       -0.02516165 -0.10553016 -0.06577685 -0.07014441
000260 06 dc ca 3d b8 84 cc bd 58 9a 47 bd ec ce cf 3d
       0.099052474 -0.099862516 -0.048731178 0.10146889
000270 e6 38 a6 bd 4f bc a8 bd 1a ed 99 3d 54 c6 43 bd
       -0.08116321 -0.08239042 0.07515927 -0.047796562
000280 f9 a2 b7 bd 4b 54 22 3d b9 f3 81 3c 7e 74 01 3e
       -0.089666314 0.03963117 0.015863286 0.12642094
000290 7a 6f 8f bd 42 62 1f 3d f8 2f bc bd 0b 52 f9 3d
       -0.07003684 0.038912065 -0.09188837 0.121738516
0002a0 8b f6 6d 3d a0 04 c7 bd 2f 52 bb bc e1 80 bf bc
       0.05809645 -0.09717679 -0.022866337 -0.023376884
0002b0 45 46 33 bd 54 d1 fa b9 5b 39 5b 3d d1 a5 b9 3d
       -0.043768186 -0.00047839677 0.053521495 0.0906483
0002c0 19 5a be 3d f2 a2 21 bc 72 6e 69 bc b9 a9 a5 bd
       0.092945285 -0.009865509 -0.014247524 -0.08089013
0002d0 56 8a f3 bd 9e 6e e5 bd 51 34 c3 bd bf 00 52 bd
       -0.1189162 -0.11202739 -0.09531463 -0.051270243
0002e0 5c 68 e4 bd 61 23 74 3c 46 97 b4 3d 48 f1 bf bc
       -0.111527175 0.014901013 0.088179156 -0.023430482
0002f0 19 f9 50 bd 4d 34 6c bd 93 e6 ec bd b0 c4 d2 3b
       -0.051018808 -0.057667065 -0.11567416 0.0064321384
000300 62 cc 49 3d 33 fb 47 3d f8 53 a7 bd ac fd f1 3c
       0.04926718 0.048823547 -0.08170313 0.029539905
000310 4e 64 26 3d d5 72 66 3c 2a 93 17 3c a0 80 94 3d
       0.040623 0.014065464 0.009251395 0.07251096
000320 38 7c cd 3c df d8 91 3d 8e 2d 90 3d 50 0d ed bd
       0.025083646 0.07121443 0.07039939 -0.11574805
000330 05 b9 4a bd 88 6a dd bd 82 09 fd bd d5 fd 89 bd
       -0.049492855 -0.10811335 -0.12355329 -0.06737868
000340 2f b5 7b 3d bc 96 03 3d ae 80 05 3d 6e 31 04 be
       0.061452087 0.032126173 0.03259342 -0.12909481
000350 1f 20 41 3d 2e 51 80 bd 9b b7 2a bd 38 45 dc 3d
       0.047149774 -0.06265484 -0.041679006 0.1075539
000360 62 02 c1 bc 96 4a 9c 3d 80 35 fa 3b 24 7b a8 bd
       -0.023560707 0.07631414 0.007635772 -0.08226612
000370 59 b8 26 bc e0 60 88 3d 89 ef 93 bc 8d a4 ad bb
       -0.010175788 0.066591024 -0.018058555 -0.005299157
000380 b2 24 e3 bd e2 c3 c7 3d de db 83 3d 7a 97 cd bd
       -0.110909835 0.097541586 0.06438421 -0.100386575
000390 93 69 e7 bc b6 54 d8 bd a9 4e d1 bd 73 d5 5f 3d
       -0.028248584 -0.10563032 -0.10220081 0.05464692
0003a0 dc 0b 38 bd 3c 29 8d bc 6f d7 c0 3a 44 7f ee bd
       -0.044933185 -0.017231576 0.0014712642 -0.11645368
0003b0 2d 7d 0f be d5 83 08 be b6 c8 a1 3d e8 50 ed bd
       -0.14012595 -0.1333154 0.07899611 -0.11587697
0003c0 6d c9 f1 bc d0 9e a8 3d 7d 98 32 3d 5b 95 c2 bd
       -0.029514993 0.08233416 0.043602455 -0.095011435
0003d0 0a 66 b4 3d d2 a0 c5 3d b5 7f 9a 3d 9d 44 8a 3d
       0.08808525 0.09649815 0.075438894 0.06751368
0003e0 26 f6 02 be 55 96 d3 bc 3a e1 65 3d 27 ab bc 3d
       -0.1278921 -0.02582852 0.056122996 0.09212332
0003f0 8a 87 1f bd 21 8b f3 3b 05 04 ca bd 9d f2 a0 bd
       -0.03894762 0.007432357 -0.09864048 -0.07858775

actor.bias f4 [6]
000000 01 28 b9 bc 48 e5 87 bd 12 28 92 bb 2d bd 42 3d
       -0.022602083 -0.06635529 -0.004460343 0.047543693
000010 f8 53 7f 3d aa 06 00 bd
       0.06233594 -0.031256355

critic.weight f4 [1, 64]
000000 50 d6 ec 3c 30 9c 66 3c 4e 02 8a 3d 24 84 b7 bd
       0.028910786 0.014075324 0.06738721 -0.08960751
000010 60 12 b5 3d 3c 93 6f bd 68 d8 15 3d cc ff a7 3d
       0.088413954 -0.058490023 0.036583334 0.08203086
000020 60 7b 94 3d 52 25 d3 bd b0 6e ac bd 44 48 b6 bd
       0.072500944 -0.10309853 -0.084195495 -0.08900502
000030 80 b3 92 3c 84 2a b3 bd 12 b9 8d bd b2 99 e5 bd
       0.017907858 -0.087483436 -0.06920065 -0.11210956
000040 60 29 be 3d 06 f9 cd 3d 44 d2 6f bd d8 f6 e6 bd
       0.092852354 0.10057263 -0.058550134 -0.112775505
000050 00 a2 c9 3d 88 09 2a 3d e2 f7 c5 3d b8 ee fc 3c
       0.09845352 0.041512996 0.096664205 0.030875549
000060 e6 f7 fc bd 94 8e 0d bd e0 3b 18 bc 86 1e e5 bd
       -0.123519704 -0.0345598 -0.009291619 -0.111874625
000070 20 ad 24 3d 5c 91 7e bd 90 77 47 3c ca a6 c1 3d
       0.040204167 -0.062150344 0.012174502 0.094556406
000080 c4 39 69 3d 84 25 7c 3d f4 00 93 bd d8 be 23 3d
       0.056939855 0.061559215 -0.07177916 0.039976925
000090 a8 6a 00 bd fc 35 44 3d 40 cf e5 bb 18 a9 81 bd
       -0.031351715 0.047903046 -0.0070132315 -0.0633108
0000a0 48 e4 2e 3d 08 2f d5 3c c0 c3 a8 3d b8 db 25 bd
       0.042698175 0.026023403 0.08240461 -0.040492743
0000b0 66 49 bb bd 6c 7c f7 bd 6c 6b 7e 3d 00 b4 86 39
       -0.09144859 -0.120842785 0.062114164 0.00025692582
0000c0 94 f9 24 3d 14 5b d7 bd ec 24 3e bd 18 98 f8 bd
       0.04027708 -0.10515419 -0.04642193 -0.121383846
0000d0 f0 f3 77 3c f4 71 4f 3d 28 80 84 bc 18 00 de bc
       0.015133843 0.050645784 -0.01617439 -0.027099654
0000e0 80 27 e6 bb 84 27 e9 bd dc 57 e6 bd e4 a2 a5 bd
       -0.0070237517 -0.1138449 -0.112472266 -0.080877095
0000f0 aa d1 db 3d a2 2a a3 bd 58 93 2f 3d 00 41 69 bd
       0.107333496 -0.07967116 0.042865127 -0.056946754
