models/LunarLander-v2/actor_critic_20241114_012213.pth (torch, 23265 bytes, 7 tensors)

fc.0.weight f4 [64, 8]
00000000: 2e39 89bc 8e3e 013e 7899 683e 6123 6b3d
00000010: ae30 c8be aee6 483e da78 e03e 9c5f f83e
00000020: d4c4 2c3e 27fb 383e cdbd b9be fd48 56be
00000030: 942f b53e 85fe 833e d4a3 e73e 0d2c db3d
00000040: b11c 1a3e 2575 153e aa93 db3e 2d07 343e
00000050: 1e7f 24bb 2ab0 023b f767 403e 1631 323d
00000060: f879 08be e586 ec3e 131f 62be f79c c73d
00000070: 0912 49be c06a a93e 1e2c f13e 56b2 11be
00000080: d293 d23d da48 8c3e 2156 af3e d95a 90be
00000090: 220b 633d 89cd 8b3e fd48 7a3e b6e9 ce3e
000000a0: b14d 143e d75e 85bd a4d7 70bc 0f64 c2be
000000b0: bee5 ad3c 3585 44be 2da7 2d3e 05ec e73e
000000c0: 41a5 863e 4046 813c 233b e43e a2d9 bbbe
000000d0: 4959 a5be 1b06 19be 7bf3 ba3e 4b90 c23d
000000e0: 0836 65bd 6054 9a3e f159 c2bd 2898 06bf
000000f0: 6ed1 143e 21c3 0abe 43c3 f93d fa13 53bc
00000100: 774f d23c 8754 393d 706c 053e b644 5ebe
00000110: f798 933e 2e99 c23e ddbd 7a3e a335 aa3e
00000120: 980b 2b3e 68b7 b83e 1741 e1bd 2314 87be
00000130: daf3 9bbe ec63 c33d c940 673e ad2b d83d
00000140: 4379 e53d 42c0 db3e 6dec f3bd 4bcc 11bf
00000150: 156d 8bbe f643 343d a12b 49bd 80a7 5f3e
00000160: 2d19 78bd 6f98 56bd f983 c9be 3161 e8be
00000170: 5096 adbe dba1 2a3e 6bf4 56be b6e0 843e
00000180: 711c 9a3e 24f3 76be e5db 6bbe 9ec4 b53e
00000190: f064 a23e 9014 8a3d 627e 9bbe 5bb6 123e
000001a0: a10b 47be aca6 4e3e 93aa 2b3d aa62 bcbe
000001b0: bb22 58be 5900 febb 67cc ea3e f2b1 fa3e
000001c0: 950b 33bd 7bfb e73e 845a 573e a750 88be
000001d0: 881e 113e 329f 2fbe 76d9 943e 1d59 3f3e
000001e0: 4e34 b1be 3ba0 f63e 26f0 983e 4a6b 28be
000001f0: 33b3 b63e 62de 403e f50b 003e 261b dd3e
00000200: 5d46 9cbd 2280 843e 120c 553e b716 d5bd
00000210: 205f d0be 891a 8a3e e9b5 6fbe 41a1 09bd
00000220: ccdc 2d3d 22fe 653d a3c6 963e 8d36 e5be
00000230: 5def 9cbe bad9 7dbe b1b7 223e 2fb5 febc
00000240: 919b 963e 2262 c53e 7a0d 8f3d caa1 98be
00000250: 838f b83d 2c02 963e 21bc 473e 40f9 2cbe
00000260: 1d08 a3be db1c bb3e afdb a4bd a1de afbc
00000270: f6fb 36be d79c 7a3e 9831 6ebe 0a84 853e
00000280: e0ab ecbd cb19 44be daa3 4b3c 055f 8e3e
00000290: 2f6f 8b3e b510 2cbe 2baf 9a3c 6b67 cebd
000002a0: 0420 8cbe e647 0c3f b56b 9abe 940f 72bd
000002b0: ca1f 86be 71d9 8b3e 4d3b 963b d3ea 46be
000002c0: e68f 413e 9b6f 1dbe 0065 c03d fd71 89be
000002d0: 06bd 38be 254c 99be 4ba7 46be 7f99 a33e
000002e0: 4c32 2e3c 840c be3e 8437 22be bec3 f93d
000002f0: a3f0 00bd 3ef0 d53e cefc e03e a52c 253e
00000300: 1c93 b13e 4aa7 58be 1e0a c53e 415f 283d
00000310: 3954 973d cba6 91be 9c39 553e 13cf b4bd
00000320: 0951 433e c999 113f ed6c 4d3e eeb7 7cbe
00000330: 265d c8be cde2 74be 6dc8 d13e 102d e03e
00000340: b60b b8be 83ca e83e c14e 1f3e adca 7dbe
00000350: 44e7 92be 3b6a aa3e 429c 503e fad6 07bd
00000360: 21ca 92be 2621 843d 5e69 bfbe 4a3e f8be
00000370: aa0c a53e 2b04 9fbe 70f2 e13e 23b5 24be
00000380: db00 7dbe b7cb 793e 2577 683d a03d babe
00000390: 905c adbe 10c8 babe 97c3 67be 1cc2 c5bc
000003a0: 75d2 67be 7329 8fbe 1c28 d0bd 93ac 763d
000003b0: b067 e93d 81d9 babe b01a 59bb a439 af3e
000003c0: ab2a 3bbe fab2 883e ede1 003e 3b98 a4be
000003d0: aa0b 4fbd 36c5 843e f969 6dbd fe2e 9ebc
000003e0: 3e99 bd3e 15ad 2f3e ab7d b63e 577f ecbd
000003f0: 296a 39be a864 c7be 1db1 5a3e 7a5c 943e
-0.016750898 0.12621519 0.22714794 0.057406787 -0.3909964 0.19619247 0.43842202 0.48510444
0.16871959 0.18064557 -0.3627762 -0.2092628 0.35387862 0.2578012 0.45242178 0.107017614
0.15050007 0.14595468 0.42886096 0.17580862 -0.0025100182 0.0019941428 0.1878966 0.043503843
-0.13327777 0.46196666 -0.22082166 0.097467355 -0.19635786 0.33089256 0.4710397 -0.14228186
0.10282101 0.2739933 0.342454 -0.2819431 0.05543054 0.27305248 0.24441905 0.40412682
0.14482762 -0.0651223 -0.01469985 -0.37966964 0.021227714 -0.1919144 0.16958304 0.45297256
0.26297954 0.015780568 0.44576368 -0.36689478 -0.32294682 -0.14943735 0.36513886 0.09500178
-0.05595973 0.30142498 -0.09489811 -0.5257592 0.14533016 -0.13550998 0.12195446 -0.012883181
0.025672657 0.045246627 0.13029647 -0.21705899 0.2882764 0.38007492 0.2448649 0.33244047
0.16703641 0.36077428 -0.10998743 -0.2638255 -0.3045948 0.09540543 0.22583307 0.105552055
0.112047695 0.4292012 -0.11910329 -0.5695235 -0.2723166 0.044010125 -0.049113873 0.2184124
-0.060570884 -0.052391466 -0.393585 -0.4538665 -0.33903742 0.16663305 -0.20991676 0.2595269
0.30099824 -0.24116188 -0.23033102 0.3550157 0.31717634 0.06742203 -0.3036986 0.14327376
-0.1943803 0.20180768 0.04191072 -0.36794025 -0.21106999 -0.0077515063 0.45859072 0.48963886
-0.043712217 0.45309052 0.21030623 -0.26624033 0.14171803 -0.17150572 0.2907216 0.18686338
-0.34610218 0.4816912 0.2987072 -0.16447178 0.35683593 0.18834832 0.12504561 0.43184775
-0.07630608 0.25879008 0.20805386 -0.10404723 -0.40697575 0.2697337 -0.23409237 -0.03360105
0.042446896 0.056150563 0.29448423 -0.4476818 -0.3065137 -0.24790087 0.15890385 -0.031092254
0.29415563 0.38551432 0.06984992 -0.29810935 0.09011748 0.29298532 0.19505359 -0.16891956
-0.31842127 0.36545452 -0.08049714 -0.021468462 -0.17869553 0.24473892 -0.23261106 0.260773
-0.1155622 -0.19150464 0.012429202 0.2780687 0.27233264 -0.16803248 0.018882355 -0.10078319
-0.27368176 0.5479721 -0.301603 -0.059096888 -0.26196128 0.27314332 0.004584706 -0.19425516
0.18902549 -0.15374605 0.09394264 -0.2684478 -0.18040857 -0.29940906 -0.19399755 0.31953046
0.010632109 0.37118924 -0.1584149 0.12195538 -0.03147949 0.41784853 0.43942875 0.16130312
0.34682548 -0.21157566 0.3848428 0.041106466 0.07389111 -0.28447565 0.20822757 -0.08828559
0.19073881 0.5687528 0.20061083 -0.24679539 -0.39133567 -0.23914643 0.40973225 0.4378438
-0.35946435 0.45467004 0.15557386 -0.24784346 -0.28692067 0.33284172 0.20372108 -0.033164002
-0.28669837 0.06451635 -0.37385076 -0.48485023 0.32236224 -0.31057867 0.44130278 -0.16084723
-0.24707358 0.24394117 0.05675425 -0.3637514 -0.33859682 -0.3648076 -0.22633205 -0.02414041
-0.22638877 -0.2796131 -0.101639 0.060223173 0.1139673 -0.36494067 -0.003312748 0.34223664
-0.18277995 0.26699048 0.12586184 -0.32147393 -0.050548233 0.2593171 -0.05796239 -0.019309517
0.37030977 0.1715587 0.35642752 -0.11547726 -0.18106903 -0.38943982 0.21356626 0.28976804

fc.0.bias f4 [64]
00000000: ebf7 043e 339b 043f 1fd9 6d3e ac95 f43e
00000010: db1d 813e 8456 fd3e a1e7 5ebc 9655 d03e
00000020: b661 923e 91f6 9e3d c72f 893e fcdf c1bd
00000030: 4d06 cabc 7c5e 063f 5cad f03e bfe8 693c
00000040: e7ff 503b bbf6 c93b 7372 b23d 8dd1 893e
00000050: 38da 9abe b59b 8d3d 0ae9 023d dff7 0f3e
00000060: 6844 333d 7d2e 003e f887 f63d 4cb4 e03e
00000070: d5b0 963e ee4d 2b3e fe2c 173f 18c9 773e
00000080: a32c 383e 3dc7 0a3f 6728 e53e e478 0f3f
00000090: 173c 143e 77e2 093f 4d29 913e 5581 5c3e
000000a0: ea1a eb3e c442 47be ead1 913e 226f 95be
000000b0: 6fda b73e 1527 123e ae28 113e 5b4e 38be
000000c0: 4066 d43e d6d4 a43e 0fb3 0c3f ca9a e53e
000000d0: 0234 85bc 7d40 db3d 34fa a43b 7f48 053e
000000e0: e063 743e cbd5 d93e 7a41 c33e eac6 aa3e
000000f0: 1c54 d93e b417 0f3c 01e4 d43e b963 29bd
0.12985198 0.51799315 0.23227356 0.4777044 0.2521809 0.4948007 -0.013605029 0.40690297
0.28590173 0.077618726 0.26794264 -0.0946655 -0.024661208 0.5248792 0.47007263 0.014276682
0.003189081 0.0061634458 0.08713236 0.26917687 -0.30244613 0.069144644 0.031960525 0.14059399
0.04376641 0.12517734 0.12037653 0.43887556 0.29431787 0.16728947 0.5905303 0.24197805
0.17985778 0.54210263 0.44757387 0.5604384 0.14476047 0.5386118 0.28351822 0.21533711
0.4591897 -0.19459063 0.28480464 -0.2918635 0.3590884 0.14272721 0.14175674 -0.1799864
0.4148426 0.3219363 0.5496072 0.44844657 -0.01626015 0.107056595 0.0050347093 0.13015936
0.23866224 0.42545924 0.38135892 0.33354884 0.42446983 0.008733679 0.41580203 -0.04135487

fc.2.weight f4 [64, 64]
00000000: 981a b53d 43e8 fcbc ae0b 8ebd 12d5 a5bd
00000010: 0831 293d 5dca 11bd 9816 f4bc 18e9 14be
00000020: 4bfc c2bb 6234 f2bd 5d98 d23d 1f5d 5abd
00000030: 3090 eb3d 8e60 943d f55d 3dbd 8593 943c
00000040: 5842 a33d 617d e1bd 0fa2 1bbc 9dd6 773b
00000050: 6f64 243d da6b d7bd cfda 8e3d 9bf9 e3bd
00000060: 38a8 9d3d 6c3f 98bd f316 743c c980 a13d
00000070: 2d96 643d 5396 efbd 277e dcbd 907f b23c
00000080: dc40 a4bd 9657 b7bd 1d12 013d 5188 ac3b
00000090: efdf cbbb 922d 42bd fc14 0abd 8ebb 6b3d
000000a0: 74b8 203d e6bc 8ebc b26b b83d cfb6 ea3c
000000b0: 1acd 883d ecc4 733b 7755 3abd e64e ac3d
000000c0: 6d7c 923d 014d 12bc 93f2 0fb9 6a15 0d3d
000000d0: 166b d7bd e18b 463d bc02 8bbc 2e90 dabc
000000e0: c31c c83d 2e24 babd 6145 e3bd 626d 53bd
000000f0: 36b2 823d 1cb3 943d cd24 cabd 7de5 afbd
00000100: 8f48 343e 5c06 543e 44b1 793e 445d 0c3e
00000110: 29cb 983e e610 2c3e 6222 fa3d c1d6 0e3e
00000120: 22a9 3f3e 55a9 ad3e e362 933e e874 4b3e
00000130: 54da ae3a f43e a63e 46a8 943e 8229 983e
00000140: c790 083d ccf6 203d 7c1c 5a3e d05b 9f3e
00000150: d945 99bd 549f 7f3e 9dce 9f3b b05e 1b3e
00000160: 7e22 2d3e 329f 693e 58e1 943e 66c1 163e
00000170: 470c 823e 05fa 253e fc7f 333e d54d 333e
00000180: a23b c93d da45 633e 58d8 2d3e cff9 ff3d
00000190: f45a 483e adee 593e 7057 633e ce5c 213e
000001a0: 03f3 7b3e 68c4 27bc ce3a 243e 6ef8 7a3d
000001b0: 79e4 1f3e b370 9f3d be4a dc3d 3c92 303c
000001c0: 536e 803e 59a8 8b3d 1274 ad3d 063a 8a3d
000001d0: 6798 8e3e 2b94 373d 06af aa3e 29fa d33d
000001e0: 266a 803e c97d 9b3e ba9f 533e a122 613e
000001f0: 7734 363e dec7 613d d512 883e 4506 823e
00000200: 3f8d b33d 81e5 90bd 5172 e43c 65b9 e9bd
00000210: a880 313d 1066 c9bd 20f2 d93c c93e c4bd
00000220: cacf 47bd 80ac 89bb 1cfb 823d ab10 e7b9
00000230: fce4 d33d e41c e7bc fc01 60bc 4396 abbb
00000240: f494 4a3b b086 6fbd ca8e 383d 93b5 743c
00000250: a61a 233c de96 d5bd df5d 953b cdaf 56bd
00000260: eded 543d 56a2 b0bd fcb1 3abd 3162 99bd
00000270: 06eb c0bc f44d ab3d ca96 a83c 81bd efbd
00000280: c462 d23c 9f6c e93d 3131 85bc f817 883d
00000290: 9017 953c ca58 80bc b40b 00be 00a2 f63d
000002a0: 7bc9 01be 10e8 91bc b9d8 403d 84e5 813d
000002b0: fe73 ee3c 95a0 46bc 8235 a23d 8268 ffbd
000002c0: 39ca 2ebd 049f 9e3d 650b d7bd fdb5 8f3d
000002d0: d663 04bd a0ab 8e3d 7038 a93c 1903 72bd
000002e0: 7ab7 d2bd 1732 c13d b3cc ef3c 7075 da3d
000002f0: 2df3 1b3d 010e 6d3b bdb1 acbc f987 75bd
00000300: ceb3 f2bd 49bc 6abd efad 21bd f578 35bd
00000310: 4d9d 7c3c db4b 10bd 5fc8 5dbd 7b19 963c
00000320: 29d2 f1bd eed7 f7bd c45c 5dbd 765b bf3c
00000330: e422 713c 3451 77bd 470e eebd 0e0a 09be
00000340: bfba babd f6f5 593b 54c5 3c3d 7966 dfbd
00000350: c05b 493d eca3 4a3d 5737 80bd b706 b5bd
00000360: 5c8d 84bd 38df 08be 6bc9 f53b ecdc cb3d
00000370: 4c64 97bd 4567 75bd 206f 223c 90a0 e1bd
00000380: 2817 a9bd d875 cfbd e1d7 5d3d 4668 013d
00000390: a026 f0bc d06e 8abd c940 d03d 0fd7 de3d
000003a0: 8231 be3d 1656 eabd dcfc a4bd 58f1 883d
000003b0: 09c4 313d 717b 963c 8661 d5bd dcd8 8f3d
000003c0: fa56 b43d b9d1 23bc b882 e3bd a7ec 9dbc
000003d0: daa3 bd3c a8c7 8b3d 2f79 4b3d 3fff b93d
000003e0: ec67 99bd 4ac1 e6bd 5e64 be3d c463 b63d
000003f0: df3a a33d bad1 003d 2fc4 5dbd ec0b 493d
0.08842963 -0.03087247 -0.069358215 -0.080972806 0.041306525 -0.03559338 -0.02979593 -0.14542043
-0.005950486 -0.118263975 0.10282967 -0.053311463 0.11502111 0.07244979 -0.046232183 0.018136749
0.079716384 -0.11010242 -0.009499087 0.0037817128 0.040134843 -0.10518618 0.06975328 -0.11131593
0.07698101 -0.07433972 0.01489805 0.07885892 0.05580728 -0.11698594 -0.10766249 0.021789342
-0.080201834 -0.089522526 0.031511415 0.0052652736 -0.0062217633 -0.04740674 -0.03371142 0.057551913
0.03923841 -0.017424058 0.09004916 0.028651623 0.06679745 0.0037196232 -0.045491662 0.08413486
0.071526386 -0.008929492 -0.00013727909 0.03444425 -0.10518472 0.048473243 -0.016969077 -0.026680078
0.09771111 -0.09088932 -0.11097217 -0.051617987 0.06381647 0.07260725 -0.098703004 -0.08588693
0.17605804 0.20705551 0.24384028 0.13707453 0.298425 0.16803321 0.12213589 0.1394911
0.18716863 0.33918253 0.28786382 0.19868815 0.0013340213 0.32469904 0.29034632 0.29719168
0.033341195 0.039297864 0.21299928 0.31124735 -0.074840255 0.24963123 0.004876925 0.15172839
0.16907689 0.22814634 0.29078174 0.14722213 0.25399992 0.16208656 0.17529291 0.1751016
0.09825827 0.22194615 0.1697706 0.12498819 0.19565946 0.21282454 0.22201324 0.15758058
0.2460442 -0.010239698 0.16038057 0.061272077 0.15614499 0.077851675 0.107564434 0.0107770525
0.2508417 0.06819219 0.08469404 0.06749348 0.2785065 0.04481904 0.33336657 0.10350449
0.25080985 0.30369404 0.206664 0.21985866 0.17793451 0.05512225 0.26576868 0.25395408
0.08767175 -0.070750244 0.027886542 -0.11412314 0.043335587 -0.0983392 0.026604712 -0.09582288
-0.048782147 -0.004201472 0.063955516 -0.00044072172 0.1034641 -0.028212018 -0.013672348 -0.0052364185
0.0030911537 -0.058478057 0.04505805 0.014935869 0.009955084 -0.10429166 0.0045583094 -0.05241375
0.051984716 -0.08624713 -0.045579895 -0.07489432 -0.023549568 0.08364478 0.020579714 -0.11706067
0.02568186 0.11397671 -0.016258808 0.06645197 0.018199712 -0.015667338 -0.12504464 0.12042618
-0.12674515 -0.017810851 0.047081683 0.06342605 0.029108044 -0.012123247 0.07920362 -0.12471105
-0.042673323 0.077451736 -0.1050022 0.070171334 -0.032321773 0.069663286 0.020656794 -0.059084985
-0.102889016 0.09433382 0.029272413 0.10666931 0.038073707 0.0036171677 -0.021080846 -0.059944127
-0.11850701 -0.05730847 -0.039472517 -0.044304807 0.015418363 -0.03522859 -0.054146167 0.018322697
-0.11807663 -0.12101732 -0.054043546 0.023359042 0.014717791 -0.060380176 -0.11623817 -0.13382742
-0.0911765 0.0033258176 0.046086624 -0.10908217 0.049159765 0.049472734 -0.06260555 -0.088391714
-0.06472275 -0.13366401 0.0075008175 0.09954247 -0.07392177 -0.05991294 0.00991419 -0.11016953
-0.0825637 -0.10129899 0.054160956 0.031593584 -0.029315293 -0.06759417 0.10168607 0.10880863
0.092867866 -0.11442201 -0.080560416 0.06686658 0.043399844 0.018369408 -0.10418992 0.070237845
0.08805652 -0.009998732 -0.11108917 -0.019277884 0.02314942 0.06825191 0.049676117 0.090818875
-0.07490525 -0.11267336 0.09296487 0.089057475 0.07970213 0.03145001 -0.054142173 0.049083635

fc.2.bias f4 [64]
00000000: 9095 893d b8dd 1c3e 2908 4ebd adf7 5cbd
00000010: 812a 8d3d 8a7e e13d b9ec c5bc 3e87 9cbd
00000020: 19ab e33d c817 d0bc dcfb afbd 6e0d 813d
00000030: ce50 893e c71a 66bc 0a94 0fbd 0857 a53d
00000040: 7919 033d 4287 703e db1b 8bbd 85eb 87bb
00000050: d0b3 6c3e fa50 b8bd 8d01 8a3e acfc 873e
00000060: 9cdc 983d 30a6 f93c dc2f 463e d8ea 1dbd
00000070: afe9 1d3e 496c 08be 489b 4abd 920e b4bd
00000080: f124 8b3e 2c41 843e 5688 0fbc 77cb 7f3e
00000090: c396 303e 40a5 c1bc 7255 99bc 64d3 40bd
000000a0: d5fd 623e 7097 b5bd 9e0c bebd f25a c3bd
000000b0: 0375 8b3e c16e 133e 2c9b cd3d fbd6 933e
000000c0: ea88 5c3d 8407 583e dc36 7f3e c38f 9b3d
000000d0: 5da3 bbbd cd0c 403e 0bb9 98bd 128a 45bd
000000e0: 4976 773e b9d5 8f3e 3c1d 603e b4f4 f7bd
000000f0: f868 0a3e 0653 ae3b d9b8 88bd a169 d63c
0.0671798 0.15318954 -0.05030075 -0.05394714 0.068928726 0.110104635 -0.02416073 -0.07642983
0.11116619 -0.025401965 -0.0859296 0.0630139 0.26819462 -0.01404447 -0.03505329 0.080732405
0.032006714 0.23489097 -0.067924224 -0.004147949 0.23115468 -0.0899982 0.26954308 0.2655996
0.07463953 0.030474752 0.19354194 -0.038554043 0.15421174 -0.13322558 -0.049464494 -0.087918416
0.27176622 0.25830972 -0.008760532 0.2497996 0.17245011 -0.023638368 -0.018717501 -0.047076598
0.22167142 -0.08866775 -0.0927975 -0.09538831 0.2723771 0.14397718 0.10039362 0.28874955
0.05384151 0.21096617 0.24923271 0.0759578 -0.091620184 0.18754883 -0.07457169 -0.048227377
0.24166216 0.28092745 0.21886152 -0.1210722 0.13516605 0.0053199558 -0.06675882 0.026173415

actor.weight f4 [4, 64]
00000000: 865e 5f3c 1832 f7bc 9fd9 713d 6c7e a23c
00000010: 4174 1ebd edf8 c03c dd07 373d b7ac 113d
00000020: b5a3 5ebc feaf 183c 10b3 aebc 9728 da3d
00000030: 7056 ca3d b331 003e 019a b6bc caec d63d
00000040: 5ccf f8bd bb06 db3d 500e 923d 3c90 72bd
00000050: 442f 083e 1fd0 413c 4eb6 573d 09a0 e53d
00000060: 6674 013e d41f 693d a97d a2bd 5e0d a4bc
00000070: 336e 033e 300e 4cbd 009d 1dbc b4f3 c23d
00000080: 6163 993d 7a01 a53c d144 01bd 5314 bf3d
00000090: ae0f ebbc 1830 87bd 7f57 d63d bd63 f9bd
000000a0: f6c1 8c3d dc0f cd3d d3d5 a53b b675 ba3d
000000b0: b3f8 a0bd d3f8 953c a4c1 573c 5209 97bd
000000c0: ab2c d4bb 4f30 cbbd 2619 903c 07ab d9bd
000000d0: 3893 6b3d ab05 a6bd 4ea2 d23d d5f6 793d
000000e0: cac6 2dbd b24f ccbc 6cba bc3d 31cb 723b
000000f0: 4b0f 84bb b4f9 3f3d 1d09 b03c bea8 ba3b
00000100: 8319 f5bd 78fc 873d 7a2b a93d 0297 2d3a
00000110: 37cb c2bd fe0a 993d fc98 abbd f566 283d
00000120: 3f10 74bc 9a40 703d a0a3 af3d f12f fbbc
00000130: bc1c f4bb e574 473d 43b5 f8bc bdb5 823d
00000140: 9920 52bd 4c3f b93c bb3b 0b3d 92fb db3d
00000150: 0389 a5bd 5f4a 493d f5dc ab3d 62a0 8a3d
00000160: 5980 95bd 31ad fa3d de74 e2bd 10a5 8ebd
00000170: 4432 7c3d 3d1b 573d 4cd6 cfbd bee9 b13d
00000180: 0d52 f2bd c510 87bd 7ed4 fdbd 3fc2 a83c
00000190: fc88 ea3d 2857 53bd df33 c6bd f2fa d63d
000001a0: 6f00 863d c81c 61bc e58c aabd 20d9 153c
000001b0: 1a89 65bd ef97 8a3d 0509 473d c904 443d
000001c0: f745 e03d c102 973d 9ceb ebbd 3c39 25bd
000001d0: 7b24 49bd a8be 723d 779a 45bd 8554 03bd
000001e0: cadc 973d 2d5d 48bd 67b1 623d 7507 0f3d
000001f0: bfc7 edbd bda5 ebbd f7f3 f0bd 29f9 e43d
00000200: 5cdd a03d d260 d0bd d0f3 dcbd edb4 a7bd
00000210: 0141 84bd a5de 64bd d214 8d3d df9b edbc
00000220: 3bf2 703d 76dc d2b9 0875 f9bc 2631 26bd
00000230: 8dd8 ccbd 6e8c d9bd 50d4 053d 04ce 00be
00000240: 59eb 643d 63af be3d d84f 4abd af4f 51bc
00000250: 0483 13bd 3846 a33d 9485 9abd 705d 903d
00000260: 5c95 fdbd 1388 be3d dd2e 08bd a3e8 8c3d
00000270: faf3 ca3d 0cea 83bd 6413 d53d cc27 c0bd
00000280: dded 153d 7179 01be 7f5d a6bd 1f0b 54bd
00000290: 7c1f 77bc 847a d2bd ab7d f13d bb08 ce3c
000002a0: 3d70 d4bd 65a6 edbc 47b3 aabd 44f2 223d
000002b0: 3940 cfbc 1426 823d 8bed c0bd a764 853d
000002c0: ee57 97bd 008b 6e3d c9fe b13d 16fb f9bd
000002d0: f87a b3bd 289e 98bc c375 b4bd 6023 b1bd
000002e0: 0b95 da3b e23f a53d fd23 823c 08b6 823d
000002f0: 0e2e 01be 4112 efbc 1b85 a4bd cb38 50bc
00000300: 29e7 533d a3b1 dabd 2754 3ebc 0bc1 b43d
00000310: c3d0 103d 7bc2 38bc c5d4 93bc 1bc0 f1bc
00000320: 66d6 adbd 8b37 913d 1a27 aabd cf2c 01be
00000330: 3b8e 8d3d 0786 2dbd 73fe ff3d 361f d2bd
00000340: 1e84 16bd 9b5e e53d 26ad 733d c585 d03d
00000350: 9306 bebc 122c 633d 4118 e53c d576 bd3d
00000360: 1869 5c3d 7cb4 ce3d 4390 ff3d c0b8 a53d
00000370: 200c 04bd 11e1 c5bd 6083 b6bb 20f8 543d
00000380: 689c f43b bc9b 2bbd bcc1 de3d 6f78 c6bd
00000390: 928e 97bd a827 d43c 6b45 d3bd 2091 d8bd
000003a0: 6b32 6c3d 6f46 d8bc 2cf3 b5bd 501e 6abc
000003b0: a3a6 083c e34b b33c 97df bb3b 4d41 e33d
000003c0: 58b7 983d c144 b4bd 70f0 a13d c382 9abd
000003d0: cfbf 403c 60ba 94bd 82e0 a63d ec18 023d
000003e0: b1d9 f7bc 063e 90bc 5eff fb3c a4b8 6dbd
000003f0: abe4 613d 0432 edbb 22ea b1bd fabd 5a3d
0.013633376 -0.030175254 0.05904543 0.019835673 -0.038685087 0.023556197 0.044685233 0.035565104
-0.0135888355 0.009319304 -0.021325618 0.10652273 0.09879768 0.12518959 -0.022290232 0.10494383
-0.12148926 0.10694643 0.07131636 -0.059219584 0.1329928 0.011829405 0.052664094 0.11212165
0.12642059 0.05691512 -0.07934124 -0.020025905 0.12835006 -0.049818218 -0.009619951 0.09519139
0.07489658 0.020142306 -0.03155977 0.093300484 -0.028694 -0.0660097 0.10465907 -0.12177227
0.068729326 0.100127906 0.00506089 0.09104483 -0.078599356 0.018307125 0.013168726 -0.073748246
-0.0064750514 -0.099213235 0.017590117 -0.10628324 0.057513446 -0.0810655 0.102848634 0.061026413
-0.04242591 -0.024940345 0.09215245 0.003704738 -0.0040301434 0.046868995 0.02148872 0.005696385
-0.119677566 0.066399515 0.082602456 0.0006621928 -0.095114164 0.074728 -0.08378789 0.041113812
-0.0148964515 0.05865536 0.08576131 -0.030662509 -0.0074497145 0.048695464 -0.03035987 0.0638232
-0.05130062 0.02261319 0.03399251 0.107413426 -0.080827735 0.04914319 0.083917536 0.06768872
-0.07299871 0.12240065 -0.11057447 -0.06965077 0.061571375 0.05251621 -0.10148296 0.08687161
-0.11832056 -0.065949954 -0.12394045 0.020600436 0.11451909 -0.05159679 -0.096778624 0.10497083
0.065430515 -0.013739772 -0.08327655 0.009146005 -0.056038953 0.0676726 0.048592586 0.047856126
0.10950845 0.07373572 -0.11519548 -0.040337786 -0.049107056 0.059263855 -0.048243012 -0.032063026
0.07415159 -0.048916984 0.055344965 0.03491922 -0.11610364 -0.115062214 -0.117652826 0.11180336
0.07854721 -0.10174717 -0.10788691 -0.08188806 -0.06457711 -0.055876393 0.06888737 -0.02900499
0.05882476 -0.00040218577 -0.030451313 -0.040574215 -0.10002241 -0.10622488 0.03267318 -0.12578589
0.055888508 0.09310796 -0.04939255 -0.012775346 -0.036013618 0.079723775 -0.07545009 0.07049072
-0.12382004 0.09303298 -0.033247817 0.068803094 0.09909816 -0.06441125 0.10404089 -0.09382591
0.036603797 -0.12643982 -0.08123302 -0.05176842 -0.01508319 -0.10277274 0.117915474 0.025150647
-0.1037297 -0.029010007 -0.08334976 0.039781824 -0.025299178 0.06354919 -0.09420308 0.065133385
-0.07389818 0.05823803 0.086911745 -0.12206094 -0.08763689 -0.018630102 -0.08811524 -0.08649325
0.0066705993 0.08068825 0.015886301 0.06382376 -0.12615225 -0.029183509 -0.080332 -0.012708853
0.051734123 -0.10678413 -0.011616743 0.088258825 0.03535534 -0.0112768365 -0.018045792 -0.029510548
-0.08488159 0.07090672 -0.08308239 -0.1261475 0.06911894 -0.042364147 0.12499704 -0.10259859
-0.03674709 0.11199685 0.0594913 0.101817645 -0.023196494 0.05546195 0.027965667 0.09251181
0.053811163 0.100930184 0.124786876 0.08091879 -0.032238126 -0.09662069 -0.0055698603 0.051994443
0.007464934 -0.041896567 0.10876796 -0.0969094 -0.0740024 0.025897816 -0.10315975 -0.105745554
0.05766527 -0.026400773 -0.08884272 -0.014289454 0.008340511 0.021886772 0.005733441 0.110964395
0.07456845 -0.08802176 0.07907188 -0.07544472 0.011764481 -0.07262111 0.0814829 0.03176205
-0.03025517 -0.0176077 0.030761417 -0.058037415 0.055149715 -0.0072386283 -0.086872354 0.053403832

actor.bias f4 [4]
00000000: 6495 48bd 806c 85bd e0c2 703d 552b 1f3d
-0.048970595 -0.06514835 0.058779597 0.038859684

critic.weight f4 [1, 64]
00000000: 888d fa3c a84d abbe 74fd 7f3d aa67 623d
00000010: 95ab de3d 9421 aebe 4a93 e73d 92f5 c23d
00000020: 7473 97be fc08 933d 701d 24bd 02c4 02bc
00000030: 4a3f 83be 61fa 8b3d 1bf1 a93d e604 9fbe
00000040: e049 a33d d069 8ebe 6522 2e3d fd59 473d
00000050: 5d7f a0be 8cc1 02bc c793 7cbe e1da 91be
00000060: becc aabe de94 fe3b b4cb 63be 4e9b 613d
00000070: 9816 9ebe 84fc 223d 2836 b7bc 92c8 c3bd
00000080: 4104 95be fbe9 b2be 8aee b23d 7e1f b3be
00000090: 5652 b9be 34e9 113d d21c 233d cee3 8c3c
000000a0: 090d 7dbe b426 d03d 7775 e23d 7881 66bd
000000b0: 811d a9be a47b b5be a2d5 a3be 5158 80be
000000c0: 737a d03d e84d b1be bb59 8dbe 42e8 473d
000000d0: c8b9 d93d 89fe 92be bec2 513d cb21 d13c
000000e0: d1c2 8bbe 1030 afbe 0649 97be cebb 833d
000000f0: cac5 8dbe 60f1 3a3b e5a6 bf3d 6423 2c3d
0.030585065 -0.33457685 0.06249757 0.055274643 0.108725704 -0.34009993 0.1130739 0.09519495
-0.2958027 0.07179448 -0.040067136 -0.007981302 -0.25634223 0.06834865 0.0829794 -0.31058425
0.07973075 -0.27815104 0.04251327 0.048669804 -0.3134717 -0.0079807155 -0.24665748 -0.28487304
-0.3335933 0.007769211 -0.22245675 0.05507975 -0.30876613 0.0397916 -0.02236469 -0.0955974
-0.29104808 -0.34944138 0.08736904 -0.34984964 -0.3619563 0.03562279 0.039822407 0.01719847
-0.24712004 0.10163632 0.11057561 -0.056275815 -0.33030322 -0.35445893 -0.31998926 -0.2506738
0.10179605 -0.3462975 -0.2760752 0.048805483 0.10631138 -0.2870982 0.05121111 0.025528809
-0.2729707 -0.34216356 -0.295479 0.06432305 -0.27689964 0.0028525218 0.093580045 0.04202594
