models/LunarLander-v2/ppo_kl_20241114_012116.pth (torch, 23205 bytes, 7 tensors)

fc.0.weight f4 [64, 8]
000000 a3 c9 e9 be 1b 6b 8d 3e fd f9 78 be 39 c7 63 3e
       -0.4566165 0.27620777 -0.24314113 0.22243966
000010 85 44 52 bd 63 53 ec 3e bc 05 91 3e 2a b3 6f be
       -0.051334877 0.4615737 0.28324687 -0.2340819
000020 96 79 19 bc 67 8a bd 3e 67 9d ce be 2e 25 9b be
       -0.009367367 0.37019655 -0.40354463 -0.30301803
000030 97 6f 62 3d 5c 5a 8f 3e 0f 40 93 bd 4f 6a 3f 3e
       0.0552822 0.27998626 -0.071899526 0.18692897
000040 ea 87 78 3e b4 b2 2b 3e 75 85 23 be 12 fc 40 bd
       0.24270597 0.16767389 -0.15968879 -0.047115393
000050 93 fa e3 be 73 08 05 be a6 0f 37 be 2a 19 c5 bd
       -0.4452711 -0.12991504 -0.17877063 -0.0962394
000060 24 8f 54 3e d5 7a 38 bc bc dd 9a 3d 61 8d 5c 3e
       0.20757729 -0.011259754 0.07561824 0.21538307
000070 c7 31 82 3e 92 0c c0 3e b5 dc c4 3a e8 d6 51 bd
       0.25428602 0.3750959 0.0015019389 -0.05123034
000080 21 e6 01 3e af 91 aa 3e 87 6a c0 be 77 cc dd be
       0.12685443 0.33314273 -0.37581274 -0.43320057
000090 c4 1f e6 3a 0c 40 a0 be 25 9a 4d 3e ab 16 d8 3b
       0.0017557074 -0.31298864 0.20078333 0.006594499
0000a0 30 56 09 bd 4f 7b d7 3e 82 a3 ef be 02 8d f6 bd
       -0.03352946 0.42086264 -0.46804434 -0.12038614
0000b0 6b 6f a8 3e 7e 65 24 bd 13 3f a1 be 57 0b e6 3e
       0.32897505 -0.040135853 -0.31493434 0.44930527
0000c0 3a c8 0e be 17 8c 5f 3e f8 fc 62 3e 9b dd b6 be
       -0.13943568 0.21830784 0.22166812 -0.35715947
0000d0 af 11 71 be 44 85 b2 3c 6e 5b c2 3e 9d 1e f4 3d
       -0.23541902 0.021792062 0.3796038 0.119199015
0000e0 44 a5 55 be 23 0f f3 bc 36 4a d0 3d 21 1b dd be
       -0.20863825 -0.029670304 0.101704046 -0.4318476
0000f0 8d 4b 22 be bb 35 c3 be a9 35 8c 3e 98 87 a2 3e
       -0.15849133 -0.3812693 0.2738469 0.31744075
000100 d0 ad 00 bf f8 fd 12 3e 0b 82 a8 be 59 d7 20 3c
       -0.50265217 0.14354694 -0.32911715 0.009816968
000110 74 fd 84 3e 4a 3f 2d be b5 3b 81 3e 0b b5 ee 3d
       0.2597462 -0.16918674 0.25240865 0.11655625
000120 53 ef 4e be 20 da fe 3e b4 68 d0 bc 19 13 02 bf
       -0.20208482 0.4977579 -0.025440551 -0.5081039
000130 4d d5 e7 bd 2a 8b a3 bc 61 5f 70 3d 0f f0 3a be
       -0.11319981 -0.01996382 0.05868471 -0.18255638
000140 2c d2 63 3d f3 4d c5 3e dd c9 24 be 56 97 c6 bb
       0.055620357 0.38536033 -0.1609263 -0.006060521
000150 7c f0 ac be 87 46 a5 be 9d fe 69 3e 08 25 3c bd
       -0.33777225 -0.3228037 0.22851034 -0.045933753
000160 da 2c 8c 3e 7b d6 cb bd af 3c bd 3e 77 25 3d be
       0.2737797 -0.09953018 0.3696036 -0.18471323
000170 fc f1 d5 be 62 11 a8 bd 98 5b 0e 3d 1f d2 ca 3e
       -0.41786182 -0.082064405 0.03475532 0.39613435
000180 f2 01 a0 be d1 d2 89 be 22 03 20 3e da 5d 17 3e
       -0.31251484 -0.26918653 0.15626195 0.14781895
000190 31 85 c9 be 21 36 02 3e 34 2d 14 3e 69 5d 6e be
       -0.3935943 0.12715961 0.14470369 -0.2327782
0001a0 fb 40 18 be 14 94 b6 3d 38 aa 66 3c 61 a8 1b bf
       -0.14868538 0.089149624 0.014078669 -0.608038
0001b0 9d 6f 93 be e0 4f 56 3e e0 46 92 3d c7 ae 0a be
       -0.28796092 0.20928907 0.071424246 -0.13543235
0001c0 43 c2 53 be a4 8a 7c 3d cf ce bf be 8b 98 91 3c
       -0.20679574 0.061655656 -0.3746247 0.017772933
0001d0 63 49 7a 3d f2 0e a1 be 86 87 1c 3e e2 8e 94 bc
       0.061105143 -0.31456715 0.15286073 -0.018134538
0001e0 ed 45 6c be bb af 39 3e 08 6d 8d 3e ca c7 a6 bc
       -0.2307355 0.18133442 0.27622247 -0.020358939
0001f0 a5 c3 98 be 8f 52 df be ac c6 31 be d0 a2 4b be
       -0.29836765 -0.43617675 -0.17360944 -0.19886327
000200 a5 23 6b 3e ed 5c 0e 3f 09 48 9b 3e ee 37 b7 bd
       0.22962816 0.55610543 0.30328396 -0.089462146
000210 93 5d d6 be 6b 4b cb be da f6 92 3e 44 e4 94 3e
       -0.41868266 -0.39705977 0.28703958 0.29080403
000220 eb 44 96 3d cd 6c 13 3f c9 ac 97 3e 21 a7 df be
       0.07337364 0.5758789 0.29624012 -0.43682197
000230 4f 3a 93 bd 5d e9 34 be 94 52 19 3e e2 98 35 3e
       -0.07188856 -0.17667146 0.14972907 0.17734101
000240 4f 4e 88 3e 52 c4 79 bd d7 a8 a0 3e bc ec 98 be
       0.26622245 -0.06097824 0.31378815 -0.29868114
000250 2c 14 af be e7 5f 88 3d 58 7d c4 bd a9 38 92 bd
       -0.34195077 0.06658917 -0.0959422 -0.07139713
000260 af 8b bd 3c be b8 07 3f 67 31 bd be cd e3 b2 be
       0.023137895 0.5301627 -0.36951753 -0.34939423
000270 f4 5b 6e be 05 65 96 be e9 d9 d2 3d 23 9e 16 be
       -0.23277265 -0.29373947 0.10295469 -0.14708762
000280 d9 5a 06 be 4e 8b 92 3e b3 51 8c 3c d5 6d 0f bf
       -0.13120593 0.28621906 0.017128801 -0.56026965
000290 f2 8c 60 3d 3c c4 27 3e 50 fa 44 3e 88 fd ba 3d
       0.054821916 0.16383451 0.19236112 0.091303885
0002a0 05 ba a3 3e d7 3b bc 3e 5b 0c 30 bb 96 8c 0e bf
       0.3197786 0.36764404 -0.0026862833 -0.5568327
0002b0 a9 56 9e 3d 72 e2 a4 3d 07 05 c6 3e 0e 21 b0 3e
       0.07731373 0.080510035 0.3867571 0.3440022
0002c0 9d 9d 54 3e 19 71 24 bd e9 98 73 3b fb 35 19 3d
       0.2076325 -0.04014692 0.003717 0.037404995
0002d0 89 0c aa 3e 8c 66 4a 3e 88 70 66 bd 46 15 28 be
       0.3321269 0.19765681 -0.056259662 -0.16414365
0002e0 ab 5b 0e bc e4 6a d9 3e f5 20 95 bd 00 a8 c6 3d
       -0.008688848 0.42464364 -0.07281677 0.09700012
0002f0 a1 38 f1 be 93 79 48 be 43 8a 24 be d6 45 8d 3e
       -0.47113517 -0.19577627 -0.16068368 0.27592343
000300 1f bd 8b 3e bf d3 21 3f ad cf 13 3c 72 00 18 bf
       0.27292725 0.63213724 0.009021682 -0.5937568
000310 d5 d1 a6 3e ff 2e 9f 3d 06 df c2 3d b5 57 f7 3d
       0.32581964 0.07772636 0.095151946 0.12077276
000320 37 32 86 3c 59 5f 0a 3f 15 3a 95 be b7 a3 88 be
       0.016381366 0.5405174 -0.29145876 -0.26687405
000330 2b 4c 50 3e 53 b0 30 3e 60 0d 9b 3e 8a 28 05 bd
       0.20341556 0.17254762 0.30283642 -0.032509364
000340 d5 5e a9 be dd 5e c0 3e 45 06 cf be 36 2d 18 be
       -0.33080164 0.37572375 -0.4043447 -0.14860997
000350 e4 6d 5a be 64 2e 68 3b 19 d7 68 3e 80 49 e5 3e
       -0.21330982 0.0035428042 0.22738303 0.4478264
000360 27 69 cb bd 41 0a 24 3f cc 9b 1f 3e 80 af 32 be
       -0.099321656 0.64078146 0.15586776 -0.1744976
000370 5b 21 be be 8f 17 c3 be 9c 8f a4 3e c5 5c bb 3d
       -0.37134823 -0.3810391 0.32140815 0.09148554
000380 77 40 8f bc 82 7d 12 3f 15 8a 87 be 4c 63 17 bf
       -0.017486794 0.5722276 -0.26472536 -0.5913589
000390 48 de a0 be a9 35 c3 3e dd ce 00 3e d0 ee 3c bd
       -0.31419587 0.38126877 0.12578912 -0.046126187
0003a0 e0 64 35 be 78 ea bb 3e 25 1a 9b be eb 2a ac be
       -0.17714262 0.36702323 -0.30293384 -0.33626494
0003b0 89 86 d9 bc a0 ef 01 3e b2 f6 72 be c3 95 b8 3e
       -0.02655341 0.12689066 -0.2372692 0.3605176
0003c0 e8 68 ab 3e e2 b1 93 bd dc 5c d1 3c 22 cb 28 3e
       0.33478475 -0.07211663 0.025556974 0.16483739
0003d0 a2 d7 d1 be 66 72 91 be 28 5a d7 3e b7 d9 2f be
       -0.40984827 -0.28407592 0.4206097 -0.17172895
0003e0 8d 87 39 3e 3a 3a 8e 3d 36 91 bc bb 3f 79 c8 be
       0.18118115 0.069446996 -0.005754615 -0.39155003
0003f0 e0 61 01 bf 70 bc 85 bd 58 83 5a 3e 21 fc be 3e
       -0.5053997 -0.06530082 0.21339166 0.37301734

fc.0.bias f4 [64]
000000 49 b0 ee bd b0 31 9a 3d 7d bd 5a bd c2 6f 0a be
       -0.116547175 0.075290084 -0.053403366 -0.13519195
000010 03 d4 16 3c 0d 6e 3a 3e c9 a8 c6 3e 22 a3 13 3f
       0.009205821 0.18206044 0.38800648 0.57670796
000020 f4 2c 01 3e e4 e1 db 3e 4e 33 cf 3e 0f 8c b1 3d
       0.12614805 0.42945778 0.4046883 0.08669292
000030 c7 94 27 be ec ab 2b 3f 8d 36 47 b9 08 6c 4c be
       -0.16365348 0.67059207 -0.0001899844 -0.19963086
000040 c7 4a 05 3f bc a8 05 3f a9 41 f5 bd 40 33 eb 3e
       0.52067226 0.52210593 -0.11975414 0.45937538
000050 57 e9 8a 3e e0 56 98 3e 8e 4f 29 3e af 13 c7 bd
       0.2713115 0.2975378 0.16534254 -0.09720551
000060 5c 1c 21 3f 84 f3 16 3f b9 07 84 3e cf 48 25 3f
       0.629339 0.58965325 0.25787142 0.6456422
000070 ef 2a b6 3e a5 bd 0e 3f 0b 2a 59 3e d9 66 9e 3d
       0.3557963 0.55758125 0.21207444 0.077344604
000080 16 b0 4c bd 64 d9 e2 3d eb f8 a0 bd 49 d7 e4 3e
       -0.049972616 0.1107662 -0.07859977 0.446955
000090 8c 70 2b 3e f2 78 d4 3e 47 7b 15 3e 22 99 32 3e
       0.16742152 0.41498524 0.14597808 0.17441228
0000a0 16 b5 92 3e 07 61 9c 3e e9 bb 24 3e c4 8e 26 3f
       0.28653783 0.30542776 0.16087307 0.65061593
0000b0 00 50 80 3e bd 9b bc 3e 5b 4b 10 3d 7e db ce 3e
       0.25061035 0.3683757 0.035228115 0.40401834
0000c0 87 45 42 be 99 4e 0d 3f 74 36 22 3f b6 fd 15 3f
       -0.18971835 0.55198056 0.6336434 0.5859026
0000d0 0c 9e 8b 3e 6c b7 d4 3e 94 45 c4 bd 18 47 85 3e
       0.27269018 0.4154619 -0.095835835 0.26030803
0000e0 13 ff e1 3e 5d 37 04 3f c2 45 2c be bd de 23 3f
       0.4413992 0.5164698 -0.16823485 0.64011747
0000f0 6b 0f ba 3e 08 36 ab 3e 6a f5 b3 3e 66 52 16 3d
       0.36339888 0.3343966 0.35148174 0.036699675

fc.2.weight f4 [64, 64]
000000 29 79 f0 3d 28 d8 f2 3d 86 eb 8e 3d a0 d6 80 3d
       0.117418595 0.11857635 0.06978516 0.062909365
000010 f6 d7 31 3e d4 81 3a 3e 97 e1 03 3e df 47 a6 3e
       0.17367539 0.18213588 0.12879024 0.32476708
000020 6f 1a a4 3e 56 19 94 3e 3f 9f 8f 3e a2 c9 86 3e
       0.32051417 0.2892558 0.28051183 0.2632571
000030 1c 63 9a bc 2a e0 b2 3e 0a 1f 4b 3e a7 82 81 3e
       -0.018846087 0.3493665 0.19836059 0.25294992
000040 87 c5 16 3e 8b ba bd 3e a2 64 63 3e 0f f2 cc 3e
       0.14723788 0.37056383 0.22206357 0.40028426
000050 d9 e7 d7 3e 0a 05 c7 3e e9 48 3f 3d b8 87 97 3e
       0.42169073 0.38871032 0.046700392 0.29595733
000060 86 6e d1 3e cd c1 2b 3e 33 03 6f 3e f0 c6 97 3e
       0.40904635 0.16773148 0.23341064 0.29643965
000070 15 f3 49 3e 80 f6 32 3e 7c 88 02 3e e0 71 92 3e
       0.19721635 0.17476845 0.12747377 0.28602505
000080 62 91 80 bd 72 a4 54 3e 0d 23 ad 3d 37 3d 52 3e
       -0.062777296 0.20765856 0.08453951 0.20531164
000090 3c 49 90 3e d6 90 12 3e f0 40 72 3e 39 25 27 3e
       0.28180873 0.14313063 0.23657584 0.16322793
0000a0 e6 6f c6 3e 2d 40 83 3e d3 d4 a6 3e bd 6b 12 3e
       0.38757247 0.256349 0.32584247 0.14298911
0000b0 b0 eb 22 3e 93 e0 a3 3d 06 6a 9e 3e 9f 19 10 3e
       0.1591022 0.080018185 0.30940264 0.14072274
0000c0 06 0e fe 3d 98 6d 93 3e 84 54 ab 3e 43 a1 3d 3e
       0.124050185 0.2879455 0.33462918 0.18518548
0000d0 a3 3d 85 3e 68 c9 a1 3e 1d c3 19 3e 27 55 72 3e
       0.26023588 0.31598973 0.15015836 0.23665296
0000e0 b3 eb 67 3e 60 97 7a 3e 78 9f 58 3e 58 b9 bc 3e
       0.22648506 0.24471807 0.21154583 0.36860156
0000f0 b1 4e 91 3e 64 ee 84 3e c0 ab a4 3e 11 3a 9e 3e
       0.2838035 0.25963128 0.32162285 0.30903676
000100 1a b2 88 3e e8 3b 8d 3e 55 96 15 3e cb 49 6e 3d
       0.2669838 0.27584767 0.14608128 0.058175843
000110 b0 7f a1 3e 44 25 9f 3e 32 14 15 3e df f0 61 3e
       0.3154273 0.3108312 0.14558485 0.22064541
000120 43 90 ae 3e 64 80 84 3e b8 3e 70 3e ff 36 99 3e
       0.34094438 0.25879204 0.23461425 0.2992477
000130 04 a7 89 bd 9f 5d 86 3e 4b dc 29 3e d4 55 fb 3d
       -0.06721309 0.26243302 0.16587941 0.1227223
000140 ac b0 06 3e 4d c6 8a 3e 76 8b 98 3e 1b 92 24 3e
       0.13153332 0.27104416 0.297939 0.1607136
000150 e7 14 86 3e 6e 60 91 3e d7 62 42 3e 71 7b 8d 3e
       0.26187822 0.28393883 0.18983017 0.2763324
000160 7a 0f 4c 3e fb 52 27 3e 38 d4 43 3e b0 a8 95 3e
       0.19927779 0.16340248 0.19123924 0.2923026
000170 98 33 bc 3e 3c 2b b0 3e 2c 19 84 3e 0d 63 46 3e
       0.36758113 0.34407985 0.25800455 0.19373722
000180 07 cc 29 3e a0 60 04 3e fc 68 83 3e 5f 48 a9 3e
       0.16581737 0.12927485 0.25666034 0.33063027
000190 32 8d c3 3e e5 d5 79 3e 51 b3 32 3e c4 17 64 3e
       0.3819366 0.24398 0.17451216 0.22274691
0001a0 8f bd 8f 3e 97 93 ab 3e 67 d6 8a 3e 83 cd 6d 3e
       0.2807431 0.3351104 0.271167 0.23222928
0001b0 d0 50 9c 3e 2e 54 7c 3e 1c df b0 3e 99 c9 df 3d
       0.30530405 0.24641487 0.3454522 0.109271236
0001c0 98 79 c2 3d cd 49 54 3e 59 88 be 3e 83 aa a6 3e
       0.094958484 0.20731278 0.372134 0.32551965
0001d0 ff 10 3e 3e 25 1f 40 3e 47 42 6d 3e 5e 35 67 3e
       0.18561171 0.1876188 0.23169814 0.22578952
0001e0 1c 78 c9 3e a4 4c a9 3e 57 c7 22 3e 3e b9 2a 3e
       0.3934945 0.33066285 0.15896355 0.16672227
0001f0 aa 43 85 3e 43 f3 87 3e f7 d3 38 3e 67 3b 6d 3e
       0.26028186 0.2655278 0.18049608 0.23167191
000200 23 3b 0f bd a5 02 aa 3d c5 2d ce 3d bb 03 72 bb
       -0.034968507 0.08301286 0.100673236 -0.0036928493
000210 34 90 00 be 07 09 e2 3c d4 66 00 be 99 9e a1 bd
       -0.12555009 0.027592195 -0.12539226 -0.07891578
000220 78 03 e3 3c 07 2c d2 bd ac 8a 67 bd f2 2b 19 bd
       0.027711615 -0.10262304 -0.056528732 -0.037395425
000230 89 12 bb bb ec 5d aa bc 0b 0f 5c bc 68 32 81 3d
       -0.0057089967 -0.020796739 -0.013431321 0.06308442
000240 32 ff f2 bd 94 8a c3 3d f1 f0 a5 3d 93 d0 88 bc
       -0.11865081 0.09547916 0.081025966 -0.016701018
000250 7d 98 ae 3d d2 5d 09 be bd 12 e3 3b d1 68 0e 3b
       0.085251786 -0.13414696 0.006929724 0.0021729956
000260 c4 6c a7 bd 9f 0e cb bc d0 09 e0 bd 8c 59 18 3d
       -0.08175042 -0.024787245 -0.109393716 0.037194774
000270 68 cf 9a bd 78 4c b3 3d da 33 16 bb e9 9e 97 bd
       -0.07559091 0.0875482 -0.002291909 -0.074033566
000280 07 df e5 bd 06 4b 6a 3d 20 f0 ad 3d ea aa 54 bd
       -0.1122418 0.057200454 0.08493066 -0.05192081
000290 e1 af a4 bc 71 bc e0 3d d8 ad 88 3d 27 2b 0b be
       -0.020103397 0.10973442 0.06673783 -0.1359068
0002a0 9d ab d4 bd 94 44 8b 3c 2e 87 58 bd 18 8e 30 3d
       -0.10384295 0.017000474 -0.052863292 0.04310426
0002b0 4f 42 d0 3d 1b e1 7b bc f6 b9 6f bd 7a 74 af 3d
       0.10168897 -0.015373494 -0.058526956 0.08567138
0002c0 bb 7f a8 bc 08 e7 43 bd d0 1e 42 bb 20 70 d9 bd
       -0.02056872 -0.04782775 -0.0029620416 -0.10617089
0002d0 44 e7 71 bd 73 5b b6 3d fa aa 6d 3d 65 df db 3d
       -0.059058443 0.08904161 0.058024384 0.107359685
0002e0 f6 5f 0d bd 7d f4 a2 bc 5d 59 0b bd b7 7e 0b bc
       -0.034515344 -0.019891972 -0.03402077 -0.008514098
0002f0 f2 2e 1a bd 57 47 74 bc fb 04 a8 3d 07 c6 c3 bd
       -0.037642427 -0.014909587 0.08204075 -0.09559255
000300 1f 1c a6 bd af ae ef bd 44 50 90 bd 68 9d 80 3c
       -0.081108324 -0.1170324 -0.070465595 0.015700057
000310 6a fe 8f bd 2e a1 e5 bd 3f 27 55 bd b7 23 e8 3c
       -0.070309475 -0.11212383 -0.05203938 0.028337343
000320 28 16 b7 3c 9e 00 55 bc eb 8f 8a bc 3e d1 ed bd
       0.022349432 -0.013000635 -0.016914329 -0.116121754
000330 62 b9 ec 3d 9f 55 86 bd ec c0 1e 3d 57 36 46 bd
       0.115587965 -0.065593 0.038758203 -0.048391666
000340 3a 02 2b bb 03 4b c7 bd 86 7a 67 3d a8 e0 9d 3c
       -0.0026093856 -0.09731104 0.05651333 0.019272164
000350 f4 c2 bb 3c 37 10 ad bb 80 33 9c bb 96 cd a3 bd
       0.02292011 -0.005281474 -0.0047668815 -0.07998197
000360 5b 45 16 3c ca c1 2e bd 96 ef 8b 3d a6 a2 b1 bc
       0.009171809 -0.04266528 0.06832807 -0.021684002
000370 4e 7b 25 3d fb 02 c7 3d 01 07 3a bc b0 0d 92 3d
       0.040400796 0.09717365 -0.011354209 0.07131517
000380 b8 45 90 3d ba e6 08 bd a8 10 66 bd 70 8c ff bd
       0.07044548 -0.033423163 -0.05616823 -0.12477958
000390 ac 07 f8 bd 17 88 c0 bd 10 28 c2 3c 3f 93 13 3d
       -0.12110838 -0.09400957 0.023700744 0.036029097
0003a0 76 72 4c bd 36 ef 79 3d 3a 1f be 3d 35 92 1b 3d
       -0.049913846 0.061019145 0.092833 0.03798123
0003b0 e0 0b b5 bc 4c 0c 77 bd 34 4d ad bd 9d af 45 bd
       -0.022100389 -0.06031446 -0.08461991 -0.04826318
0003c0 92 12 ec 3d a8 f3 4f bd cc 7e d1 3d 54 48 04 3d
       0.115269795 -0.050769478 0.10229263 0.03229554
0003d0 31 63 8a bd 7a ad f3 bd f4 52 12 3c 54 cd 8a 3d
       -0.067572005 -0.118983224 0.00893091 0.067774445
0003e0 26 a1 17 3d 40 2e 11 3b b8 95 86 3c 44 e9 ee bd
       0.037018918 0.0022152811 0.016428813 -0.11665586
0003f0 93 57 ed bd ea 06 f1 bc 9c f8 1a bd a0 39 a2 3c
       -0.11588969 -0.029422242 -0.03783475 0.019802868

fc.2.bias f4 [64]
000000 db 05 aa 3e 47 53 2c 3e e2 85 00 3d dd 4e a5 bd
       0.33207592 0.16828643 0.03137768 -0.080716826
000010 fd ef 27 3c 64 ec 2f bd 72 9f 03 3d 59 8f 5a 3e
       0.010250089 -0.04295005 0.03213448 0.21343745
000020 b0 c8 e0 bd 41 aa a9 3d 8f 3f 90 3e 5e ea 9e bd
       -0.10975778 0.082844265 0.2817349 -0.07759546
000030 46 82 b9 3d f5 9e a1 3d cc 0b 51 3e 52 0a 2a 3e
       0.09058051 0.07891647 0.20414656 0.166055
000040 b9 95 d7 bd 1d 01 6c 3e 6f eb 3d 3e 45 5f a0 bd
       -0.10526604 0.230473 0.18546842 -0.07830671
000050 34 cf f3 bd f2 eb 85 3e 79 61 92 3d e6 c1 af 3e
       -0.11904755 0.26156574 0.07147498 0.3432762
000060 50 55 50 3d 72 e2 41 3e 37 4f 84 bd b1 04 24 bd
       0.05086261 0.18934038 -0.064604215 -0.040043537
000070 d0 a2 8d 3e 16 fa ad 3d 3c 81 c1 3e 9a 33 51 3e
       0.2766328 0.08494966 0.3779391 0.2042984
000080 50 18 b3 3e df d4 4f 3e 63 bc 9e 3b bd 99 6f 3e
       0.34979486 0.20296048 0.004844235 0.2339849
000090 89 f8 44 3e 0a 1f c2 3e 3e b0 b8 3e eb d3 49 3e
       0.19235434 0.37914306 0.36071962 0.19709747
0000a0 78 a7 5a 3e 6b 60 06 be ed 7d 0b bd 07 21 6a 3e
       0.21352947 -0.13122718 -0.03405564 0.22864161
0000b0 05 09 72 3d 7e 37 29 3e db d6 b9 3e 1c b7 a5 bd
       0.059090633 0.16525075 0.36296734 -0.08091566
0000c0 86 51 c8 bd 57 33 b7 3e dd 7c b6 3d af a2 90 3d
       -0.09781174 0.35781357 0.089105345 0.070622794
0000d0 91 59 0c 3e b7 89 cf 3d 0c 88 66 3e c7 63 95 3e
       0.13706042 0.10133689 0.22512835 0.29177687
0000e0 e0 49 4a 3d 59 29 0e be 59 b2 55 3e bd 8d c9 3e
       0.04938686 -0.1388296 0.20868815 0.3936595
0000f0 b2 5c a1 bd 8c f4 af 3e 88 ba 69 3e 09 d4 91 3e
       -0.07879008 0.34366262 0.22825062 0.28482082

actor.weight f4 [4, 64]
000000 56 83 5a bd f5 83 6a bd b3 df 97 3d 25 62 b4 bd
       -0.053347908 -0.05725475 0.07415714 -0.08807782
000010 ee 0e c5 bd 41 c0 ea bd ef 68 8c 3c 9d 7a 5f bd
       -0.09621988 -0.11462451 0.01713988 -0.054560293
000020 c9 f0 94 bc 17 80 d7 bd b0 ae 86 bd b7 e4 05 bc
       -0.018181222 -0.10522478 -0.06576288 -0.008172206
000030 d9 5b ec 3d bc cc ec 3d 02 44 fa 3c 3f 20 7d 3d
       0.11540956 0.115624875 0.030550007 0.06179833
000040 7f ee 13 3d 86 43 77 3d ec cc a8 bd ab ce e8 bd
       0.03611612 0.06036713 -0.08242211 -0.11367544
000050 28 33 f7 bd ba f7 a2 3d 7a ac a4 bd 36 f5 3c 3d
       -0.12070304 0.07957406 -0.0804071 0.04613229
000060 42 a1 e6 3c 75 d8 d3 bd cc 57 46 bd 46 50 ad bd
       0.028153066 -0.1034402 -0.048423573 -0.084625766
000070 20 ed 35 3d 87 e0 c5 3c 6a c1 42 bd 7b 23 36 3d
       0.044415593 0.024154915 -0.047547735 0.04446743
000080 77 7d 79 bc 98 18 86 bd 35 c3 16 3d c6 43 76 3d
       -0.015227667 -0.0654766 0.036807258 0.060123228
000090 90 dc 65 bd 70 53 13 bd 7e d7 da 3c 47 35 91 bd
       -0.056118548 -0.035968244 0.026714083 -0.0709024
0000a0 56 1a 91 bb 79 70 d3 3d 1e c8 89 3d ee d5 41 3d
       -0.0044281883 0.10324187 0.067276224 0.04732316
0000b0 d8 78 0e 3c 4d e9 9d bd 8f 8a 52 bc 02 f1 77 bd
       0.008695804 -0.07710514 -0.012850418 -0.060532577
0000c0 38 b4 17 3d 55 dc c7 bd 0f e8 f1 3d a7 4d b1 bd
       0.037037104 -0.09758822 0.1181184 -0.08657389
0000d0 87 62 af ba dd 23 f3 3d 28 c3 d1 bc 9b 0d 7f bc
       -0.0013380804 0.11872075 -0.025605753 -0.015567209
0000e0 59 96 60 3b 0b 6c c2 3d e9 91 94 3d 6d 6f 1b bd
       0.0034269302 0.09493264 0.07254393 -0.03794806
0000f0 6d c9 bf bc d3 05 01 3e 8b aa d8 3d be 37 5f 3d
       -0.023411477 0.12599878 0.105794035 0.05449652
000100 a9 e1 f9 3c e7 34 e9 3d b4 e1 98 ba e3 7a 5c bc
       0.030503111 0.113870434 -0.0011663944 -0.013457033
000110 2a cf a4 bc 48 09 4e bb 89 37 e2 3d d5 45 91 3d
       -0.020118315 -0.0031438638 0.11045749 0.070933975
000120 e1 42 a5 3d 3d 77 93 3d c1 38 7b bd e7 b4 50 3c
       0.08069397 0.07200477 -0.06133342 0.012738443
000130 3e d7 57 bd 88 74 61 bd d6 f4 c9 3d 3a fc 03 bc
       -0.052695505 -0.055042773 0.09861152 -0.008055741
000140 6d 54 cf 3d 69 95 cd 3d a0 d7 58 bd 0d 4c e2 bd
       0.10123525 0.10038263 -0.05294001 -0.11049662
000150 01 5f 52 3d d2 70 8b bd 1a 23 25 3d b0 39 e2 3d
       0.051360134 -0.06808628 0.04031668 0.11046159
000160 c5 ca 51 bd 45 95 f5 bb 86 21 a7 bd 26 a9 d4 bd
       -0.051218767 -0.007494601 -0.08160691 -0.10383825
000170 2d db b5 bd ee 67 40 3d 7c 36 0a 3d 69 fc 3a 3d
       -0.08879695 0.046974115 0.033743367 0.045650873
000180 31 2b 86 3b 51 dc d2 bd c8 97 b6 3d 31 39 11 3d
       0.0040945043 -0.10295928 0.08915669 0.035454933
000190 40 bb 3d 3d 03 8d 5a bd 37 7e 09 be 07 12 c2 3d
       0.046321154 -0.053357136 -0.13427053 0.09476095
0001a0 0c ab 7f bc 88 b9 99 bd ea 2a a4 bd 1f c9 31 bc
       -0.015604746 -0.075060904 -0.08015998 -0.010851174
0001b0 e5 b5 32 3c 59 bb 98 bd 48 2c e6 3b 23 0a 1a 3d
       0.010907625 -0.07457609 0.0070243217 0.037607323
0001c0 14 ad c5 bd bd c6 d9 bc fa 57 be bd 69 98 e3 3d
       -0.09652153 -0.026584024 -0.09294124 0.11113054
0001d0 c8 87 82 3d 91 bf f8 bd 76 ab c2 b9 45 37 56 3d
       0.063735545 -0.121459134 -0.00037130312 0.052298803
0001e0 93 06 a5 3d 01 6a 92 3d f7 3a ac 3d 3b 59 6d 3d
       0.080578946 0.07149125 0.08409684 0.057946425
0001f0 68 b8 d3 bc c9 bd a9 3b 38 0a ea 3c 9b 83 ce 3c
       -0.025844768 0.005180095 0.028569326 0.025209239
000200 19 b0 24 3d ed d7 81 3d 37 cc 96 bd 15 eb 82 3d
       0.040207002 0.06340013 -0.0736317 0.063924946
000210 ec 7a 57 3b 43 07 df 3d 37 dd 8c 3d 19 a3 14 bc
       0.0032879664 0.10890057 0.06878131 -0.009072089
000220 ab e6 a9 3d 40 b9 8e 3d ec 07 0b bd 03 35 b9 bd
       0.082959495 0.069689274 -0.0339431 -0.09043314
000230 b4 0a 6c 3d d9 2e 09 3e ac eb 9b bb 51 af d4 bd
       0.057627395 0.13396777 -0.004758319 -0.103850015
000240 cb ea d7 3d 50 0c 90 3b d5 46 ea 3d 8a 76 b4 bd
       0.1054283 0.004395999 0.114392914 -0.08811672
000250 68 f8 26 3d 1d 28 c1 bc 21 f6 51 bd 95 44 97 bd
       0.040764242 -0.023578698 -0.051260117 -0.07386128
000260 68 e1 00 3e 9d c7 82 bd 62 9f 06 3e 53 73 61 bd
       0.12585986 -0.063857295 0.13146737 -0.055041622
000270 58 44 ec bd e0 32 91 3d 42 1f ef 3d 9a 56 0a bd
       -0.11536473 0.07089782 0.11675884 -0.033773996
000280 5c e6 2e bd 72 ca ff 3d 55 18 b0 3d 07 ba 0f bc
       -0.042700157 0.12489785 0.08598391 -0.00877238
000290 38 12 cb bc 0c 3b 24 3c 1c 3f b3 3d b2 bb 95 bd
       -0.02478896 0.0100238435 0.087522715 -0.07311191
0002a0 69 9d 2a bd 63 78 c2 3c ac f9 d7 bd e2 63 b4 3d
       -0.041654024 0.023739045 -0.10545668 0.08808114
0002b0 3f c4 c3 3d 20 83 4d 3d a5 ee 8c bc 13 8e 8e bd
       0.09558915 0.05017388 -0.017203638 -0.06960692
0002c0 a3 2f 23 3d 6c 9d 52 3b e0 e7 8a bd 4f 95 96 3c
       0.03984035 0.0032137288 -0.06782508 0.018381743
0002d0 6c da a5 bc da 23 b1 3d a4 d5 87 3d 87 b4 01 3e
       -0.020245753 0.08649416 0.066325456 0.12666522
0002e0 83 20 9a bd c0 d3 af 3c 30 d3 1a 3d 34 09 12 3d
       -0.07525732 0.021463275 0.03779906 0.035653308
0002f0 25 e7 5e bd de a8 95 bc 4b e1 6d bc cf f3 fb 3d
       -0.054419655 -0.018268999 -0.014519046 0.12302362
000300 4e 02 ed bd d3 a0 0c 3c 2e aa b6 bc 75 d6 3e ba
       -0.11572705 0.008583265 -0.022297945 -0.00072798814
000310 0c ba 83 bd 3f 33 b6 ba fe a3 f6 bd 9c 29 9e 3d
       -0.0643197 -0.001390077 -0.12042998 0.0772278
000320 37 d7 d6 3d 44 5a ee bd b3 d6 89 3d 05 f9 79 bd
       0.10490268 -0.116383106 0.06730404 -0.0610285
000330 dc 8c 72 3c 32 f8 b9 bd 8f c3 63 bc 1b aa 82 bd
       0.014804091 -0.090805426 -0.013901605 -0.06380101
000340 e9 4e c2 3c 35 c4 ab bd ad 1c 1f bd 65 f0 da 3b
       0.023719268 -0.08387033 -0.038845707 0.0066814893
000350 ea 18 c4 3d ae e4 aa bd 9c c2 4d 3d 57 5f 84 bd
       0.095750645 -0.083443984 0.050234422 -0.06463497
000360 97 78 bb 3c dd 5a bc bc 2c 68 1f bd 89 f4 85 bd
       0.02288465 -0.022992546 -0.038917705 -0.06540782
000370 9f 8b 4e 3d d5 32 21 3d 5c 69 c2 3c 6d 57 86 bc
       0.05042612 0.039355118 0.02373188 -0.01639911
000380 9f 77 e6 3d 44 07 ff 3d e0 bf a2 3d a6 18 c5 bc
       0.11253285 0.12452558 0.079467535 -0.024059605
000390 06 ed df 3d 87 51 25 3d 48 ea b3 3c 53 06 00 3d
       0.109338805 0.040360954 0.0219623 0.03125603
0003a0 39 c7 db 3d a5 ab d2 bd 11 d9 e6 3d 83 83 e9 bc
       0.10731358 -0.10286645 0.11271871 -0.028505092
0003b0 d2 9d fd 3d 08 2a 81 3d 43 da 4e 3c ff 43 b9 bd
       0.123836175 0.06306845 0.01262528 -0.09046172
0003c0 a4 40 7c bd aa 1a 7d bd 60 20 98 3d 9b 0e df 3d
       -0.061585084 -0.061793007 0.0742805 0.10891458
0003d0 22 bb eb 3d 28 ef 2a bd e4 23 a9 ba 58 4b ea bd
       0.11510302 -0.041731983 -0.0012904373 -0.11440152
0003e0 00 aa 2f bd 35 70 aa 3d be ac d1 3d e3 f1 eb bc
       -0.042886734 0.08322183 0.10238026 -0.028801864
0003f0 59 9e d2 bd 9c 37 be bd e9 c9 e9 3c 98 35 02 3e
       -0.10284109 -0.092879504 0.028538661 0.12715757

actor.bias f4 [4]
000000 d3 58 8f 3d 73 64 b7 3d cc 3f 2e bd c2 69 ef 3a
       0.06999364 0.08954706 -0.04254131 0.0018265771

critic.weight f4 [1, 64]
000000 a8 44 9e be 32 ad af be f4 e4 5b 3c d0 90 ce bd
       -0.30911756 -0.34311825 0.013421286 -0.100862145
000010 b2 92 92 3d ff 11 b6 3d 74 2c bb 3c 14 9c bc be
       0.07156886 0.08890151 0.022848345 -0.36837828
000020 7d ed 32 3d fb 57 aa 3d 4b fb 98 be 04 bf 2b 3d
       0.043683518 0.08317562 -0.2987922 0.041930214
000030 27 d2 7a 3c 7e ef b3 3c cd d9 d5 be 7f f8 9d be
       0.015308893 0.021964785 -0.4176773 -0.3085365
000040 da d3 9c 3d 8c 65 c9 be 72 5a cf be a8 fd d6 3c
       0.07657595 -0.39335287 -0.40498692 0.026244
000050 47 98 78 3d fa de 99 be 7f 5e 1a 3d 1a ef a5 be
       0.060692098 -0.3005293 0.037687775 -0.32408983
000060 69 46 ce 3d e3 f3 af be 4e e1 29 3d 7f 1d a7 3d
       0.100720234 -0.34365758 0.041474633 0.08159923
000070 b0 2a b6 be f7 f6 4b 3d 43 bb ac be 15 26 c5 be
       -0.35579443 0.04979607 -0.3373662 -0.38505617
000080 19 92 d5 be a0 a5 af be 16 87 ee 3d cc b4 ca be
       -0.41713026 -0.3430605 0.11646859 -0.39591062
000090 fd f0 b8 be 8b 4d 9c be d5 b2 b3 be ab f2 c5 be
       -0.3612136 -0.3052791 -0.35097376 -0.38661703
0000a0 00 fe a0 be 8b f0 9d 3d 6a 66 d1 3c f7 bc bb be
       -0.31443787 0.077118956 0.02556153 -0.36667606
0000b0 af fd 14 3c 29 2a d5 be b2 bf a8 be ab a5 e8 3c
       0.009093686 -0.41633728 -0.32958752 0.02839931
0000c0 06 3a 5e 3d 38 18 9b be 3f e4 30 3d 9c 98 bd 3d
       0.054254554 -0.30291915 0.043186422 0.092576236
0000d0 5f 78 cc be b0 da bf 3d 9a 58 a3 be 0e de b2 be
       -0.39935586 0.09367883 -0.31903535 -0.3493504
0000e0 73 35 ef 3c 73 94 fd 3d bd b4 91 be 11 4e 99 be
       0.029200291 0.1238183 -0.28458205 -0.29942372
0000f0 3f 28 e3 3c 37 61 90 be 14 32 b1 be b0 b0 9c be
       0.027729152 -0.2819917 -0.3460852 -0.30603552
