models/LunarLander-v2/ppo_clipped_20241114_011947.pth (torch, 23255 bytes, 7 tensors)

fc.0.weight f4 [64, 8]
00000000: 767f 053f f77d ed3d fe59 ce3e 8832 a5be
00000010: a074 b9be 6836 8ebe 2474 9a3e 8565 ab3e
00000020: 4d02 e9bc c6d8 f8bd f2e9 073f 3ab0 d8be
00000030: 290f b9be d5e2 82bd 1842 3c3e f4ac ae3e
00000040: d748 a23e 58b2 b93e 4f5d 6b3e fd7d b1bd
00000050: 688d 47be 84d1 48be e7ee b93d 5bcf b03e
00000060: 4ee1 f1be d1ef a538 aeeb 02bf 03ff fdbd
00000070: 4182 763e 45b4 923e 051f f03c ff73 523e
00000080: dc1f b0bd f795 ca3e 1586 613e 66f6 0dbf
00000090: e0b6 8b3e 3c9d 5abe 31a0 e63e 66df 42be
000000a0: 6c51 f13d 1d87 89bd 91df a63d fd14 07bf
000000b0: 91b5 d1be 066d cabe 34d3 3dbe 9c8a d43e
000000c0: 3edb 2fbe b6d8 023d b459 773c 0c1e 0fbf
000000d0: e186 4e3e 0f22 3dbe cf29 bc3e 601d 9a3e
000000e0: 2091 023f c68a 0bbe 5deb a43e 14b6 20bd
000000f0: 2823 e0be fd35 bc3d e5de d93e 1723 d13e
00000100: 0e3e 82bd 625a 20bd 8c19 8fbd 35cf 393d
00000110: 4503 aebd e97c 933e 6c03 abbe 24c0 563e
00000120: 0578 dc3e e454 07bd d656 1c3e 2c45 06bf
00000130: 1d55 29bd 2255 90be 132a c83e e16e d73e
00000140: 39d5 86be 3ff4 8d3e c625 bf3c 18c0 dcbe
00000150: b4f4 683e 5349 873d f48b b83e f50b d9bd
00000160: 9c96 69bb 6dec 0b3e 51cf 3abd 1dde 0cbd
00000170: 5067 963d 1939 41be 7836 b8bb d9fa 753e
00000180: 0731 d1bc 1d41 493e 0b7a 223c 2c25 94be
00000190: db88 58be 93fc c3be 143f de3e ae09 74be
000001a0: 2b85 873e 472d 5abe df6b 0cbe da27 8d3e
000001b0: 18d6 dc3d 796c 7ebe 6139 9bbe 84d9 213d
000001c0: ecdd 22be 329b 213e bd8d bbbe 178e 80be
000001d0: 3a4a 9cbd 71ff 31ba f6bc 8f3e 035f 48be
000001e0: 8edc 2cbe 46b8 5abe d73b e4be 966c 533d
000001f0: 8176 923d dd7d 763e 21c8 473e 61e0 a23e
00000200: dda7 003e 326b 123f b0a4 793e 10fb a4be
00000210: abf0 273d 28a0 bcbe 04d4 043d 8a90 afbc
00000220: 39dd c8b9 b25f 3d3e 84aa 2f3d b282 8cbe
00000230: 5226 c2be 5142 b7bc 2a91 64bd 5b3e 30be
00000240: 424c 80bd 0ae8 9cbc 14ee 813e 42ed 01bf
00000250: e735 a3be 04ca f7bc d43f 003f 48d9 8c3e
00000260: 7598 69be e6a9 863e 5473 e8be bc85 2abe
00000270: c2ff c23e 2643 56be 5fd7 03be 5641 cc3e
00000280: a973 acbd fc37 b7bd a290 88be ca51 11be
00000290: ead8 c43e 862b 353e a821 9e3e d52b 623d
000002a0: 1d61 07bf efb9 073e 25a9 ecbe ad05 213e
000002b0: 12a9 3e3e 2e2b 413d a6f7 663d 4ed0 0dbe
000002c0: 2116 7c3e 8cc2 013f bcbf 2c3e 9eff ccbe
000002d0: 45f4 e53d 6be8 503c fc59 523d af09 fa3e
000002e0: 939c d33d 15bd 3e3d f955 183e be30 82bd
000002f0: 4b79 77bd 1d7b 6fbe 0f9f babd 935d 4cbe
00000300: e381 8f3e 15cf 9dbd 21d3 293e b377 e5bd
00000310: 771e 4bbe cb74 80be af83 373e bf85 463e
00000320: 1d56 43be 5ef2 fe3e 874d f2bd 7560 50be
00000330: 96d1 543e c99c 673d ba8a 35be 7138 5c3e
00000340: 31ab 843e 5c4b 05be fa50 f03e ed7a 3ebe
00000350: ae15 153c 34f4 433e 3ab0 723e 6e94 c7bd
00000360: c3f2 e8be eb31 5bbe 9bfa b4be fef2 a9bd
00000370: 3085 c33e ae32 963e e98b af3e a851 2abe
00000380: 88ba 113e 5c50 f03b 0a17 ab3e a795 f2bc
00000390: 4016 803e b846 d3bd 0236 5a3e 062d b2bd
000003a0: 9512 8d3e 7074 a13e 0586 84bd d871 fabe
000003b0: 6655 163e 4fec babe aea1 4e3e d88e e0bd
000003c0: 9d41 4cbd 1fb3 c03e e9db 923e 1316 9fbe
000003d0: bf2d 8cbe 8299 c9be 0e6e b13e 5503 53be
000003e0: f5a8 ee3e e039 d53e d587 893e e04e 853d
000003f0: f521 13be 351a 163d c2bc 853e 7d13 393d
0.52147615 0.115962915 0.40303034 -0.32265115 -0.3622179 -0.27775884 0.30166733 0.3347589
-0.02844348 -0.12150721 0.5309135 -0.4232195 -0.3614438 -0.06390921 0.18384588 0.34116328
0.31696197 0.36268878 0.22984813 -0.086666085 -0.19487536 -0.19611174 0.0907877 0.345332
-0.47242206 7.9124824e-05 -0.5114087 -0.12402155 0.24073125 0.2865316 0.029311666 0.20552061
-0.08599827 0.3956754 0.22023804 -0.554541 0.2728796 -0.21349043 0.4504409 -0.19030532
0.11783108 -0.06715224 0.08148111 -0.527664 -0.40958837 -0.39536303 -0.18537599 0.41512
-0.17173478 0.031944953 0.0150970705 -0.5590522 0.2016864 -0.18470024 0.36750647 0.30100536
0.51002693 -0.13627157 0.32210818 -0.039236143 -0.43776822 0.09189985 0.42552868 0.40847084
-0.06359492 -0.039148696 -0.069872946 0.045363624 -0.08496717 0.28806236 -0.33401048 0.20971733
0.43060318 -0.033039942 0.152675 -0.524493 -0.041340936 -0.2818995 0.390946 0.4207678
-0.2633455 0.27725407 0.023333441 -0.43115306 0.22749597 0.06605782 0.36044276 -0.10597984
-0.0035642749 0.13664408 -0.04560787 -0.03439151 0.07343924 -0.18869437 -0.0056217276 0.24021472
-0.025536073 0.19653745 0.009916793 -0.2893461 -0.21145956 -0.38278636 0.434075 -0.23831818
0.26468787 -0.21306334 -0.13713025 0.27569467 0.10783023 -0.24846067 -0.30317214 0.03951408
-0.15904969 0.15781859 -0.36631575 -0.25108406 -0.07631345 -0.0006790078 0.28073853 -0.19567494
-0.1688101 -0.21359357 -0.44576904 0.051617227 0.07151509 0.2407145 0.19509937 0.31811813
0.12564035 0.5719482 0.2437923 -0.32222795 0.041001003 -0.3684094 0.032428756 -0.021431226
-0.00038311796 0.18493536 0.042887226 -0.27443463 -0.3791986 -0.02237049 -0.0558025 -0.17211287
-0.06264545 -0.019153614 0.25376952 -0.5075265 -0.31877062 -0.030247696 0.50097394 0.27509522
-0.22812064 0.26301497 -0.45400488 -0.16652578 0.38085753 -0.20924053 -0.12875126 0.39893597
-0.08420498 -0.08946225 -0.26672846 -0.14191356 0.38446742 0.17692384 0.30885053 0.055217583
-0.5288256 0.13254522 -0.46222797 0.15724821 0.18619183 0.04716032 0.05638852 -0.13848993
0.24617817 0.5068748 0.16870016 -0.4003877 0.11228231 0.012750725 0.051355347 0.48835513
0.103325985 0.04656704 0.14876546 -0.06356953 -0.06041841 -0.23386808 -0.09112369 -0.1995757
0.28028783 -0.077055134 0.16584446 -0.112044714 -0.1983584 -0.25089106 0.17921327 0.19386958
-0.19075818 0.49794286 -0.118311934 -0.20349295 0.20783076 0.056546006 -0.17728701 0.21505906
0.2591186 -0.13017029 0.4693678 -0.1860158 0.009099407 0.19136125 0.23700038 -0.097451076
-0.45497712 -0.21405761 -0.35347447 -0.082983 0.38187551 0.2933554 0.3428643 -0.16632712
0.14231312 0.0073337983 0.33416015 -0.029612375 0.25016975 -0.10316223 0.21309665 -0.08699994
0.2755324 0.31534147 -0.06470875 -0.4891498 0.14681014 -0.36508414 0.20178863 -0.10964745
-0.04986726 0.3763666 0.28683403 -0.3107153 -0.27378651 -0.3937493 0.34654278 -0.2060674
0.4661328 0.41645718 0.26861444 0.06509185 -0.14368422 0.036646087 0.26120573 0.0451846

fc.0.bias f4 [64]
00000000: d7fc 36bd 6387 8ebd 5b13 ac3d c702 71bd
00000010: fd0e 903d c1df 153f 7fa9 ee3e 1ae5 6a3e
00000020: f91a 77be 3227 a23e 3cb5 febb 6e3e 213f
00000030: 44dd 84bd c549 a7be 53c6 2ebe d632 843e
00000040: 54af 093f 4b3c 783e 456d b8bb 2697 8c3e
00000050: bcb8 c53d 5571 193d 4a92 6b3e d0b4 143f
00000060: 3c6a 353d bc8f 923e 2c28 a73e 8415 793e
00000070: cc56 fc3e 0be6 d73e 99e7 683d 411a 053d
00000080: aa9a b33e f3b1 023e 8a9f 143f 6ff2 003f
00000090: 6cc9 d3bc 3475 1e3f 8876 29ba f00b db3d
000000a0: 1f52 123f a20e 0b3f 440a 1f3f 6598 7e3e
000000b0: f502 1d3e b5fe fd3e 8a5d 033f 05a9 46bd
000000c0: 7333 03be c20a 3f3e 5991 173f 229b 1c3f
000000d0: 7010 a63e 9978 ad3e 6c5f fcbd b4ac af3e
000000e0: b6a3 783e 434a 02bd bf8f 033f 4f04 093f
000000f0: 2bb4 903e 0ba5 913e a7c8 cc3e 7686 293e
-0.04467472 -0.06959417 0.08402129 -0.05884054 0.07034109 0.58544546 0.4661369 0.22938958
-0.24131383 0.3167053 -0.0077730697 0.62985885 -0.064875156 -0.3267347 -0.17067842 0.25820035
0.53783154 0.2424175 -0.0056282603 0.27459067 0.09654376 0.037461597 0.23005024 0.580884
0.044290766 0.28625286 0.32647836 0.24324614 0.4928497 0.42167696 0.056861494 0.03249574
0.35078937 0.12763195 0.5805594 0.50369924 -0.025852881 0.6189759 -0.0006464501 0.10695636
0.57156557 0.543192 0.6212504 0.24862821 0.1533316 0.4960839 0.51314604 -0.048501033
-0.12812595 0.18656448 0.5920616 0.61174214 0.32434416 0.3388107 -0.12322888 0.3431145
0.24281201 -0.031809103 0.51391214 0.535222 0.28262457 0.2844623 0.39996836 0.16555199

fc.2.weight f4 [64, 64]
00000000: 127e b8bd e459 573d 6084 ffbb 12e8 9bbd
00000010: 05d2 c4bc 177f c9bd 3d52 d13d a466 2fbd
00000020: 68ad 2f3d efa4 9abc 91a6 e93d c343 a03c
00000030: 2fdd a1bd 22a6 e4bd 7ca9 71bd cda1 053d
00000040: d132 05be c9a8 79bd 568d 00be 0b53 1d3d
00000050: 0075 9a3d f612 a0bc dfe6 4d3d e00e 133d
00000060: b5fc 423d 7d46 cabd c45b d63d cb72 3abd
00000070: 9ad6 663d da3a aabd 94ef a53d 528a d3bd
00000080: 8c0a ae3d 1e7f a93d dda0 22bd 9a07 bc3c
00000090: 4643 a6bd 5ac0 a8bd 19b5 f7bc 3fe0 92bd
000000a0: be5c 313d f7e3 95bd 6b8b 603d d03d 733c
000000b0: 9ccc ef3d 51be 19bc 114e e0ba 014e 743d
000000c0: a362 9f3d 424e f9bd 6f1f 4bbd 59d8 a13d
000000d0: 8a77 e53d 0f3d e53a d24c 803d f129 de3d
000000e0: 131e 14bd 1ab9 263c 3605 0cbd 230c fdbd
000000f0: ebca 853c fb65 433d bad9 c23c b08b 96bd
00000100: 92f1 643e 9e6a 933e 300c 7c3e 3e60 843e
00000110: e5d4 163e aba9 383e b92e e93d f34f b83d
00000120: 34db 0dbd 09f3 223e b463 b53d 109f 243e
00000130: 80f8 2c3e a4bc 513d 9052 ab3d e82d 383e
00000140: 2990 523e 258b ac3d 7983 703e 25ed a33d
00000150: 0c89 f53d 6f73 163d 0ca2 8c3e 8418 933e
00000160: 6243 a33d 123d 973e 20ba 973e 4977 5f3e
00000170: 2535 4e3e 3002 713e d5d0 733e 3c46 133e
00000180: aa2c 653e a760 ff3d 4fb8 a43e 5dc1 8a3e
00000190: f75e 5d3d 7c50 7d3e 0bca 7dbd 9d51 c43d
000001a0: 5afd 7a3e d127 a33e 7ca9 f13d 18fa 853e
000001b0: 60ed 7c3d 9c9c d63d fa46 923d 3c41 093e
000001c0: 6cc5 c33d d106 063e 0c2d db3d c049 933e
000001d0: 0e94 893e 4b48 5b3e b66c 633e bb25 9b3e
000001e0: d5ee 093e 1e43 0b3e a0cc e63d 8a97 d03d
000001f0: 4abd 953d 3d20 8c3e a788 743e a382 3c3e
00000200: 4f63 7d3e ea88 313e f2a3 173e 4fe9 ea3d
00000210: 3af6 413e 72ed 1a3e 47e2 153e 29b1 053e
00000220: 903c ba3d e657 fc3d adef 1e3e b448 643e
00000230: ad61 753d f4a3 873d 8f63 813d ef42 c33d
00000240: 1c4b 4b3e 43f4 c93d 1835 843e 277b 1c3e
00000250: e1e2 443d 2692 103e f7f9 7b3e 0653 2a3e
00000260: c9e0 bd3d 36df 353e 2120 733e 1f04 693e
00000270: 1bb6 6b3e 3ae6 a53e a151 2d3e db99 953e
00000280: fd61 9c3e dba6 343e 9749 163e a70e 713e
00000290: 00a2 ff3d 335d c73d c605 233e 496e 533e
000002a0: e00f 103e 6b8c 853e 9434 843e 66c1 8b3e
000002b0: 306e 823e 812d c53d 77a7 2a3e 8cfa 8e3e
000002c0: 26c9 063e c52b b03e b12a 823e 2ccb 933e
000002d0: f1c3 4e3e ce09 a33d b802 313e d18d d53d
000002e0: 05a7 8a3e e7ae 363e c21c dd3d db18 183e
000002f0: 947e cb3d 6634 2e3d 3010 803e f4b5 ef3d
00000300: 0b67 9fbd 5a69 a53c 6bf7 dd3c 2a00 143d
00000310: fd22 6a3c 6d36 1e3d 96fa 673d 746c 4abd
00000320: 2885 30bc a36a b03d 405c d03d 2892 e9bc
00000330: afd2 bb3c 50f6 2dbd bd82 35bd 258a d43c
00000340: 3d81 cdbd 41f5 9bbd c306 a4bd 4db6 273c
00000350: ca4c b2bd 333b 85bc 71a7 3a3d a540 df3a
00000360: 40eb 623b 717f aebb d471 053a 6649 aabc
00000370: 9600 a93d bd6e d7bd b793 e5bd fe33 f1bb
00000380: 8bd8 0dbc c13a 123d e242 bd3d 7e43 933d
00000390: 0f33 b2bd 1f2c e93d a4c5 313d bce5 25bd
000003a0: 0c6b dfbd c573 38bd 420a c6bc 12cd debd
000003b0: 7736 0e3d 030c e33c 290d 7abd a5c3 f83d
000003c0: e79a f5bd 6b0d b0bd 2591 c9bd a510 b83d
000003d0: 8d08 b5bd 2fd6 373c e092 743d f92e 063d
000003e0: 4a24 a73d 6df1 42bb 6f37 f8bd 2df6 f9bd
000003f0: 2a3a f2bd 564e 6cbd 2860 fcbd e006 853d
-0.09008421 0.05257596 -0.0077977628 -0.07612623 -0.024025926 -0.098386936 0.10220764 -0.042822495
0.042889982 -0.018877475 0.11408723 0.019563561 -0.079035155 -0.111645 -0.058999524 0.03262501
-0.13007666 -0.06095198 -0.12553915 0.038409274 0.07541847 -0.019540291 0.050269004 0.035902858
0.04760428 -0.09876726 0.10466722 -0.04551963 0.056357004 -0.08312006 0.081023365 -0.10329117
0.084981054 0.08276199 -0.039704192 0.022952843 -0.081183 -0.08239813 -0.030237721 -0.07171678
0.043301336 -0.073188715 0.05482046 0.01484628 0.11708948 -0.009383754 -0.0017113109 0.059644703
0.07782485 -0.121731296 -0.049590524 0.07902593 0.11204441 0.001748951 0.06264652 0.108478434
-0.036161494 0.010175968 -0.034184657 -0.123558305 0.01633211 0.047704678 0.02378546 -0.07350862
0.22357777 0.2879228 0.24614024 0.25854677 0.1472965 0.18033473 0.11385865 0.08999624
-0.034632877 0.15913023 0.088569075 0.16076303 0.1689167 0.051205292 0.08365357 0.17986262
0.20562805 0.08424977 0.23487653 0.08004216 0.1198903 0.03673118 0.27467382 0.2872964
0.079718366 0.2953878 0.2963419 0.21822847 0.2013746 0.2353599 0.23810132 0.14382261
0.22380319 0.12469607 0.32171866 0.2710065 0.054045644 0.24737734 -0.06196026 0.09585879
0.24510708 0.31866315 0.11799905 0.2616737 0.061749816 0.104790896 0.07142444 0.13403791
0.095591396 0.13088538 0.107019514 0.28767204 0.2687077 0.21414296 0.22209439 0.30302224
0.13470013 0.13599822 0.11269498 0.10185154 0.07311495 0.27368346 0.23880254 0.18409209
0.24744914 0.17337385 0.14808634 0.11470281 0.18941584 0.1512964 0.14637099 0.13055862
0.09093583 0.12321453 0.15521117 0.22293359 0.059907604 0.066230685 0.063178174 0.09534251
0.1985287 0.09861042 0.25821757 0.15281354 0.04806793 0.14118251 0.24607073 0.16633233
0.0927139 0.1776093 0.23742725 0.22755478 0.23018686 0.3240221 0.1692567 0.29218945
0.3054351 0.17641775 0.1467651 0.23540746 0.12482071 0.09734573 0.15920171 0.20647539
0.14068556 0.26083693 0.25821364 0.2729599 0.2547469 0.0962782 0.16665445 0.27925527
0.1316267 0.34408394 0.25423196 0.28865945 0.20191933 0.079608545 0.17286193 0.1042744
0.2708055 0.17840157 0.10796501 0.14853232 0.09936252 0.04253044 0.2501235 0.11704627
-0.07783326 0.020191837 0.027095517 0.03613297 0.014290568 0.038626123 0.05663546 -0.049419835
-0.010773934 0.08614089 0.10173845 -0.028512076 0.02292761 -0.04247123 -0.044314135 0.025944779
-0.10034416 -0.07615138 -0.08009102 0.010236335 -0.087060526 -0.01626358 0.04556984 0.0017032815
0.0034625083 -0.005325251 0.0005090509 -0.020786952 0.08252065 -0.105191685 -0.11209815 -0.0073609343
-0.008657585 0.035700563 0.092412725 0.071906075 -0.08701145 0.113853686 0.043401375 -0.040502295
-0.109090894 -0.04503228 -0.024174813 -0.10878958 0.03471991 0.027715689 -0.061047707 0.12146691
-0.11992436 -0.08596309 -0.09842137 0.0898755 -0.088395216 0.011220499 0.059710383 0.03275964
0.081612185 -0.0029745952 -0.12119948 -0.122051574 -0.118275 -0.057691894 -0.12323028 0.06495452

fc.2.bias f4 [64]
00000000: 2504 d1bd 2139 6d3e b154 623e 7cce 0dbd
00000010: 1c0c efbc b1ac a73d 2f9b 2d3e d13d 003e
00000020: cb66 373e 4eb9 c13a ec9c 2f3e e78d 3fbd
00000030: 8867 ba3d 281f 7c3e e6f8 f23d 9f55 823e
00000040: 235d 593e f748 c63c 0fa3 023e 6668 b13d
00000050: 8a8a bd3d 6cb3 923e 9441 193e 1651 283e
00000060: feb8 a03e 7915 803e f69a 353d f1c2 fdbc
00000070: 6719 0abe b8a0 a2bd 47d3 0a3e 46d2 333e
00000080: 4bd7 e93d e2a5 49bd 85e8 fe3d 9d08 713e
00000090: 1871 f9bd 8007 7a3e a15c fc3c 9c67 06be
000000a0: 0308 783e 54ce 6d3d bc47 923e f085 5d3e
000000b0: 2d9d 183e 059f eabd f538 9d3e 9fa8 453e
000000c0: f0a8 ab3e 188e 633e 2ffb 513e 4cfc 193e
000000d0: c39c 0fbe 0e55 e73d d11f 973e dae1 b43d
000000e0: 0691 883e e6fc 803e 673b 113d 7bae 8c3d
000000f0: 701c 703e fc2b 353d 9718 883e 2f43 e23c
-0.10205869 0.23166324 0.2210262 -0.034620747 -0.029180579 0.08187235 0.16953729 0.12523581
0.17910306 0.0014779957 0.17149705 -0.046766188 0.09101778 0.2462126 0.1186388 0.2545595
0.21226935 0.024204714 0.12757514 0.086624905 0.0925494 0.28652513 0.14966422 0.16437182
0.31391138 0.25016382 0.044337235 -0.030976744 -0.13486253 -0.07940811 0.13557158 0.17560682
0.11418017 -0.049230464 0.12446693 0.23538442 -0.12179774 0.24416924 0.030805888 -0.13125461
0.24221806 0.058058098 0.28570354 0.21633124 0.14903708 -0.11456112 0.30707517 0.19302605
0.33527327 0.22222173 0.20505975 0.1503765 -0.14024644 0.1129552 0.29516461 0.0883214
0.26673144 0.25192946 0.03545704 0.06869217 0.23448348 0.0442314 0.2658126 0.027619926

actor.weight f4 [4, 64]
00000000: af45 cbbd 4cb3 9e3d 8d9a 0539 c5ce f5ba
00000010: c696 ad3c a543 353d d8e3 20bd 1467 84bd
00000020: a396 abbb 268b 77bd 3865 df3d 6f7a c83a
00000030: 7d57 9c3d a467 a9bd 3210 643d adc6 073d
00000040: 5e64 0b3e 8fa5 0a3d 918c d1bd ff64 ed3c
00000050: 6d4a 02bd 0a32 b73d 8e5d e3bd 5c6b 44bd
00000060: f852 28bd 01cd 123d 2d4d e43b 1460 5cbc
00000070: 3fec 2d3d 398d d6b9 e9c9 94bc 950c 62bc
00000080: 9adb db3d 2590 a2bd ca60 013e ccf1 a4bd
00000090: bca7 2fbd e8e9 9dbc 7403 1b3c 7257 0d3d
000000a0: a359 e7bd 0ef5 57bd b2e5 42bd 55ea 903d
000000b0: d3e0 cebd 3b08 d3bd 5cad 2abc e5d4 183d
000000c0: 7e21 2abd b025 a33c 9455 ca38 94c3 a33d
000000d0: 7b53 dcbd b422 9d3c b72c cabc 3f60 003e
000000e0: b691 f7bb c1b2 6c3d ac0c 5f3d e04a 383d
000000f0: 99fd 05bc 6eed b53d bb76 c43d dc45 8c3d
00000100: 30e7 63bc 941f ee3a 3edd e1bd e803 e0bd
00000110: c655 8e3d 3a04 3abd 4a21 81bd 4616 a83b
00000120: 30e0 febd 9043 b7bd ec48 10bd 598f d43d
00000130: 9c3d 843c 9ee7 a33d 479c 923d e879 e4bd
00000140: f12b cb3d 1224 713c d258 393d 80a1 76bd
00000150: dc90 c83d 3369 fbbd 27f9 19bd d8c1 c33d
00000160: d30b a0bd 027c ae3d 94d1 32bc 918b c83c
00000170: 1bba b63d 219c 683c b062 ea3d 40af cebc
00000180: bab8 9dbd 2ab3 313d b9fb 633d 0a3e 89bc
00000190: 0025 c9ba 9858 e33d b0d1 48bd be56 d1bd
000001a0: 0bb3 0abd d429 18bd ec50 d73d 83da f3bd
000001b0: 8f40 e73d b1e1 da3c ab74 cf3d 40c4 b9bc
000001c0: 3ac3 7dbd e81c cf3d 84ee a5bd 4553 00bd
000001d0: 6f02 243d ced8 223b 4660 e3bd 5848 e0bd
000001e0: 9019 73bc c196 82bc 61ec afbc c52e 003e
000001f0: dc41 95bd 5cbe 943d 1db4 7dbd 81d6 e43d
00000200: 3952 73bd d03e e43c 7792 003e 200e 303d
00000210: daec 133d e0e9 21bd 4efe f13d 6bc4 ee3d
00000220: 125c 893c 5302 7dbd b276 2c3d cb82 923c
00000230: 1386 82b8 ed00 c8bd b630 183e 648c bf3c
00000240: 2794 043e dbb0 823d 5d4f c4bd 9d4a 1bba
00000250: 8a51 68bd c40b 953d 4ef3 c3bc 9012 b4bd
00000260: 5a90 b43d 615c 49bc d148 b73d 05d2 84bd
00000270: c724 cd3d 7770 293d 705c 0fbd 4dad aebd
00000280: 8bad 19bc cb2f 8a3d f31b 7e3c 4816 b0bd
00000290: 3cfb 04bd d0f3 edbd 2ca3 89bd f19c a23d
000002a0: 1621 fcbc b60e 87bd 0e77 773d bbfe a63d
000002b0: 07cb 403d d930 093d 6f7f aa3d eac6 503d
000002c0: 0f2e 86bb 488a 4e3c e8b9 c8bc 240f 98bd
000002d0: 87ce 96bc a56a 23bd 5f52 98bd ab68 a1bb
000002e0: 2e2d 90bd 8880 a0bc cdad a43d d96d d1bd
000002f0: 95cb 97bc ae87 c1bd 1ecf c5bd 8b5c 2ebd
00000300: 73a7 06bd c2fa 763c c2f6 983c f4a5 56bd
00000310: 2afc 8ebd 841a 91bd d4d6 883d adec 09be
00000320: 7e5d aabd c94d 233d 2d93 8dbd f1ca 9bbc
00000330: 3417 c73d 8bef 933c df48 013d e4cb f53c
00000340: 7a55 4fbd cb53 023e 0594 723d c4fd c0bd
00000350: eda8 e2bd 405a 4f3d 52b1 a33c 39d0 1ebd
00000360: 5904 03bc 1f75 92bd 9f48 553d d8f2 c5bd
00000370: 7089 9a3d 9aaf 553d 790c 03be 9727 60bd
00000380: bf44 77bd aeb0 ab3d 38ea 08be 2401 56bd
00000390: f2f9 903d 667d e03d 122b e13d 0b12 a1bc
000003a0: cb05 b43b a2ee db3d a02c ccbd 4dcc 6f3c
000003b0: ae92 67bd b2f3 8ebd a90b 74bd 456d 5e3d
000003c0: f2b8 b83d 3717 a33d a403 aa3d 0257 563c
000003d0: 53f1 893d 0b8b 933d cd2a c53c c6af e1bd
000003e0: 23b8 c03c 9e24 06be 7e06 21bd ab50 00be
000003f0: a540 193d 5c6a d33d d0f2 1cb9 9ddf 8dbd
-0.099254005 0.07749042 0.00012741443 -0.0018753639 0.021190058 0.044253964 -0.03927979 -0.06464973
-0.005236463 -0.060435437 0.10907978 0.0015295277 0.076338746 -0.08271721 0.055679508 0.033148456
0.13612506 0.033849295 -0.10231889 0.028978823 -0.03180926 0.08945091 -0.111018285 -0.04795395
-0.04109475 0.03584004 0.006967208 -0.013450641 0.04246163 -0.0004092248 -0.018162685 -0.013796945
0.10735245 -0.0793765 0.12634578 -0.080539316 -0.042884573 -0.019276574 0.0094612725 0.034507222
-0.11296394 -0.052723937 -0.047582336 0.07075945 -0.101014756 -0.10304304 -0.010417309 0.037312407
-0.041535847 0.019915432 9.648051e-05 0.07996288 -0.1075811 0.019181587 -0.024679525 0.12536715
-0.007555212 0.05778766 0.054455444 0.04499328 -0.008178138 0.08883177 0.095929585 0.06849262
-0.0139101 0.001816737 -0.11028527 -0.10938245 0.06949954 -0.045414187 -0.063051775 0.0051296083
-0.12445104 -0.089484334 -0.035225794 0.10378904 0.016142659 0.08003162 0.07158714 -0.11156064
0.099204905 0.0147180725 0.04525072 -0.060212612 0.09793255 -0.122759245 -0.037591126 0.09558457
-0.07814755 0.08519746 -0.010914225 0.024480613 0.089222156 0.01419738 0.114446044 -0.02523005
-0.077012494 0.043383755 0.055659983 -0.016753215 -0.001534611 0.11100882 -0.0490281 -0.10221623
-0.033862155 -0.037149265 0.105134815 -0.11906912 0.112916104 0.026718946 0.101296745 -0.022676587
-0.06195376 0.10112935 -0.08102134 -0.031329412 0.040041383 0.0024848464 -0.11102347 -0.109512985
-0.014837638 -0.015941026 -0.021475019 0.12517841 -0.07287952 0.07262871 -0.061939348 0.11173726
-0.059404586 0.027861983 0.12555872 0.04298222 0.03611455 -0.03952968 0.11816083 0.116585575
0.016767535 -0.061769795 0.042105384 0.017884633 -6.223856e-05 -0.097658016 0.14862332 0.023382373
0.1294714 0.06381389 -0.0958545 -0.0005923899 -0.056718387 0.07277635 -0.023919728 -0.08792603
0.088165954 -0.012290091 0.089494355 -0.064853705 0.1001678 0.04136702 -0.035000265 -0.08529148
-0.009379755 0.06747397 0.015509593 -0.08598 -0.03246616 -0.11618769 -0.06720576 0.079400904
-0.030777495 -0.06594603 0.060416274 0.08154055 0.047068622 0.03349385 0.08325087 0.05097095
-0.004094846 0.012606211 -0.02450271 -0.07424763 -0.018409027 -0.039896626 -0.07437586 -0.0049258075
-0.07039867 -0.019592538 0.08040962 -0.1022603 -0.018529693 -0.09449707 -0.09658645 -0.042568725
-0.032874536 0.015074434 0.01867235 -0.05240436 -0.0698169 -0.070851356 0.066816 -0.13469191
-0.083186135 0.039869104 -0.06912837 -0.019017668 0.097212225 0.018058559 0.031563636 0.03000445
-0.050618626 0.12727277 0.059223194 -0.09423402 -0.11067376 0.05062318 0.019982014 -0.038772795
-0.007996642 -0.07151245 0.05207121 -0.096654594 0.075457454 0.05216942 -0.12797727 -0.054725256
-0.060368296 0.08383308 -0.13370597 -0.05224718 0.07078923 0.10961418 0.10994543 -0.019661924
0.0054938546 0.10738875 -0.09969449 0.014636111 -0.05653637 -0.06980075 -0.059581432 0.054303426
0.090196505 0.07963412 0.08301476 0.013082268 0.06735482 0.07204255 0.02406826 -0.11019854
0.023525303 -0.13099906 -0.039312832 -0.12530772 0.037415165 0.10323021 -0.00014967774 -0.069274165

actor.bias f4 [4]
00000000: f46a a9bc eba3 083d 6593 df3d 6967 c53b
-0.020680882 0.03335945 0.10916785 0.0060242903

critic.weight f4 [1, 64]
00000000: 2899 a73c b37e 98be e6bb 9fbe 5686 ab3d
00000010: ccac 3f3d c3dc ce3d 2a91 8bbe 41bf c1be
00000020: 0c39 acbe 5a23 983d fa9f a8be f192 833c
00000030: 28fa cb3d c3e6 a4be c723 9abe 1047 b8be
00000040: 56d0 7dbe a011 ae3d 56d3 98be 6b52 8a3d
00000050: 01dd af3d bfe5 b5be 3476 96be 9689 d8bd
00000060: a697 99be 61f1 bfbe 3e9d 4f3d 59a5 fa3c
00000070: 8483 983d 5c93 ab3a 2d02 8fbe b9e1 c3be
00000080: 1756 81be fc15 283d 8468 acbe ce0f c8be
00000090: b26e 8c3d e265 80be 6cf4 843c e51e 0f3d
000000a0: f391 8fbe 1369 943d 1a2b 9fbe e665 acbe
000000b0: b3f9 86be be4e 143d 11b3 9fbe 3a6d bbbe
000000c0: 809b 86be 9ab5 b7be 255e 87be f87d 65be
000000d0: 769c 193d e26b acbe 48eb 94be b61c b9be
000000e0: e02d 88be 8eb6 82be 22ae 163d 0fb1 483d
000000f0: a9a2 b8be fadb ac3d 6ea7 bcbe d554 3f3d
0.020458773 -0.29784164 -0.31198043 0.08375232 0.04679565 0.10100701 -0.2725919 -0.37841228
-0.33637273 0.07428618 -0.32934552 0.016061278 0.09959823 -0.32207307 -0.3010542 -0.35991716
-0.24786505 0.084994555 -0.29848737 0.06754001 0.08587075 -0.35526845 -0.29387057 -0.105731174
-0.2999851 -0.37488845 0.050687067 0.030596422 0.074469596 0.0013090181 -0.27931347 -0.3825815
-0.25260994 0.04103659 -0.3367349 -0.39074558 0.06857051 -0.2507773 0.01622983 0.034941573
-0.28041038 0.07246604 -0.3108757 -0.33671492 -0.2636238 0.036207907 -0.31191304 -0.3660677
-0.26290512 -0.35880738 -0.26439014 -0.22411335 0.03750273 -0.33676058 -0.29085755 -0.36154717
-0.265975 -0.25529903 0.03678716 0.04899698 -0.360616 0.08440395 -0.3684649 0.04671176
