models/LunarLander-v2/reinforce_20241114_012324.pth (torch, 23235 bytes, 7 tensors)

fc.0.weight f4 [64, 8]
0.18101645 -0.14656335 -0.21407165 0.22200815 0.057862356 0.043238245 0.20847674 0.21791756
0.30112585 -0.15751305 0.21692334 0.1777111 0.34791172 -0.12988833 0.3429414 0.08216905
0.18422882 0.19713712 0.2846357 -0.082238235 0.22097985 -0.22478203 -0.12762079 0.26727548
0.17631567 0.35984555 -0.0065213167 -0.08903036 -0.15256558 0.29764593 0.26690483 -0.26844433
-0.26741445 -0.08747543 -0.19099459 -0.0011714027 0.14595452 0.25754458 -0.04879548 0.29572484
0.15855046 -0.21449752 0.23965985 -0.04614698 0.15367104 0.35521626 0.026962064 0.100968264
0.29707378 -0.19921228 0.18237983 -0.15437026 0.07973031 0.04551531 0.30752897 0.21349333
0.17269126 0.15547869 0.04574925 0.31755143 0.02497207 0.15819773 0.10134948 -0.23291594
-0.24902578 -0.089583635 -0.258894 -0.20415041 -0.028839162 -0.06622471 0.33194208 0.1695531
0.28413308 -0.1030751 0.1552441 -0.23806156 -0.33321917 0.07318958 0.2293494 -0.25167233
0.07732574 -0.2960684 0.27372834 -0.097906835 -0.07157234 -0.07772057 0.17827164 -0.2593876
0.016188528 -0.10017831 -0.03816801 -0.15984763 0.05926013 0.25915328 -0.052674346 -0.13653858
-0.23106454 -0.17372502 -0.29265532 0.05936129 -0.20796156 -0.09133222 -0.036909997 0.17398238
0.13335462 0.05835003 0.08983866 0.18425481 0.2763047 -0.20969224 0.35037893 0.022064501
-0.14149791 0.26592007 0.33974823 -0.14667517 0.06712999 0.18142682 -0.15803032 -0.21098328
-0.29817075 -0.2375862 0.26186356 -0.03915173 -0.09614066 0.31980738 -0.29502738 0.15013349
-0.2285906 -0.1654476 -0.2996732 -0.29052457 0.3673895 -0.22572803 -0.19933058 -0.14030546
-0.016224837 0.28231114 -0.2074739 0.3017184 0.2478492 -0.30000815 0.105507605 -0.27898154
-0.045139987 0.23510453 -0.37079477 0.11024947 -0.19435199 0.18563144 -0.15360945 -0.0048130853
-0.25873452 -0.29672036 -0.27581066 -0.17479232 0.07283352 -0.2050566 0.26506403 0.27213523
-0.09401779 -0.015871929 0.102434374 0.06208273 0.015911141 -0.347701 0.06244588 0.1401758
-0.22358823 0.25667244 0.15366347 0.23133263 -0.33640197 0.11828331 0.34857446 0.12240439
-0.25200012 0.29510757 -0.15615155 -0.15307438 -0.05130703 0.23943771 0.030239392 0.3434435
0.23570402 -0.076212175 0.2633431 -0.19839692 -0.30054754 0.17432182 -0.26784876 -0.2813824
0.30586362 -0.33285993 0.15254053 0.3411742 -0.13933255 -0.03972438 0.16089052 -0.04854694
0.118818626 0.19901106 -0.31150764 -0.37443107 0.27971122 -0.01141821 -0.33398718 0.19565676
-0.0634563 -0.14186883 0.24622644 -0.038196515 0.18295403 -0.3083872 0.033084147 -0.059097603
-0.15338394 -0.19647233 0.11705517 -0.017164681 -0.061292052 -0.09809187 -0.2088001 0.3537341
-0.24998946 0.17320047 -0.037262548 0.06034118 0.35140398 0.36308786 -0.15148929 0.18684211
0.2567603 0.035952173 0.2967532 -0.25853285 0.15260497 0.002056819 -0.017429842 0.23176582
0.11678467 -0.3684107 0.12797827 -0.23157275 -0.23580468 -0.09612887 0.23089989 0.28016686
0.015212266 -0.196366 0.23378314 0.058897078 0.20607296 0.33667198 -0.17394699 -0.13467337
00000000: 605c 393e b414 16be 9935 5bbe 1b56 633e
00000010: 1401 6d3d 961a 313d ed7a 553e c825 5f3e
00000020: 2b2d 9a3e 1a4b 21be 2721 5e3e e6f9 353e
00000030: 7c21 b23e 7201 05be 0496 af3e 3f48 a83d
00000040: 7ba6 3c3e 50de 493e c5bb 913e 856c a8bd
00000050: 8b48 623e 432d 66be 06af 02be 55d8 883e
00000060: 188c 343e ad3d b83e c5b0 d5bb 8d55 b6bd
00000070: 273a 1cbe 0c65 983e c0a7 883e 8971 89be
00000080: 8cea 88be 5126 b3bd 1694 43be c189 99ba
00000090: 1a75 153e e2dc 833e c5dd 47bd 3f69 973e
000000a0: 0d5b 223e 3da5 5bbe 6469 753e 9e04 3dbd
000000b0: f15b 1d3e e8de b53e 8cdf dc3c 73c8 ce3d
000000c0: 0e1a 983e 4efe 4bbe c7c1 3a3e 3d13 1ebe
000000d0: a549 a33d 436e 3a3d 7074 9d3e ff9d 5a3e
000000e0: fad5 303e ce35 1f3e 9163 3b3d 1a96 a23e
000000f0: 3a92 cc3c 96fe 213e 5190 cf3d 8481 6ebe
00000100: 9d00 7fbe a077 b7bd c18d 84be ce0c 51be
00000110: 1b40 ecbc d2a0 87bd 50f4 a93e 549f 2d3e
00000120: e479 913e 0a19 d3bd 4ff8 1e3e 69c6 73be
00000130: b49b aabe 6be4 953d 92da 6a3e 32db 80be
00000140: f55c 9e3d 4796 97be 1f26 8c3e 6183 c8bd
00000150: 8594 92bd f62b 9fbd d78c 363e 74ce 84be
00000160: ce9d 843c 492a cdbd 0f56 1cbd 19af 23be
00000170: c0ba 723d bdaf 843e 0ec1 57bd c5d0 0bbe
00000180: 2f9c 6cbe f9e4 31be ebd6 95be d324 733d
00000190: e0f3 54be 630c bbbd f02e 17bd 7028 323e
000001a0: 1d8e 083e 7100 6f3d 55fd b73d 4bad 3c3e
000001b0: cf77 8d3e 90b9 56be de64 b33e 9dc0 b43c
000001c0: d4e4 10be ad26 883e 7bf3 ad3e 0432 16be
000001d0: 737b 893d f4c7 393e b3d2 21be 000c 58be
000001e0: d6a9 98be cc49 73be fb12 863e 905d 20bd
000001f0: 65e5 c4bd cbbd a33e d40d 97be 98bc 193e
00000200: a713 6abe 186b 29be c46e 99be a3bf 94be
00000210: 7a1a bc3e 4025 67be 511d 4cbe 3cac 0fbe
00000220: f3e9 84bc 168b 903e 0a74 54be d67a 9a3e
00000230: 2ecc 7d3e ab9a 99be 5f14 d83d abd6 8ebe
00000240: b5e4 38bd 3ebf 703e d0d8 bdbe 79ca e13d
00000250: 3504 47be 2b16 3e3e cc4b 1dbe 16b7 9dbb
00000260: da78 84be bbeb 97be 0e37 8dbe c2fc 32be
00000270: be29 953d 5bfa 51be 79b6 873e 4f55 8b3e
00000280: 668c c0bd d905 82bc 1dc9 d13d 764a 7e3d
00000290: 1558 823c de05 b2be 40c7 7f3d 3f8a 0f3e
000002a0: 50f4 64be 926a 833e f559 1d3e 76e2 6c3e
000002b0: e13c acbe 853e f23d 5a78 b23e 27af fa3d
000002c0: 2906 81be 5718 973e 31e6 1fbe 88bf 1cbe
000002d0: 5227 52bd 292f 753e 9ab8 f73c d4d7 af3e
000002e0: 655c 713e 2115 9cbd e8d4 863e 9028 4bbe
000002f0: 5ee1 99be 6b81 323e 7923 89be 5b11 90be
00000300: 289a 9c3e 9e6c aabe 9633 1c3e 62ae ae3e
00000310: 31ad 0ebe 08b6 22bd 7cc0 243e 28d9 46bd
00000320: 2e57 f33d 8ec9 4b3e ee7d 9fbe 6eb5 bfbe
00000330: 4f36 8f3e 7213 3bbc 5e00 abbe 3f5a 483e
00000340: 60f5 81bd 1046 11be c922 7c3e f373 1cbd
00000350: 4d58 3b3e ede4 9dbe 3e83 073d 5410 72bd
00000360: ae10 1dbe 0b30 49be 9fba ef3d f29c 8cbc
00000370: 600d 7bbd 64e4 c8bd b2cf 55be a31c b53e
00000380: 3dfd 7fbe 775b 313e 9da0 18bd 5028 773d
00000390: 39eb b33e a7e6 b93e 0220 1bbe 8a53 3f3e
000003a0: 1676 833e 9642 133d 09f0 973e 6b5e 84be
000003b0: 7a44 1c3e b2cb 063b 07c9 8ebc 0554 6d3e
000003c0: cd2c ef3d 54a0 bcbe bc0c 033e 6821 6dbe
000003d0: c876 71be 37df c4bd 0571 6c3e 0872 8f3e
000003e0: de3c 793c 2b14 49be d964 6f3e 103e 713d
000003f0: ca04 533e 4560 ac3e 291f 32be d1e7 09be

fc.0.bias f4 [64]
-0.05591966 -0.26600388 -0.24505372 0.1422259 -0.23571017 -0.114403404 0.1553774 0.004646294
-0.18358853 -0.04719695 0.24686931 -0.058337674 -0.10677819 0.16287357 -0.33637953 0.061382815
0.16068375 -0.19680631 -0.057003394 -0.14785214 -0.27827477 -0.103829645 -0.3117377 0.23869093
-0.28657663 -0.17174296 -0.31751525 0.29522803 0.24204223 0.19746704 -0.3724858 0.14172998
0.08748521 0.29638278 0.107096225 0.034226786 0.2290986 0.07859833 -0.074632145 0.061907932
0.23671941 0.297509 0.26378375 -0.22238609 -0.21337448 0.08026334 -0.24865542 -0.2920408
0.277188 -0.023673078 0.08936783 0.054960713 0.30227575 0.24755822 -0.32944807 -0.21515174
0.20299627 0.32502094 -0.2501567 -0.2802415 -0.12732333 0.010362049 0.060448755 0.2444165
00000000: 030c 65bd a931 88be 5def 7abe aba3 113e
00000010: 025e 71be 554c eabd 411b 1f3e f03f 983b
00000020: a2fe 3bbe 9751 41bd 4fcb 7c3e 7cf3 6ebd
00000030: 86ae dabd 54c8 263e f039 acbe 8c6c 7b3d
00000040: 488a 243e 9887 49be 647c 69bd 8d66 17be
00000050: 087a 8ebe a3a4 d4bd 159c 9fbe 656b 743e
00000060: 2cba 92be 63dd 2fbe 5c91 a2be 2128 973e
00000070: ebd9 773e cd34 4a3e 75b6 bebe aa21 113e
00000080: 722b b33d 7cbf 973e 4455 db3d 6331 0c3d
00000090: d398 6a3e 29f8 a03d bdd8 98bd 2c93 7d3d
000000a0: 9366 723e 1a53 983e aa0e 873e 2eb9 63be
000000b0: d77e 5abe 1b61 a43d 879f 7ebe 5f86 95be
000000c0: 96eb 8d3e 0bee c1bc 7b06 b73d 7c1e 613d
000000d0: e3c3 9a3e e77f 7d3e 6bad a8be bd50 5cbe
000000e0: 41de 4f3e 2569 a63e 8a14 80be d07b 8fbe
000000f0: 0c61 02be 95c5 293c 1d99 773d 5248 7a3e

fc.2.weight f4 [64, 64]
0.021881046 -0.03470819 0.05595504 -0.07801835 -0.04658603 0.07821926 0.12616459 -0.10957519
0.09249901 0.11058676 -0.075678274 0.07412162 0.10406418 -0.120279245 0.05709653 -0.061533492
-0.060828485 -0.06964112 0.033526175 -0.09975638 -0.0022171102 0.08390073 -0.0043769 -0.10369946
0.08795113 0.1246595 0.05908274 0.013368164 0.0372009 -0.11184028 0.08440508 0.045614254
-0.102402404 0.096488975 -0.09418373 -0.11124748 -0.040635925 0.04485376 0.08517197 0.118433625
-0.055048123 0.057133593 0.005793838 0.04213579 -0.049572125 0.03173782 -0.101078905 -0.074015796
-0.05563876 0.012203872 0.025946237 -0.06434758 0.07537855 0.020729845 -0.032327116 -0.086110696
-0.012289029 -0.040866673 0.016805716 0.034430698 0.05218842 -0.08484162 -0.08949256 0.02384583
0.12897523 0.11231046 -0.10997735 0.11537426 -0.11309943 -0.1141929 -0.10969226 -0.062253643
-0.119272925 -0.09699934 0.07051956 -0.0029333977 0.097965464 -0.0677655 0.12025495 -0.07555518
-0.04693127 0.007209666 -0.06197368 -0.07224114 -0.03104538 -0.0875158 -0.04304042 -0.032634623
-0.12098633 -0.109957986 0.016886964 -0.12024597 -0.0575678 -0.095764466 0.12248098 -0.123112105
-0.014748546 0.0402864 -0.053234834 0.1177119 0.11380115 -0.024970807 0.05486772 0.097888775
-0.0038734002 -0.1051504 0.04808702 -0.0340887 0.044067815 -0.04343216 -0.120683156 -0.122358374
0.0034735487 0.093109146 -0.078226306 0.10406742 -0.022613168 0.044565387 -0.015627442 -0.08306437
-0.06865306 -0.118576355 0.0061217677 -0.019813642 -0.010293913 0.02019758 -0.10105291 -0.0049921055
-0.090642825 -0.051451392 0.07234005 -0.08042103 0.03888674 -0.0077148816 0.012649802 0.012814165
-0.03836777 -0.004769961 0.10760145 0.05927397 -0.025633084 -0.060684167 0.09952673 -0.056558564
-0.05594834 -0.036311325 -0.005898448 -0.041456256 0.024862917 0.12214366 0.03446775 -0.0763479
0.054108933 -0.058803674 0.042536214 0.08521733 0.03066015 -0.036607105 0.0962687 0.08289629
0.025213601 0.072695106 -0.07577504 -0.013628597 -0.04021292 0.050295595 -0.01856139 0.08013006
0.12573697 0.05646806 -0.003157439 -0.117394276 -0.102700256 -0.08604171 0.06490971 -0.08908035
-0.057142306 -0.01987945 -0.043020904 0.030634463 -0.056635488 -0.08875174 -0.06157519 -0.03376401
0.008131817 -0.016629832 0.1058798 0.012980535 0.032055236 0.008761506 0.10921331 0.05928381
0.04923282 0.10351078 0.046039153 -0.08335009 -0.02802761 0.042435523 -0.09483784 -0.11624235
-0.017940791 0.060088545 -0.101203926 -0.027496755 -0.021000564 0.06271056 0.07486188 0.07639183
-0.11785299 0.06354362 0.08600402 0.049068097 0.09181561 -0.027392067 -0.11576212 -0.11070891
-0.1174655 -0.110668235 0.08376646 0.006297149 -0.12039617 0.086353704 0.084847674 0.03279665
0.097343415 0.018814746 0.0114507945 -0.043379724 0.027345553 -0.044477314 -0.08848795 -0.035852518
0.092761055 -0.10218686 -0.0050551468 -0.03059782 0.07777209 0.032081477 0.059230786 -0.09919752
-0.04190979 0.006512895 0.0583996 0.047717933 0.007450669 0.04337573 -0.11706799 0.10771521
-0.007985987 -0.11962535 -0.09710646 -0.029546468 -0.091199264 -0.03870544 0.10229459 0.062398113
00000000: e13f b33c 2d2a 0ebd 1d31 653d 16c8 9fbd
00000010: fed0 3ebd 6b31 a03d 4a31 013e f568 e0bd
00000020: 1f70 bd3d 507b e23d 36fd 9abd 13cd 973d
00000030: 9a1f d53d f754 f6bd 0dde 693d 8b0a 7cbd
00000040: 4a27 79bd 01a0 8ebd be52 093d 134d ccbd
00000050: f04c 11bb 25d4 ab3d 196c 8fbb 6260 d4bd
00000060: b91f b43d 7b4d ff3d be00 723d 2506 5b3c
00000070: f95f 183d 840c e5bd 92dc ac3d 03d6 3a3d
00000080: 5ab8 d1bd 039c c53d 66e3 c0bd b8d5 e3bd
00000090: db71 26bd 94b8 373d a46e ae3d 548d f23d
000000a0: 247a 61bd ea04 6a3d 3cda bd3b 9496 2c3d
000000b0: 240c 4bbd 84ff 013d 7502 cfbd 9895 97bd
000000c0: 78e5 63bd c0f2 473c 348d d43c aac8 83bd
000000d0: 1260 9a3d a3d1 a93c 7069 04bd ce5a b0bd
000000e0: ec57 49bc d063 27bd 24ac 893c 3407 0d3d
000000f0: 86c3 553d 71c1 adbd e047 b7bd 5458 c33c
00000100: 1512 043e 0703 e63d ce3b e1bd 5749 ec3d
00000110: ada0 e7bd f8dd e9bd 56a6 e0bd adfd 7ebd
00000120: 5d45 f4bd 97a7 c6bd 8f6c 903d 3f3e 40bb
00000130: 1ea2 c83d a3c8 8abd 3a48 f63d adbc 9abd
00000140: 013b 40bd 103f ec3b 1dd8 7dbd 2af3 93bd
00000150: e152 febc 7c3b b3bd 274b 30bd e2ab 05bd
00000160: aec7 f7bd a731 e1bd 8856 8a3c 8543 f6bd
00000170: 37cc 6bbd 2920 c4bd 4fd7 fa3d 3322 fcbd
00000180: e3a3 71bc 5a03 253d c50c 5abd f012 f13d
00000190: 9410 e93d 948f ccbc f9bc 603d e979 c83d
000001a0: dfd8 7dbb 1859 d7bd e5f6 443d 98a0 0bbd
000001b0: 7480 343d ece5 31bd bb28 f7bd 0797 fabd
000001c0: 7aa4 633b 02b0 be3d 1d35 a0bd 4d21 d53d
000001d0: 403f b9bc 328a 363d 1f05 80bc a71d aabd
000001e0: fa99 8cbd 29d8 f2bd 1c99 c83b 3850 a2bc
000001f0: cda7 28bc 6575 a53c d4f4 cebd d194 a3bb
00000200: f2a2 b9bd b2be 52bd 0527 943d c8b3 a4bd
00000210: b447 1f3d 1ecd fcbb 1d41 4f3c 81f2 513c
00000220: 8627 1dbd 554d 9cbb 265e dc3d 43c9 723d
00000230: 79fc d1bc f68f 78bd acd4 cb3d f4a9 67bd
00000240: 162a 65bd 2fbb 14bd c547 c1bb 09ce 29bd
00000250: 51ad cb3c 7526 fa3d 0e2e 0d3d 4a5c 9cbd
00000260: 54a1 5d3d 1fdc 70bd 743a 2e3d 6c86 ae3d
00000270: ff2a fb3c 55f1 15bd 8628 c53d 88c5 a93d
00000280: c18c ce3c 2ce1 943d f22f 9bbd 7b4a 5fbc
00000290: 4eb6 24bd c102 4e3d 0e0e 98bc 3b1b a43d
000002a0: 31c1 003e 0d4b 673d 09ed 4ebb 696c f0bd
000002b0: 8354 d2bd a336 b0bd 62ef 843d c26f b6bd
000002c0: 0d0e 6abd 3ada a2bc b036 30bd 20f5 fa3c
000002d0: 9dfa 67bd 79c3 b5bd 4436 7cbd 214c 0abd
000002e0: 503b 053c 493b 88bc 82d7 d83d 4fac 543c
000002f0: 5a4c 033d 6b8c 0f3c 3aab df3d 95d3 723d
00000300: 5aa8 493d 76fd d33d 8d93 3c3d 74b3 aabd
00000310: 299a e5bc dfd0 2d3d 573a c2bd 7810 eebd
00000320: 91f8 92bc 681f 763d 0144 cfbd e040 e1bc
00000330: 6009 acbc 656e 803d 2f51 993d 5273 9c3d
00000340: e95c f1bd 2823 823d e022 b03d a1fb 483d
00000350: d309 bc3d 5465 e0bc b114 edbd 5abb e2bd
00000360: c191 f0bd 07a6 e2bd c08d ab3d 5158 ce3b
00000370: 4492 f6bd 36da b03d 9ec4 ad3d c855 063d
00000380: fc5b c73d 6221 9a3c 1d9c 3b3c f0ae 31bd
00000390: c803 e03c d82d 36bd 2c39 b5bd 17da 12bd
000003a0: 82f9 bd3d 5847 d1bd a5a5 a5bb 48a8 fabc
000003b0: f946 9f3d de67 033d fb9b 723d 1228 cbbd
000003c0: 9aa9 2bbd 206a d53b 6b34 6f3d e173 433d
000003d0: be24 f43b c0aa 313d 58c1 efbd cb99 dc3d
000003e0: a8d7 02bc 23fe f4bd c0df c6bd 6f0b f2bc
000003f0: aec6 babd 9889 1ebd d37f d13d 2a95 7f3d

fc.2.bias f4 [64]
-0.011840054 0.042753115 -0.06442958 -0.049192883 0.043362334 0.101367205 0.0042182105 0.060264513
0.025414467 0.11333875 -0.03835206 -0.098581634 -0.03437377 -0.045306284 0.11722399 -0.012502803
-0.11001135 0.09177869 0.06017221 0.107637286 0.05859653 -0.11558561 -0.00015791536 0.0029648158
0.061373148 -0.033775326 0.014154007 -0.024939394 -0.03582603 0.12691623 0.09170276 0.010107027
-0.0057679126 -0.08653224 -0.092745624 -0.06241712 -0.008688198 0.06678716 0.12911849 0.027151816
0.1050203 -0.117226824 0.111884646 0.10390653 -0.004963211 0.0038593207 -0.0065547344 0.06238266
0.009707202 0.05642559 0.016924806 -0.04466951 -0.08447295 0.009511476 0.028010068 0.042306744
-0.0067612934 0.12169837 -0.0792887 -0.00039699554 0.011119304 0.0045519667 -0.08675754 -0.046805326
00000000: c9fc 41bc e41d 2f3d a8f3 83bd 7a7e 49bd
00000010: b49c 313d 9c99 cf3d ea38 8a3b ecd7 763d
00000020: 0032 d03c 261e e83d 0d17 1dbd 2be5 c9bd
00000030: 83cb 0cbd 1593 39bd 2213 f03d 8ed8 4cbc
00000040: a14d e1bd 77f6 bb3d 2377 763d f070 dc3d
00000050: ea02 703d 26b8 ecbd 1596 25b9 5b4d 423b
00000060: 6962 7b3d ff57 0abd 35e6 673c b34d ccbc
00000070: 51be 12bd 54f6 013e a8ce bb3d f297 253c
00000080: c200 bdbb d137 b1bd 6bf1 bdbd 18a9 7fbd
00000090: f258 0ebc b5c7 883d a337 043e 7c6d de3c
000000a0: e214 d73d 9e14 f0bd c723 e53d f2cc d43d
000000b0: 6ea2 a2bb a8ec 7c3b 19c9 d6bb f684 7f3d
000000c0: f50a 1f3c 851e 673d e4a5 8a3c 60f7 36bd
000000d0: 2700 adbd 06d6 1b3c 5f75 e53c d649 2d3d
000000e0: d78d ddbb ff3c f93d 1d62 a2bd d723 d0b9
000000f0: be2d 363c aa28 953b f0ad b1bd f1b6 3fbd

actor.weight f4 [4, 64]
-0.046509907 0.041699044 0.057386115 0.07338842 0.0733761 -0.022672324 0.033158887 -0.09834354
0.020237206 -0.03822388 0.007944051 0.003641537 0.029667798 -0.11516507 0.08632795 -0.106559925
-0.117822304 -0.04184682 0.002013083 -0.0040148757 0.04593327 0.06107749 -0.043900605 0.077711456
-0.1075459 0.056787502 -0.082750365 -0.035506357 0.05064544 0.03668535 -0.096354194 -0.049771138
-0.09573757 -0.110749826 0.09491274 0.043775827 -0.022187205 -0.0070987297 0.060545452 0.10612731
0.103651956 0.07084785 -0.007845148 0.09882715 0.12049092 -0.018817252 0.07614979 -0.048598457
-0.07534435 -0.059090625 0.028689392 -0.036067564 0.09487499 -0.077239305 -0.0616461 0.07678934
0.029382974 0.032937456 0.12989429 -0.10325079 0.046944737 0.049240783 -0.002651598 -0.08792952
0.0029917136 0.066433616 0.070135295 -0.08305774 -0.059110135 0.0074476316 0.09826947 -0.03560561
-0.024068872 0.07370336 -0.011667133 -0.07838385 0.06480747 -0.10092682 0.13073514 -0.046427175
-0.028346336 0.04790356 -0.0813858 -0.05500381 -0.028731167 0.09972538 -0.061458763 -0.02268252
0.0735312 -0.022007732 0.06873487 -0.101056695 -0.13704462 0.111364685 0.020469898 -0.12941356
-0.035781078 0.121282265 0.110959806 -0.0128569985 -0.08776793 0.097128406 -0.14261177 -0.038518947
-0.012508844 0.0331705 -0.049878877 -0.07364229 0.11310164 0.103246965 -0.019109184 0.052650847
0.018188378 -0.07311715 0.0490228 -0.116540276 0.1554027 -0.064810626 -0.11985566 -0.09309794
0.09461954 -0.12356608 -0.028794685 -0.07591987 -0.065596186 -0.04963624 -0.032651577 -0.0749605
-0.08348677 -0.09972743 -0.06408038 -0.0063917562 -0.07938686 0.0808147 -0.0327836 -0.04684908
0.008566996 0.0818117 -0.04839269 0.11969716 0.026222918 0.0915369 -0.013891273 -0.08401336
0.043875124 0.09264197 0.023586378 0.04822121 -0.02265543 -0.10989289 0.0748794 0.01131084
0.026365949 0.09223489 0.0821918 -0.101971924 0.05911606 0.026002772 0.08727656 0.008762041
-0.09382127 0.060255766 -0.08844511 0.035720278 -0.0700649 0.06751757 0.07080595 -0.018289788
0.013412996 0.03474191 0.087333165 0.1333351 0.08971229 -0.043438975 0.0952777 -0.024422772
-0.002023712 -0.012632303 -0.073394775 -0.02589384 0.072976224 0.0662296 -0.0021685394 0.07345252
0.08559029 0.007959794 -0.0744221 0.03266059 -0.094151765 0.11890798 0.118882485 0.040782016
-0.0033269452 0.121784925 0.013706082 0.083650626 -0.055646926 -0.13807419 0.014622302 -0.008573021
-0.11033313 0.086843 0.07336498 0.05533091 0.044961806 -0.060773302 -0.11340266 0.07191296
-0.084796526 0.0027191837 0.035031904 0.06238706 -0.061771207 0.008986115 -0.035222165 0.0032138627
0.07605889 -0.08833084 0.0643096 -0.04033999 0.047301013 -0.098130696 0.05897042 0.064526305
0.112327375 0.0056693912 -0.041805085 -0.09699724 -0.015540383 0.045999207 0.0046829088 -0.07187341
-0.1490034 0.07292337 0.122942284 -0.04189522 -0.044377252 -0.08791227 -0.0052283644 0.08442182
-0.016137794 -0.015000903 -0.07067006 -0.020437717 0.008313668 0.04497483 0.069944195 0.12113267
-0.08898721 -0.07592435 -0.065930024 0.05894217 -0.12146931 0.023175323 -0.031902947 0.0262288
00000000: 2c81 3ebd 9ecc 2a3d b40d 6b3d ab4c 963d
00000010: 3546 963d 4fbb b9bc 9dd1 073d 5768 c9bd
00000020: 7fc8 a53c a590 1cbd c427 023c daa6 6e3b
00000030: e209 f33c aadb ebbd b5cc b03d 173c dabd
00000040: d24c f1bd 9267 2bbd eeed 033b 388f 83bb
00000050: 8624 3c3d 642c 7a3d 1fd1 33bd 2f27 9f3d
00000060: 0641 dcbd 039a 683d 0679 a9bd 1d6f 11bd
00000070: 9871 4f3d 6143 163d 5955 c5bd d2dc 4bbd
00000080: 0f12 c4bd ced0 e2bd 9c61 c23d 484e 333d
00000090: f1c1 b5bc 769c e8bb 82fe 773d 4659 d93d
000000a0: 7a47 d43d ad18 913d f088 00bc e465 ca3d
000000b0: f2c3 f63d a326 9abc 6cf4 9b3d 2d0f 47bd
000000c0: 234e 9abd 0309 72bd 0406 eb3c 95bb 13bd
000000d0: d24d c23d a42f 9ebd 9f80 7cbd bb43 9d3d
000000e0: 90b4 f03c 6de9 063d 0203 053e 2675 d3bd
000000f0: 2049 403d b4b0 493d 6fc6 2dbb 6414 b4bd
00000100: a010 443b 590e 883d 18a3 8f3d 2d1a aabd
00000110: 781d 72bd 430b f43b 8141 c93d 30d7 11bd
00000120: 152c c5bc caf1 963d 8127 3fbc b687 a0bd
00000130: c7b9 843d b8b2 cebd 6fdf 053e 6c2a 3ebd
00000140: 9336 e8bc 8636 443d 99ad a6bd ad4b 61bd
00000150: a05d ebbc d23c cc3d 2fbc 7bbd b1d0 b9bc
00000160: 8797 963d 8f49 b4bc dec4 8c3d d0f6 cebd
00000170: 6d55 0cbe 2b13 e43d 7db0 a73c fd84 04be
00000180: 2e8f 12bd d662 f83d e53e e33d 29a6 52bc
00000190: acbf b3bd 42eb c63d d208 12be 0bc6 1dbd
000001a0: e5f1 4cbc cadd 073d cb4d 4cbd c5d1 96bd
000001b0: d5a1 e73d 2573 d33d dd8a 9cbc 6aa8 573d
000001c0: cbff 943c 72be 95bd 22cc 483d abac eebd
000001d0: e321 1f3e 6fbb 84bd e276 f5bd 22aa bebd
000001e0: e4c7 c13d 3710 fdbd d5e2 ebbc e07b 9bbd
000001f0: 4b57 86bd 5f4f 4bbd a9bd 05bd e484 99bd
00000200: 1dfb aabd e53d ccbd 933c 83bd f071 d1bb
00000210: 9495 a2bd 2d82 a53d 1948 06bd d2e4 3fbd
00000220: 965c 0c3c e48c a73d 6a37 46bd c923 f53d
00000230: 72d1 d63c b377 bb3d 3998 63bc 320f acbd
00000240: 67b6 333d 13bb bd3d 3838 c13c 9a83 453d
00000250: e197 b9bc 860f e1bd 5f5a 993d 1a51 393c
00000260: 67fd d73c a5e5 bc3d 2d54 a83d a8d6 d0bd
00000270: af23 723d c403 d53c 0ebe b23d aa8e 0f3c
00000280: 5e25 c0bd c0ce 763d b622 b5bd 6d4f 123d
00000290: 307e 8fbd a746 8a3d b602 913d 77d4 95bc
000002a0: 2fc2 5b3c 884d 0e3d bbdb b23d ff88 083e
000002b0: 14bb b73d 11ed 31bd f420 c33d 4412 c8bc
000002c0: 41a0 04bb b8f7 4ebc 0050 96bd 511f d4bc
000002d0: 8f74 953d 62a3 873d 0e1e 0ebb 466e 963d
000002e0: f649 af3d cc69 023c 9d6a 98bd 1cc7 053d
000002f0: a4d2 c0bd 0786 f33d a978 f33d 0b0b 273d
00000300: e108 5abb 606a f93d 798f 603c 0551 ab3d
00000310: 08ee 63bd 5263 0dbe 6192 6f3c db75 0cbc
00000320: 56f6 e1bd beda b13d 6140 963d aaa2 623d
00000330: df29 383d 6ded 78bd a73f e8bd 1a47 933d
00000340: cda9 adbd 5534 323b 9d7d 0f3d 9389 7f3d
00000350: ce03 7dbd 803a 133c 1e45 10bd ab9f 523b
00000360: c3c4 9b3d cde6 b4bd c0b4 833d 8c3b 25bd
00000370: b5be 413d bff8 c8bd f88a 713d 5e26 843d
00000380: e50b e63d 4dc6 b93b cf3b 2bbd 7da6 c6bd
00000390: 179d 7ebc aa69 3c3d 1673 993b 5e32 93bd
000003a0: 5994 18be d958 953d 2ac9 fb3d 529a 2bbd
000003b0: ecc4 35bd 590b b4bd b352 abbb 59e5 ac3d
000003c0: 6833 84bc 59c6 75bc 77bb 90bd 006d a7bc
000003d0: 0d36 083c 8737 383d e73e 8f3d 6814 f83d
000003e0: ed3e b6bd 3a7e 9bbd 5206 87bd 586d 713d
000003f0: e7c4 f8bd 2dda bd3c aaac 02bd c8dd d63c

actor.bias f4 [4]
0.06980121 0.08706408 0.048371438 0.08216965
00000000: f0f3 8e3d a74e b23d 2121 463d 9048 a83d

critic.weight f4 [1, 64]
-0.035559773 -0.057889998 0.09514895 -0.0382822 -0.006904945 -0.068653315 0.11273618 -0.062145337
-0.0785653 0.035819456 -0.11270481 0.08708717 0.019394651 0.01329875 0.0920396 0.044032052
0.10393603 -0.012322366 0.112822846 -0.004323229 0.120807156 0.043754682 0.049698234 -0.082717314
-0.093499556 0.037711143 -0.09450282 0.011479229 -0.080207005 0.10797714 -0.02470015 0.050903574
0.07455689 -0.09579289 0.110047266 0.047175124 -0.019544557 -0.049817175 0.028780341 -0.016065776
0.0976114 -0.032031417 0.009891465 -0.010797456 -0.11032134 1.3262033e-06 -0.038743153 -0.011004925
-0.04807213 0.02035138 0.021923482 -0.12498285 0.10753976 0.10872373 0.06909309 0.10691571
-0.04082644 0.00083221495 0.06992599 -0.031506404 -0.058463454 0.08118667 0.11342235 -0.009461939
00000000: 20a7 11bd 101e 6dbd 74dd c23d cccd 1cbd
00000010: e042 e2bb 1c9a 8cbd 3ae2 e63d 1c8c 7ebd
00000020: d8e6 a0bd 6cb7 123d c8d1 e6bd c25a b23d
00000030: 88e1 9e3c 00e3 593c 427f bc3d f45a 343d
00000040: 6adc d43d c0e3 49bc aa0f e73d e0a9 8dbb
00000050: be69 f73d 1c38 333d 6090 4b3d b267 a9bd
00000060: b27c bfbd 0077 1a3d b28a c1bd 6013 3c3c
00000070: 9243 a4bd 1e23 dd3d f857 cabc 4480 503d
00000080: 48b1 983d 102f c4bd 7660 e13d b43a 413d
00000090: e81b a0bc 180d 4cbd c0c4 eb3c 609c 83bc
000000a0: 7ce8 c73d 6033 03bd d00f 223c d0e7 30bc
000000b0: 28f0 e1bd 0000 b235 24b1 1ebd 004e 34bc
000000c0: 48e7 44bd f0b7 a63c e098 b33c 02f7 ffbd
000000d0: ce3d dc3d 8caa de3d ae80 8d3d a0f6 da3d
000000e0: a039 27bd 0029 5a3a 5c35 8f3d dc0c 01bd
000000f0: 6077 6fbd 3245 a63d fa49 e83d 4006 1bbc
