models/Walker2d-v2/actor_critic_20241114_021813.pth (torch, 26081 bytes, 7 tensors)

fc.0.weight f4 [64, 17]
000000 69 4d f3 bc 05 38 d8 be 21 fa 6d 3e cd d5 7b 3d
       -0.029699998 -0.4223024 0.23239948 0.061483193
000010 98 38 e0 3d e8 ec b4 3e 6c 59 a0 bd 2a ef 67 3d
       0.109482944 0.35336995 -0.07829556 0.05662457
000020 ec a1 b9 be fb 3e c6 be 24 e2 91 be 27 75 3b 3e
       -0.3625635 -0.38719925 -0.28492844 0.18306409
000030 a3 fa be 3e a9 0d 4c be 96 ee c2 3d f7 29 2f bb
       0.37300596 -0.19927086 0.09518163 -0.0026727894
000040 e6 7e ec 3d 95 f5 a6 3e 64 27 e6 3d 4f a5 b7 3e
       0.115476415 0.3260924 0.11237982 0.35868308
000050 7a c1 b5 3e e8 90 60 3c 6a 35 dc 3e 5a b4 65 3e
       0.35499173 0.013706423 0.43009502 0.2243208
000060 fd c0 33 3d b5 03 2f be 75 49 a8 3e 4a 23 2d 3e
       0.04388522 -0.17091258 0.32868543 0.16907993
000070 51 0e d8 3c 12 2b 0d be 66 bf 9f be 20 91 bb bd
       0.026374014 -0.13785961 -0.31200713 -0.0915854
000080 41 38 f3 3d b4 b3 e4 bd 73 5d 90 bc 73 6f 1d 3e
       0.11875964 -0.11167088 -0.017622685 0.15374546
000090 27 ac d6 3e ec f9 ad 3e 13 03 5f 3e de ab 21 3e
       0.41928217 0.33979738 0.21778516 0.15788218
0000a0 5a 41 38 3e cc 46 d7 3e b4 a8 38 bc 71 b2 e8 3e
       0.1799368 0.420462 -0.011270691 0.4544864
0000b0 9c 28 56 3e b1 97 a7 be 8c 67 8d 3d 8e c6 13 be
       0.20913929 -0.3273292 0.069045156 -0.14431211
0000c0 4b 32 a4 be 8d af ba 3c 20 43 7a be 37 dd b4 3d
       -0.3206962 0.022788787 -0.24439669 0.08831256
0000d0 8c b3 86 3d 87 77 95 3d fb fe c2 3e 46 a7 73 3e
       0.065772146 0.07298189 0.3808516 0.23794279
0000e0 0d 5b 1e 3e 94 00 9b 3c 56 0b a1 3e 18 39 40 3e
       0.1546442 0.018921174 0.3145396 0.1877178
0000f0 c9 e7 8d 3d 3e 5e 2d 3e ba 4e a7 be fa e4 c5 bd
       0.06928975 0.16930482 -0.3267725 -0.096628144
000100 c9 9c 99 be 5b 1f 67 bd 17 0f 2d be e4 b5 a1 bc
       -0.3000243 -0.056426387 -0.16900288 -0.019740053
000110 30 79 5b 3e cd 82 35 bd 17 d5 39 3e 25 8f b5 3e
       0.21432948 -0.044314194 0.18147694 0.35460773
000120 8c 61 cf 3e 8b 6f 97 3e a0 f7 b7 3d fa 8d 60 3e
       0.4050411 0.29577288 0.089827776 0.2192916
000130 75 c5 30 3c 82 6d 96 3d 00 01 46 be a5 6d 01 be
       0.010789265 0.07345106 -0.19336319 -0.12639482
000140 67 9e 06 bd f9 ef 83 3e 83 c5 4d 3e f2 ea a5 3a
       -0.032865908 0.25769022 0.20094876 0.001265852
000150 2a 4d 81 3e 5e a6 f4 3d 1a dd 25 3e 58 d7 87 3d
       0.25254184 0.119457945 0.16197625 0.066328704
000160 e1 5e a5 3e b0 c1 aa 3e 3a c2 b3 3b 17 9d 7b 3e
       0.3229895 0.33350897 0.0054858 0.24571644
000170 bb ea a8 3d 8f aa 20 3e 93 ee 1a 3e a4 6d b1 3c
       0.08247896 0.15690063 0.15130071 0.021658726
000180 7c 8e b4 3d 6e 07 7b 3e 94 ee 10 3e 3f b6 92 bd
       0.08816239 0.24514553 0.1415351 -0.07163667
000190 48 a3 4a 3e 38 e6 44 3e c9 13 4c 3e 5d ac d9 bd
       0.1978885 0.19228446 0.19929422 -0.10628579
0001a0 8b 29 38 3e e7 51 32 3e 66 6a 0c 3d c5 e7 f9 3d
       0.17984597 0.17414056 0.034281157 0.1220241
0001b0 aa 4c 60 3e 7a 27 3c 3e 6f 2f f8 3d ef e9 81 3e
       0.21904245 0.18374434 0.12118422 0.2537379
0001c0 05 b3 55 3d 7b be 49 be 9c f0 cc 3d 3b ce 97 be
       0.05217268 -0.19701569 0.1000683 -0.2964953
0001d0 ba 1a 1a bc f0 eb 52 be 54 aa 60 bd 12 37 8d 3e
       -0.009405786 -0.20597816 -0.054849938 0.27581078
0001e0 88 56 7e bd 13 f1 e9 3d 37 0d 7a 3d 61 ed 95 3e
       -0.06209424 0.114229344 0.06104776 0.29282668
0001f0 17 ef a8 3e b6 5d a1 3e 84 a6 a4 3e 15 03 82 3e
       0.3299491 0.31516808 0.3215829 0.25392976
000200 84 d4 c5 3e 5e f1 fe bd 2c 46 87 bd 18 67 a1 bd
       0.386387 -0.12448381 -0.06605181 -0.07880992
000210 11 90 94 be aa 2e 7a bd f6 a7 db 3d 27 19 88 be
       -0.29016164 -0.06107966 0.107253954 -0.2658169
000220 ca a5 a9 3e c6 41 1d be 9f 21 89 3e 3a 70 c2 3e
       0.331343 -0.15357122 0.26783463 0.37976247
000230 58 79 33 3e 3e 6f 59 3e 21 27 57 3e 3e 07 9e 3e
       0.17526758 0.21233842 0.2101102 0.308649
000240 44 a3 b2 3c 8f 87 72 3e a1 cd 48 3e 15 8d 93 be
       0.021806367 0.23684524 0.19609691 -0.28818575
000250 5c 89 65 3d e5 da b7 be 87 f8 8a be 72 5a 56 bd
       0.0560392 -0.3590919 -0.27142736 -0.05233235
000260 54 33 ae be 1a 82 12 3d 6a 9a 2a be e5 4a 98 3e
       -0.34023535 0.035768606 -0.16660467 0.2974464
000270 5a 96 78 3e 5d 32 7a 3e 92 a6 bd 3e 93 86 56 3e
       0.24276105 0.24433275 0.37041146 0.20949773
000280 0a 67 85 3e 13 78 41 3e b7 94 97 3d 40 ca d9 3d
       0.26055175 0.18893461 0.07401412 0.10634279
000290 bf 35 ba 3d 7e 61 88 3d 48 ef 60 be 2c 34 6d 3d
       0.090922825 0.0665922 -0.21966279 0.057911083
0002a0 47 d6 92 3c ab ea c4 be 31 3e 20 3e ab 15 1e be
       0.017924441 -0.38460287 0.15648724 -0.15437953
0002b0 aa 23 83 3e da cf 94 3e ff 53 6d 3e d2 a5 3c 3e
       0.25613147 0.29064828 0.23176573 0.1842263
0002c0 f5 cb df 3e 0b a3 cb 3d 7b 60 8a 3e c3 6c 37 3e
       0.43710294 0.09943207 0.27026734 0.17912583
0002d0 80 75 54 be 36 d7 ac bd 21 2a 57 3e 1f a3 bf 3d
       -0.20747948 -0.08439486 0.21012165 0.09357285
0002e0 af 08 0c 3e c8 d9 a6 3e c8 6a be 3e 7b 11 49 3e
       0.13675188 0.3258803 0.37190843 0.19635575
0002f0 21 ca a3 3d 28 21 a4 3e f2 f7 27 3d 92 06 4e bc
       0.079975374 0.32056546 0.041007943 -0.012574809
000300 40 6f 7f 3e 94 18 88 3e cc cc d8 3e 95 ce 1b 3e
       0.24944782 0.26581252 0.42343748 0.15215524
000310 e0 60 43 3e 3b d1 32 3e 39 31 8f be 38 06 38 be
       0.19079924 0.17462628 -0.2796724 -0.17971122
000320 a7 e3 a8 be 0e dd a7 3d 91 96 17 3d c7 e7 59 be
       -0.32986185 0.0819646 0.037008826 -0.21279822
000330 b6 52 20 3e 70 e4 da bd e6 ef 0c 3e ee 29 ad 3e
       0.15656552 -0.10688102 0.13763389 0.33821052
000340 1d b6 d8 3e 82 37 22 3d 7e ce b9 3e 0c 98 81 3e
       0.4232644 0.039603718 0.36290354 0.25311315
000350 2c a2 25 3d ee 58 b2 3d 6d 16 bf 3c b4 65 c1 3d
       0.040437862 0.08708368 0.023326123 0.094432265
000360 ec 4d b5 bd 65 90 63 be 5e fc 45 3e ca d4 08 be
       -0.08852753 -0.22223051 0.19334552 -0.13362423
000370 1a 14 c3 be cc 7f c1 3e fd e5 7a be 29 6c 63 3d
       -0.38101274 0.37792814 -0.24501796 0.05552307
000380 f1 57 85 3e 6a 65 08 3e 0b ae 2f 3e e6 43 d4 3c
       0.26043656 0.13319936 0.17156236 0.025911283
000390 42 ea c9 3e f8 0c b8 bc 2c 55 e3 3d e2 f9 be bd
       0.39436537 -0.022467121 0.111002296 -0.09325005
0003a0 24 e8 18 bd cd 87 ff 3d 7c 4c 42 be 43 30 98 3d
       -0.03733076 0.12477074 -0.18974489 0.0743108
0003b0 e6 3b 3c 3d c5 9d 39 be 52 24 8b 3d 7f 80 32 3e
       0.04595556 -0.1812659 0.06794037 0.1743183
0003c0 3c f9 8a 3e 82 08 f7 3e 12 8d ad 3c 8d d0 3f 3e
       0.27143276 0.48248678 0.021185432 0.187319
0003d0 cf c1 57 3e 7c 34 7a 3d 69 24 8d 3d 6d 64 22 3d
       0.21070026 0.06108521 0.0689171 0.039646555
0003e0 21 9d 84 bd cb 1f c6 3e 60 40 46 3e 24 69 7b 3e
       -0.064752825 0.3869613 0.19360495 0.24551827
0003f0 b2 21 98 3e ad 15 df 3c a5 62 07 3e 4b 89 a1 3e
       0.29713207 0.027232016 0.13221224 0.3155006

fc.0.bias f4 [64]
000000 d4 23 63 bd bd 7c 84 3e a4 11 d1 3e ff 9e ce 3e
       -0.05545409 0.25876418 0.4083377 0.4035568
000010 7b bc cf 3e e9 54 bb 3e b1 b5 e2 3e 85 34 a6 3d
       0.40573487 0.3658822 0.44279245 0.08115486
000020 b8 3d a9 3e 91 0d e4 3e 31 8d e5 3d 9f 46 f0 3e
       0.330549 0.445416 0.11208571 0.4692888
000030 20 86 3f 3e aa 84 bc 3e 31 67 2d 3e b2 0c dc 3e
       0.18703508 0.36819965 0.16933896 0.42978436
000040 a4 48 13 bc 26 06 e6 3e 0b 1d 64 3e b5 9a ef 3e
       -0.008989487 0.44926566 0.22276704 0.4679772
000050 1b a5 8e 3e 9b e2 8b 3e 94 90 9b 3e d3 ca ca 3e
       0.2786034 0.27321324 0.30383742 0.39607868
000060 cd a5 28 3e 4f e4 50 3e 50 98 81 3e f3 7c 75 3e
       0.16469498 0.20399593 0.25311518 0.23973446
000070 90 9e 7e 3e 5a d2 d2 3e 3d dd cb 3e 81 31 a5 3e
       0.24865174 0.4117611 0.3981723 0.3226433
000080 3d f9 4f 3e 0b a2 c8 3e ee 38 ea 3e b4 18 10 3e
       0.2030992 0.3918613 0.4574656 0.14071923
000090 92 44 88 3e 27 7c 0b 3d 70 9b c8 3d 34 bc 8e bb
       0.26614815 0.034053948 0.09795272 -0.0043559317
0000a0 65 dc be 3d 8d e7 4d 3e 6d df 9e 3d d7 65 5d bc
       0.09319381 0.20107861 0.07757459 -0.01351305
0000b0 6b 7f f8 3e 7f eb 6f 3d e4 9c cc 3d 67 c2 d1 3e
       0.48534712 0.058574196 0.09990862 0.4096863
0000c0 c0 75 05 3e 42 ef b1 3e d0 a9 d9 3e 5e 20 5e 3e
       0.130332 0.34752852 0.4251237 0.21692035
0000d0 16 ba 16 3e ae 2e 16 3e ac e4 b6 3d 6e 12 a8 3e
       0.14719424 0.14666244 0.089303344 0.3282656
0000e0 a6 24 96 3e 80 eb b0 3d 19 ce 84 3e 5a f9 1e 3e
       0.29324836 0.08638668 0.2593849 0.15524808
0000f0 32 36 d9 3e b1 44 b2 3e 91 f7 88 3d be 6a de 3e
       0.4242416 0.34818032 0.066878445 0.43440813

fc.2.weight f4 [64, 64]
000000 ed e9 7e be 78 75 05 3e bc 11 22 3e 7a d0 42 3e
       -0.24893923 0.13033092 0.15827078 0.1902484
000010 06 f2 97 3e 1a a2 1c 3e b8 f5 53 3e 10 a4 08 3e
       0.29676837 0.15296212 0.20699203 0.13343835
000020 37 e3 71 3e 2e ae 07 3e d6 0f 02 3e 90 43 c6 3d
       0.23621832 0.13250038 0.12701353 0.09680855
000030 0a 22 7f 3e e6 63 90 3e 1e f1 99 3d 69 bf 9c 3e
       0.24915329 0.28201216 0.075166926 0.30614784
000040 fc 17 54 3e 1a 37 80 3e 5e 91 5a 3e 21 39 6a 3e
       0.20712274 0.2504204 0.21344516 0.22873355
000050 61 4b 92 3e 8b 17 08 3e bb ab 82 3e 50 c2 79 3e
       0.28573135 0.13290231 0.25521645 0.2439053
000060 eb 87 8c 3e 7e 86 05 3e 79 13 84 3e c8 c3 9e 3e
       0.27447447 0.13039586 0.25796106 0.31008744
000070 90 6d 83 3e f4 09 3e 3e 04 9e 8d 3e d8 49 29 3e
       0.25669527 0.18558484 0.2765962 0.16532075
000080 fd df ec 3d e1 c4 62 3e 7b 9f 87 3e 5d 91 14 3e
       0.1156616 0.22145416 0.2648886 0.14508577
000090 6e 25 41 3d ae 55 bd 3e 87 0e 15 3e 8b bb 70 be
       0.047154836 0.3697943 0.14556323 -0.23509042
0000a0 c5 28 98 3e 5d a3 59 3e 8d 2b 1c 3e e3 de 20 be
       0.29718605 0.21253724 0.15250988 -0.15710025
0000b0 87 6e 9e 3d 64 c8 0c 3e 6b 93 46 3e b8 b9 a3 3e
       0.07735925 0.13748318 0.19392173 0.3197763
0000c0 03 22 86 3e 13 c2 86 3e 06 58 97 3d fc 14 9e 3e
       0.26197824 0.26319942 0.07389836 0.30875385
0000d0 77 70 51 3e 1e ca 92 3e 4b 35 2f 3e a0 e4 7b 3e
       0.20453058 0.28669828 0.17110173 0.24598932
0000e0 d2 4b ff 3d cc 50 a8 be a9 8d 06 3e 98 6d 3a 3e
       0.124656335 -0.32874143 0.13139977 0.18205869
0000f0 62 14 08 3e ea f9 a6 3e 70 7e 2b 3e a1 47 64 3e
       0.13289025 0.32612544 0.16747451 0.2229295
000100 02 77 31 3d 6a 2f 59 bd b5 7e f4 3d 48 86 b7 3d
       0.043326385 -0.053023733 0.1193823 0.08961159
000110 b0 13 cd bd fa a1 c8 bd 96 5d e4 3a 56 01 03 bd
       -0.10013521 -0.097965196 0.001742291 -0.031983696
000120 57 45 53 bc 98 a6 12 3d 83 fc 5a bd ad ff ec 3d
       -0.01289495 0.035803407 -0.05346347 0.11572204
000130 06 90 dc 3c 2e 9b fa 3d d1 05 48 bd f9 19 84 bb
       0.026924144 0.122366294 -0.048833672 -0.0040314165
000140 f9 d4 7b 3d 09 08 2f bd f2 82 0b 3e 58 10 5f bd
       0.061482403 -0.042732272 0.1362417 -0.054458946
000150 37 59 13 3e 40 7e b7 bd 7c 13 ff bd 87 51 d6 3d
       0.14389502 -0.08959627 -0.12454888 0.10464769
000160 8a f8 03 be 4a a0 d8 3d e5 8b 3f bd 93 65 9b bd
       -0.12887779 0.10577448 -0.046764273 -0.07587733
000170 94 b0 0a be 1b f7 87 bd 29 3e ca bc 4c db 6b 3d
       -0.13543922 -0.066389285 -0.024687843 0.057582185
000180 70 f5 8d ba f9 39 df bd 5e 05 03 3e 7b 3a b0 bb
       -0.0010830592 -0.10899729 0.12795016 -0.005378065
000190 55 88 68 3d 5c 70 c7 bd 09 51 91 3d 37 3a 07 3d
       0.05677064 -0.09738228 0.07095534 0.033014502
0001a0 13 cf bb bd 4e 75 8d 3d 18 26 77 bd b6 58 f8 3d
       -0.09170356 0.0690714 -0.060339063 0.12126295
0001b0 ac 05 9f bd e3 7f dd bd e1 3e 0b 3e f0 1a ae bd
       -0.07764754 -0.10815408 0.13598205 -0.08501232
0001c0 36 c2 e7 3d bb cd 6f 3b 6d df 30 be e1 e1 2c 3d
       0.1131634 0.003659113 -0.1727273 0.042207602
0001d0 91 fc 19 3d 8b 66 15 3e 5e 7a b4 bd 55 25 ef 3c
       0.03759438 0.14589898 -0.08812402 0.029192606
0001e0 75 80 38 bc 91 8b 57 bd bf 07 0a 3e c9 3c af 3d
       -0.011261095 -0.052623335 0.13479517 0.08556516
0001f0 15 9d 97 3d 56 e8 87 3d 24 01 cf 3d d3 73 28 bd
       0.07403008 0.066361114 0.101076394 -0.041126084
000200 a5 9b 0f be e5 9e 6a 3e 24 c5 9b 3d bf 96 0d 3e
       -0.14024217 0.22912176 0.07605961 0.13827036
000210 b1 b5 0b 3e 40 cd 72 3e 87 a5 9b 3e 2e c8 9d 3e
       0.13643529 0.23711109 0.30399725 0.30816787
000220 96 46 27 3e 09 9c 77 3e 33 12 65 3e bf ac 82 3e
       0.1633552 0.24180616 0.22370224 0.2552242
000230 ab 77 7b 3e e1 f0 14 3e cd 8c 4d 3e d2 03 8b 3e
       0.24557368 0.14545013 0.20073242 0.27151352
000240 6c b4 6d 3e b1 5d a5 3e 52 6a 6f 3e d6 ef 9a 3e
       0.23213357 0.32298043 0.23380402 0.30261105
000250 1a c4 81 3e ec f5 20 3e 28 63 9b 3e db ba e7 3d
       0.25344926 0.15718812 0.30349088 0.11314937
000260 31 e5 60 3e 82 86 85 3e 6a d1 06 3e 42 35 0d 3e
       0.2196243 0.26079184 0.13165823 0.13789847
000270 40 f8 df 3d 36 ac 89 3e 19 6a 32 3e c6 55 f4 3d
       0.10936022 0.268892 0.17423286 0.119304225
000280 50 7c a2 3e 8c e5 a8 3e 39 94 71 3e 4a d2 65 3e
       0.31735468 0.3298763 0.23591699 0.224435
000290 ba 13 aa 3d 08 a1 be 3e 88 e6 3c 3e 3c 42 8e be
       0.08304544 0.37232232 0.18447316 -0.27784908
0002a0 b0 a4 a2 3e 64 48 35 3e 0b 53 eb 3d 4c 66 5d be
       0.31766272 0.17703396 0.114904486 -0.21621054
0002b0 6a d6 8a 3e 87 1e 4e 3e 7a c8 0c 3e 4d ef 9a 3e
       0.2711671 0.20128833 0.1374835 0.30260697
0002c0 ce 67 a1 3e 65 93 1d 3e 4f 14 7d 3e 1e 63 a6 3e
       0.3152451 0.15388258 0.24714778 0.32497495
0002d0 28 16 a0 3d 05 20 e3 3d 18 10 d7 3d 16 cc 4e 3e
       0.07816726 0.110900916 0.105011165 0.2019504
0002e0 ec 4e cd 3d c4 23 33 be b4 16 25 3e fc 5f af 3e
       0.10024819 -0.17494112 0.16121942 0.34252918
0002f0 6f fe 0f 3e d0 02 d2 3d cf 60 04 3e e3 84 0d 3e
       0.14061902 0.10254443 0.12927555 0.13820224
000300 c3 fc 92 3e 00 9a 82 bc 2a c6 0b be 5d 51 59 be
       0.28708467 -0.015942574 -0.13649812 -0.21222444
000310 b4 77 27 3d ed d2 5a be b5 33 3f be 7a 24 c3 3c
       0.040885642 -0.21369524 -0.18672068 0.023821104
000320 65 17 4b 3d c1 ee c8 bc 8b d8 72 3d 25 14 40 bc
       0.049582858 -0.02452791 0.059288543 -0.011723553
000330 85 94 64 3e 3d 3f 60 3d 00 9f 0e be dd dc 28 be
       0.2232228 0.05474781 -0.13927841 -0.16490503
000340 9c 81 e6 bd 56 68 0a be 8d 23 c3 bc c6 2a 59 be
       -0.1125519 -0.13516364 -0.023820663 -0.21207723
000350 f4 27 32 3d cb 31 81 3e 46 c9 32 3e e3 e4 ad bd
       0.043495134 0.25233302 0.17459592 -0.08490922
000360 59 5c 7d be 55 26 84 3e f9 d5 4a bd b0 46 ea bd
       -0.24742259 0.25810495 -0.049520466 -0.11439264
000370 0a f7 6f 3d 28 d5 5e 3e db b2 13 be 25 04 52 3e
       0.058585204 0.21761 -0.14423697 0.20509394
000380 52 cb 75 3e fa 87 a6 bd 1f d7 0f 3d 0b 51 f7 bc
       0.24003342 -0.08131404 0.035117265 -0.030190011
000390 4d 22 30 be 5b ed a4 bd c0 81 33 bc 14 81 8b 3e
       -0.17200585 -0.080530845 -0.010956228 0.27246916
0003a0 db ef 96 3d 26 4e 1f be 93 f2 6d bd 04 4b 93 3e
       0.073699676 -0.15557155 -0.058092665 0.2876817
0003b0 11 4f 83 3e 7c 98 41 3e 09 ff 25 3c a2 e0 28 be
       0.2564626 0.18905824 0.010131606 -0.1649194
0003c0 8d 55 c8 bc 19 b7 56 3e 72 66 b6 3d 6d b5 18 bb
       -0.024454856 0.20968284 0.08906259 -0.0023301498
0003d0 ac 10 83 bd 6a ff 1b 3e d0 c5 2d bd 21 e4 a4 3d
       -0.06399664 0.15234151 -0.042424977 0.08051325
0003e0 31 a7 ff 3d b8 53 87 3e 06 5c 9a 3d 8f 02 b7 bd
       0.12483061 0.2643106 0.07537083 -0.08936035
0003f0 5f e1 8b be 5f 5e 0f be 3b dc 3e 3d 59 df 48 be
       -0.27320382 -0.14000843 0.046596747 -0.1961645

fc.2.bias f4 [64]
000000 f3 f8 77 3e fd 48 a2 3c c8 78 c6 3d f0 3b 0d 3d
       0.2421606 0.019810194 0.09691006 0.03448099
000010 73 c9 81 3d 4a 2a 8e 3d df 2b 76 3e c3 40 6d 3e
       0.063372515 0.0694166 0.24040173 0.23169236
000020 3d df 38 bd 8b 85 14 be e3 5f 8c bd 88 b6 89 3d
       -0.04513477 -0.14504068 -0.068542264 0.06724268
000030 17 48 ec 3d 56 35 a9 bd 18 98 a9 3d 93 e3 4d 3e
       0.115371875 -0.08262126 0.08280963 0.20106344
000040 eb 3d df 3d a4 af 68 3e a1 e2 7e 3e 99 df fd bc
       0.10900482 0.22723252 0.2489114 -0.030990409
000050 a0 fc ae 3d 5c 7e 84 3e 14 e3 80 3e 42 58 0e 3e
       0.08544278 0.25877655 0.25173247 0.13900855
000060 2a 60 43 3e f4 19 61 3d 2b 21 30 3e fa 14 00 bd
       0.19079652 0.05495639 0.17200153 -0.031270005
000070 8f 3c 1c be 6e ee 8f 3e d2 e7 b2 3d 8d 2c 92 3e
       -0.15257476 0.28111595 0.087356225 0.28549615
000080 60 3e 1c 3e 52 4d 76 3e 82 be 0b 3e 86 95 20 bd
       0.15258169 0.24052933 0.13646892 -0.039205097
000090 7d 57 b2 bd 9c 29 d8 3d 64 fb b0 3d bc 21 57 3d
       -0.08708093 0.10554811 0.08641699 0.052522406
0000a0 8a ac 40 bc 74 48 95 3e 46 19 57 3d 64 49 0d 3d
       -0.0117598865 0.2915684 0.052514337 0.03449382
0000b0 63 cb d9 3d 6d 82 30 bc 3c 56 b9 bd d4 fc b3 bd
       0.10634496 -0.010773283 -0.09049651 -0.087884575
0000c0 bd a7 66 bd 45 f2 8b 3e 6d 20 79 3e 61 ce 0b 3e
       -0.05631231 0.27333274 0.24328776 0.13652946
0000d0 53 79 29 3e e9 c5 d8 bd af f3 f1 3d 55 59 ca 3c
       0.16550188 -0.10584623 0.11814057 0.0247008
0000e0 a0 01 57 3e b7 a8 92 bd 2e 0d 59 3c b2 5b b3 3d
       0.20996714 -0.07161086 0.013247771 0.08757724
0000f0 ad c1 bf bd 3b 00 9c bc 19 f8 41 3d c5 de 4a 3e
       -0.093631126 -0.019043079 0.047355745 0.19811542

actor.weight f4 [6, 64]
000000 58 b0 b2 3d a9 d1 b4 bd 10 50 2c bd bf 11 c0 bd
       0.08725041 -0.08829052 -0.04206854 -0.09378385
000010 ab 54 8e bd 9b 6f 39 3d 01 e9 b4 bd e3 7f 82 bd
       -0.06949743 0.04527245 -0.088335045 -0.06372049
000020 cc af 25 3d bb 87 46 3d 83 6f d9 bd ff d1 cd bd
       0.040450856 0.048469286 -0.10616972 -0.10049819
000030 fc 4b ca 3d c0 ac 50 3d ef a8 49 bd 7f 30 ad bd
       0.09877774 0.050945997 -0.049233373 -0.084565155
000040 93 a7 e9 3d 6f 8e 85 3d 0c 20 cf 3d 9d c3 53 bd
       0.11408915 0.06521308 0.10113534 -0.051700223
000050 04 de f8 bd f1 a5 18 3e 94 c2 fc bc 8a 5d b2 3d
       -0.12151721 0.14907052 -0.0308545 0.087092474
000060 91 46 ee 3d 43 fc 6c 3c 94 c1 18 3c c6 98 be bd
       0.11634553 0.014464441 0.009323496 -0.09306483
000070 31 27 cf bd f2 d6 03 3d 43 b8 b8 bd 67 90 d9 3d
       -0.10114897 0.03218741 -0.0901952 0.10623246
000080 3d c9 11 3e b0 e8 e1 3d 9d b1 ca bd c6 76 3d bd
       0.14236923 0.1103071 -0.09897158 -0.04625585
000090 4a 91 cd 3d 91 c1 78 3d f9 c9 21 bd 09 aa 48 3d
       0.10037477 0.060731474 -0.039499257 0.048990283
0000a0 b9 e7 0e be 33 00 95 bc dc 7d f9 b9 58 8a 1a bd
       -0.13955583 -0.018188572 -0.00047586753 -0.03772959
0000b0 b1 6f 4b 3d 7a b0 ce bc b6 7c 8c bd 3f f4 92 3d
       0.049667064 -0.025230635 -0.06859724 0.071754925
0000c0 e8 bd f9 bd 91 54 9e bd 10 9e 07 3e 32 28 4f bd
       -0.12194425 -0.077309735 0.1324389 -0.050575443
0000d0 61 af b7 bd dc ff 86 bd 67 a4 c8 3d 9b 30 f9 bd
       -0.08968998 -0.0659177 0.09796982 -0.12167474
0000e0 02 df b2 3d 4e 93 6c 3d c6 40 d8 3c 9f 08 ae 3d
       0.087339416 0.05775767 0.026398074 0.08497738
0000f0 36 00 ed bb 4e 66 fd bd da 76 d3 bd 26 92 d3 3c
       -0.007232691 -0.12373029 -0.103254035 0.025826525
000100 37 c8 2f 3d 30 f0 83 bc 0b b5 d9 3d 08 66 f9 3d
       0.04291555 -0.016105741 0.10630234 0.12177664
000110 b5 c4 24 3b a2 c0 7a 3d 0a 6d c6 3d 79 c9 bc bb
       0.002514166 0.061218865 0.09688766 -0.005761322
000120 8b bd 00 3e 93 66 ab 3d e3 71 92 bd b1 78 c5 3d
       0.12572305 0.08369174 -0.071506284 0.09642161
000130 37 11 36 bc e4 e5 f0 3d 65 87 05 be e1 d7 4c bd
       -0.011112503 0.11762598 -0.1303993 -0.050010566
000140 4d 18 d2 bd 39 e6 bd bd 1a 7c e1 3d c0 30 5e bd
       -0.10258541 -0.09272427 0.110099986 -0.05424571
000150 fc a5 04 3e 73 90 28 3d e6 06 4d 3d 3f a5 8a bd
       0.12953943 0.041153383 0.050055407 -0.067697994
000160 2a fe 90 bd 9f 9d 9c 3d 7f 24 55 bd ce 6c 61 3b
       -0.07079728 0.07647251 -0.05203676 0.0034397128
000170 52 ec 74 bc 00 20 a7 bd fc e6 d3 3d ea e2 f5 bd
       -0.014948921 -0.081604004 0.10346791 -0.12006171
000180 49 d2 d4 bd e0 42 eb bb 7b e6 d6 3d e1 5f bc bd
       -0.10391671 -0.007179603 0.104931794 -0.09197975
000190 91 ed 3e 3d 51 7e eb ba a3 b4 ee 3d 6f 61 39 3d
       0.04661328 -0.0017966722 0.116555475 0.045258936
0001a0 53 96 b3 3c 34 86 a2 3d cf d0 c7 bd 53 43 6b 3d
       0.021922266 0.079357535 -0.09756624 0.057437252
0001b0 94 23 d3 3d d1 36 86 3c 7b ff 5e bc b2 20 c9 bc
       0.1030952 0.01638356 -0.013610716 -0.024551723
0001c0 2b 6c 62 3d 40 cd c1 3d 22 3b 2d bd 35 d7 14 3d
       0.05527894 0.094629765 -0.04229272 0.03633805
0001d0 41 75 b0 3d b3 0a b4 3d fe ea c0 bd 3f c0 8c bd
       0.086161144 0.08791103 -0.09419821 -0.068726055
0001e0 24 54 b9 3d 6d da 9c bc a9 3a ea 3d 24 c8 f1 bd
       0.09049252 -0.019147122 0.1143697 -0.11805752
0001f0 96 22 95 bd a1 3b e8 bd cf 1c a4 3d 17 90 a3 3d
       -0.07281987 -0.11339498 0.08013307 0.07986467
000200 76 69 d9 bc 7e 25 b3 b8 1f 99 cb bd f6 c5 a8 3d
       -0.026539546 -8.5423686e-05 -0.09941315 0.08240883
000210 c4 12 6c bd 87 17 9c 3b 83 38 29 bd 77 de 77 3b
       -0.057635084 0.004763547 -0.04131366 0.0037821808
000220 3c 9a 78 bd bd 50 8a 3d eb bd 12 bd ef af 9c bd
       -0.060693964 0.06753681 -0.03582565 -0.07650744
000230 29 bb d1 3d 15 7c 7c bd d6 77 f2 3d 33 02 02 bd
       0.10240776 -0.06164177 0.11839263 -0.03174038
000240 5f bd 75 bd 1f 34 c0 3c 97 e6 86 3d 22 42 d0 3c
       -0.05999505 0.023462353 0.0658695 0.02542216
000250 88 4b 99 bd 41 af f6 3c 6b ac b6 bc d6 aa f5 bc
       -0.074851096 0.030112864 -0.022299012 -0.029988687
000260 94 a7 91 3d cd 93 db 3b 2d 02 20 3d 86 73 d6 bc
       0.07112041 0.006700969 0.039064575 -0.026178133
000270 9b 83 8d bd b0 34 93 3d 43 36 a0 3d 36 56 ad 3d
       -0.069098674 0.07187784 0.078228496 0.08463709
000280 2e b1 e1 bd f5 42 74 3d 20 c9 e0 3d 1e 74 43 3d
       -0.110201225 0.059634168 0.109758615 0.04771816
000290 91 b7 5d bd d5 86 9d bd c2 71 79 3d 10 96 b9 3c
       -0.05413014 -0.07691733 0.060899504 0.022654563
0002a0 25 be 1d bd bf 95 17 3d 0f 4c c3 bd 69 36 b5 bc
       -0.038511414 0.037008043 -0.095359914 -0.022120671
0002b0 6a a3 45 bd c6 4f 43 bd 88 aa 67 b9 c5 32 f1 3d
       -0.048251547 -0.0476835 -0.00022093405 0.11777262
0002c0 92 01 cb bb 48 f0 cd 3c 9f b0 19 3c c7 20 5d bd
       -0.0061952556 0.02513899 0.009380489 -0.053986337
0002d0 9b d8 ab 3c 8f 13 a1 3d 27 a7 e4 3d 49 2b d3 bd
       0.020977309 0.07865059 0.11164694 -0.1031099
0002e0 2c 15 9a bd 16 a2 e4 bd 44 58 2f 3c c9 54 a7 bd
       -0.075235695 -0.11163728 0.0107021965 -0.08170468
0002f0 50 5e ac bd 63 c0 02 3e 33 b0 9c 3b d7 f6 d9 bd
       -0.08416426 0.12768702 0.004781747 -0.10642784
000300 2a 5a 6a bd 00 90 42 3d 1e a4 be 3d d4 b6 2b bd
       -0.057214893 0.04750061 0.093086466 -0.041922405
000310 75 c0 5e bd fc e5 c7 3c 22 99 d0 bb b6 51 b0 3d
       -0.05438276 0.024401657 -0.006365911 0.08609335
000320 62 9a 60 bd 0d e8 6c 3c ef e2 19 bc fc be c2 3d
       -0.05483473 0.014459622 -0.009392484 0.09509084
000330 7a 53 ff 3d 22 df 71 3d 85 dc 06 be 26 c4 f7 bd
       0.12467094 0.059050687 -0.13170059 -0.12097959
000340 0b f6 8c 3d bf 50 59 bd a4 a8 78 bd cd 37 85 bd
       0.068828665 -0.05305552 -0.060707703 -0.06504784
000350 59 cd 98 bd ec c6 f8 bd 18 e0 87 ba d3 4b c5 3c
       -0.07461042 -0.12147316 -0.0010366468 0.024084007
000360 ff 51 b9 3d 71 13 a9 bd 6c 38 db 39 7f 8b ff 3d
       0.09048843 -0.08255661 0.00041812973 0.12477779
000370 3a cb a4 bd 94 1e 7b bd 49 92 f5 3c f8 36 71 3c
       -0.08046575 -0.06130846 0.02997698 0.014722578
000380 af 8f 01 be 73 15 b9 bd 04 86 3f bd 66 35 33 3d
       -0.12652467 -0.09037294 -0.046758667 0.043752097
000390 9f 83 c2 bb ac f6 1c 3d c7 41 9e 3d f1 56 ae bd
       -0.0059361006 0.038321182 0.0772739 -0.085126765
0003a0 b8 e2 71 3d b5 72 ba bd 67 e2 b1 3d b7 83 40 3c
       0.059054106 -0.0910391 0.08685761 0.011750153
0003b0 f0 32 96 3c 80 a9 68 3d 52 3c 5f bd 32 18 69 3d
       0.018334836 0.056802273 -0.054500885 0.05690784
0003c0 5b 60 c6 3d a7 a1 83 bd b9 9b d7 bd 9c fe 84 3d
       0.09686347 -0.06427317 -0.105277486 0.064938754
0003d0 8f 07 89 3d 81 8b bb bd fa 14 ab 3d ef f6 e8 3c
       0.06690895 -0.09157468 0.0835361 0.02843806
0003e0 8d ad 2a bd 1b 51 57 3d 6d 28 e7 3c 0d 83 6a 3d
       -0.041669417 0.052567583 0.028217519 0.057253886
0003f0 b2 45 27 3e c5 ce a3 bb 09 41 5c 3b 6b 50 f5 bd
       0.1633518 -0.004999014 0.00336081 -0.11978229

actor.bias f4 [6]
000000 e3 cb d5 3d 2d d1 de 3d 14 f9 ba 3d 2d ba 97 bd
       0.10439279 0.10879741 0.09129539 -0.07408557
000010 93 bd 95 bd 46 f7 cb 3b
       -0.07311549 0.0062245457

critic.weight f4 [1, 64]
000000 67 bd 9c 3e 95 a9 87 bd b7 75 74 3e b6 8b 6c be
       0.30613253 -0.06624142 0.2387303 -0.2310017
000010 b8 b8 9a be 52 c5 a4 be 0d 46 53 3e cb 91 ad 3e
       -0.30219054 -0.32181793 0.20632191 0.33900294
000020 66 e6 55 be 05 32 5f be 07 5f 44 be 20 86 91 be
       -0.20888671 -0.21796425 -0.19176875 -0.28422642
000030 fb ee 82 be 02 ac f6 3d d4 e3 7e 3e 2a b0 6f 3e
       -0.25572953 0.12044527 0.24891597 0.23407045
000040 d6 a2 86 3e 9a 9b b0 3e e2 2a 6e 3e 80 00 39 be
       0.2629611 0.34493715 0.23258546 -0.18066597
000050 04 b4 25 be 2c 93 82 3e da 2e 58 3e 89 d8 bc 3e
       -0.16181952 0.25502908 0.21111622 0.36883953
000060 21 58 69 3e b9 75 89 3e f9 c5 71 3e 17 c0 7b be
       0.22787525 0.26847628 0.23610677 -0.24584995
000070 d5 c0 2a be f4 6a a8 3e 5f f7 68 3e ca 3f 9f 3e
       -0.16675122 0.328941 0.22750615 0.31103355
000080 5c 83 94 3e 14 e2 66 3e 4c 3b 82 3e bd 6e 3f be
       0.2900647 0.2254718 0.25435865 -0.18694587
000090 57 50 65 be 96 e7 9d be 6e a5 2b be 19 3c 8f be
       -0.22393928 -0.3084075 -0.16762325 -0.27975538
0000a0 21 af 5d be 59 c7 57 3e f1 3d 94 bd 7f 7b 1f be
       -0.21648838 0.21072139 -0.07238377 -0.15574454
0000b0 6a 83 73 3e d1 f0 59 be 66 6d 59 be 3d 5e 1f be
       0.23780599 -0.2128327 -0.21233138 -0.15563293
0000c0 85 76 0a 3d 29 aa 29 3e d5 93 99 3e 1d 3e 92 3e
       0.033804435 0.16568817 0.299956 0.28563014
0000d0 73 29 9b 3e c3 02 88 be 9e e3 84 3e 28 15 8d be
       0.3030506 -0.26564607 0.25954908 -0.27555203
0000e0 36 43 89 3e d0 33 03 3c a3 3e 8b be 25 22 82 3e
       0.2680909 0.0080079585 -0.27196226 0.25416675
0000f0 4f ba 79 be 28 72 9b be 52 ef a9 3d 46 cd 71 3e
       -0.24387477 -0.30360532 0.082976 0.23613462
