models/Walker2d-v2/ppo_clipped_20241114_021545.pth (torch, 26071 bytes, 7 tensors)

fc.0.weight f4 [64, 17]
000000 4b 10 aa 3e 25 81 82 3e 75 dd 89 3e 2f a4 f7 3d
       0.33215556 0.25489154 0.2692677 0.120918624
000010 33 de ab bd 1f 0e b7 3e de d0 ff 3d ea ce ce 3d
       -0.083919905 0.3575296 0.1249101 0.100980595
000020 59 2c 60 3e f2 72 f5 3e c0 35 b6 3e ba e1 96 be
       0.21891917 0.4793926 0.35587883 -0.2946909
000030 2e 51 11 be bc c6 9f be a4 2a 1e be 68 06 4e bd
       -0.14191124 -0.3120631 -0.15445954 -0.05029908
000040 6d ab 52 bd ad 94 7d 3e 5f 42 1b 3e bd 38 91 3e
       -0.051433016 0.24763747 0.15162037 0.283636
000050 09 2f 84 3d 9f 85 86 3d 6f c1 1a 3e cc 01 f3 bc
       0.06454284 0.06568455 0.15112852 -0.029663943
000060 6d 1d 9e 3e a5 33 ae 3e 43 d7 48 3c 5e d2 11 bc
       0.30881825 0.34023777 0.012258354 -0.008900253
000070 64 2f 75 be 28 ba 46 3d ba 7e b1 38 a2 6a 25 be
       -0.2394386 0.048517376 8.463622e-05 -0.16153958
000080 b7 cd 42 be 5c 79 04 3e 59 fe 00 3e 8b 8c 6e 3e
       -0.19023786 0.1293692 0.12597026 0.232958
000090 e4 ea af 3e 0e 69 9d bc 70 ef 1f 3e 2d 16 9d 3d
       0.34358895 -0.019215133 0.15618682 0.07670245
0000a0 99 35 28 3e 28 fd fb 3d a0 ae e9 3e e1 e1 4e 3e
       0.16426696 0.12304145 0.4564104 0.20203353
0000b0 28 6c c7 3d 96 a1 69 be 2e 04 1c 3d 59 42 a2 bc
       0.09737426 -0.22815546 0.038089924 -0.019807028
0000c0 79 57 a6 3d 4c c7 22 be 9c d4 4d be 68 00 21 3e
       0.08122153 -0.15896338 -0.20100635 0.15722811
0000d0 53 d9 79 3e 23 f2 07 3e 51 f8 ba 3e 4e 05 2d 3e
       0.24399309 0.13275962 0.36517575 0.16896555
0000e0 fe 39 9b 3e fe 34 03 bc 30 a7 d0 bd f5 65 d9 3e
       0.30317682 -0.00800824 -0.101881385 0.424606
0000f0 b2 3e a7 bc b4 b2 4a 3e 0c 18 57 3d 94 78 5e be
       -0.020415638 0.19794732 0.052513167 -0.21725684
000100 06 07 54 bd ac f6 56 be a4 3b 1f 3e 8a 52 ab 3d
       -0.05176451 -0.20992535 0.15550095 0.083653525
000110 eb f8 c1 3e cb f5 f5 3e 05 a7 9f 3e 58 f7 65 3b
       0.37885222 0.48039088 0.31182113 0.0035090055
000120 ca 8e de 3c 33 d2 76 3e d9 2c 06 3d 69 13 f0 3d
       0.027167697 0.24103622 0.032757614 0.11722452
000130 d8 c4 f8 3e 15 ac 80 bc ac 03 f8 3e ef 4d 10 be
       0.4858768 -0.015707055 0.484403 -0.1409223
000140 75 f4 5f be 22 c6 86 3d af ae 17 bd 4f 69 7a be
       -0.21870597 0.065807596 -0.037031826 -0.24454235
000150 b6 d2 54 be ac 31 78 be e4 cd 40 bd 2a cf e0 3d
       -0.20783505 -0.24237698 -0.047071353 0.109770134
000160 43 68 60 be 23 4d 55 3e 06 c4 5e 3b 6f 7f 65 3e
       -0.21914773 0.20830207 0.003399135 0.22411893
000170 63 16 35 be e8 12 1f 3e ea c5 06 bd bc ee 09 be
       -0.17684321 0.15534556 -0.03290359 -0.13469976
000180 96 6b 1b 3e 5e a4 74 be b6 23 2d bd 58 ad 33 3e
       0.1517776 -0.23890826 -0.042270385 0.17546594
000190 39 d6 95 bb 67 6e 18 3d 4b 31 e9 3c 9c 90 b9 3d
       -0.0045726565 0.037214663 0.028465888 0.09060785
0001a0 86 b4 6c 3e 0d 4c 56 3d ed 2c b7 3e 27 72 8b 3d
       0.23115739 0.05231862 0.35776463 0.06808882
0001b0 44 17 ad 3e 8e 0a 45 3e a7 1c d4 3e e2 3f 68 3c
       0.33806813 0.19242308 0.4142811 0.014175387
0001c0 0a fa 69 3e c6 be 39 be 32 36 61 3d 8a a0 c2 3d
       0.22849289 -0.1813918 0.054983325 0.09503277
0001d0 2c 8c f8 3b b6 94 82 be f8 b9 4d 3e 2a 36 68 3b
       0.007585069 -0.25504082 0.20090473 0.0035432675
0001e0 8e 2a 89 3e e9 3b 3b 3d 4f 75 7b 3c 1a a2 57 3e
       0.2679028 0.04571143 0.015347793 0.2105793
0001f0 7a 03 a3 3e f2 c3 5b 3d e1 07 c5 3e 3c ef f9 3d
       0.3183859 0.053653665 0.38482574 0.122038335
000200 da 53 44 3d d3 06 0b 3e db 40 86 be 86 da 8c bd
       0.04793153 0.13576822 -0.26221356 -0.068776175
000210 5c 39 ba bd 18 33 69 be 1e b7 28 be 7f 6f 58 3e
       -0.09092972 -0.22773397 -0.16476104 0.21136282
000220 0a 1e 53 3e f2 9d a5 3e 73 70 a9 3e 66 3d 81 3e
       0.20616928 0.32347065 0.33093604 0.25242156
000230 82 93 91 3e fa e1 d0 3e d7 7d a4 3d f1 1d d7 3d
       0.28432852 0.40797406 0.080318145 0.10503758
000240 8f 8a 64 bd 8b bf a0 3e 18 f3 90 3d 42 0d 94 be
       -0.055796202 0.31396136 0.070776165 -0.28916365
000250 1f 0c 26 be a0 b0 1b 3e 6a 8f 86 3d eb c2 e8 bd
       -0.16215561 0.15204096 0.06570323 -0.11365303
000260 48 05 d4 3d e9 56 97 bc 07 44 02 bf f1 94 8b 3e
       0.1035257 -0.01847406 -0.5088505 0.2726207
000270 ac 02 0d be 91 2f 92 3e 50 9d 7f be a1 0f e5 ba
       -0.1377055 0.28551915 -0.24962354 -0.0017475971
000280 05 92 e2 bd 84 2d 09 bf 95 f7 90 be 7c 1c 83 be
       -0.11063007 -0.53585076 -0.2831389 -0.2560767
000290 a7 98 4d 3e 64 c4 9b 3e 2a c5 6b be 54 db 2f 3e
       0.20077763 0.30423272 -0.23024431 0.17173511
0002a0 05 ac 15 3e 01 d8 1c 3c c6 fc c6 3d 9e d0 e9 be
       0.14616401 0.009572984 0.097161815 -0.45666975
0002b0 eb a1 08 bc 40 18 d9 3d 37 1e 69 bd 37 f3 87 bc
       -0.0083393855 0.106003284 -0.05691358 -0.016595466
0002c0 87 a2 09 be b8 ea ab bd 8c 7f aa be 85 c4 35 be
       -0.13440906 -0.083943784 -0.33300436 -0.17750748
0002d0 cd 04 0b bf c8 00 70 3e aa 19 00 3e 30 1a 96 bd
       -0.543042 0.23437798 0.1250979 -0.073292136
0002e0 da ba 03 3e d8 ae ed 3d 8b 05 4e 3e 11 82 4d be
       0.12864247 0.116056144 0.20119302 -0.20069148
0002f0 9a fe 76 3e 09 f9 23 3e 27 f4 4d be 5b 7b e8 3d
       0.2412056 0.16012968 -0.20112668 0.11351653
000300 3e 16 56 be 4d a1 00 3e 98 32 3f bd cf 2d 15 3e
       -0.20906922 0.12561531 -0.04667911 0.14568256
000310 a6 c2 12 3e be 79 84 3e 06 f3 be bc 80 bc 29 be
       0.14332065 0.25874132 -0.023309242 -0.16575813
000320 6d 27 92 bd 44 93 af 3e 0a dd 82 3d 7e ec 17 3e
       -0.07136426 0.34292042 0.06389816 0.14836308
000330 22 d2 ca 3d 21 7b ce 3d 7a d6 dd 3e 2a 79 c9 3e
       0.09903361 0.10082079 0.43327695 0.39350253
000340 7e 51 a2 3e a5 07 95 3e fc f5 48 3d 02 a8 aa 3e
       0.317028 0.29107395 0.049062714 0.33331305
000350 76 e4 82 bd 96 a5 68 3c 4c 87 86 3d f3 54 28 3e
       -0.06391232 0.014199635 0.065687746 0.16438656
000360 38 47 9e 3e d5 c4 49 be 91 1f f8 3c 6d c2 91 3d
       0.3091371 -0.19703992 0.03028849 0.07117162
000370 25 6d 0d 3e 39 6c bd 3e f1 df 57 3e f0 5b ae bc
       0.13811167 0.3699663 0.2108152 -0.021284074
000380 b8 c8 2a 3e 8a e8 ca 3e 62 54 d3 bc 6b f7 c4 3e
       0.1667813 0.39630538 -0.025797073 0.38470015
000390 a5 cc c2 3e 00 fc 01 bd 45 83 c5 3e fb e4 a7 3c
       0.38046756 -0.031734467 0.38576713 0.020494929
0003a0 3a 80 af 3d 48 65 18 3d 01 72 ea 3d fa ec 7c be
       0.08569379 0.037205964 0.11447526 -0.24699774
0003b0 34 95 01 3e 15 3c 03 be cb 82 d1 3c e3 af b0 3e
       0.12654573 -0.12815888 0.025575062 0.3450919
0003c0 1f 97 7e 3d fe f5 a2 3d 13 ac 27 bc 4b f8 ac 3e
       0.06215584 0.079570755 -0.010233897 0.33783183
0003d0 81 9d b8 3e 97 12 45 3d df ad 93 3e 1e 3d fc 3e
       0.36057666 0.04811343 0.2884359 0.4926538
0003e0 02 63 74 3e 84 46 d0 3d 86 87 a4 be 40 34 84 be
       0.23865893 0.101697 -0.32134646 -0.25821114
0003f0 70 12 25 3e 86 07 39 be 20 c9 9a be 81 8b 6c bd
       0.16120315 -0.18069276 -0.3023157 -0.05775023

fc.0.bias f4 [64]
000000 8c 35 11 3d 3d f1 93 3e 15 d5 c1 bc 14 4e 81 3d
       0.035451457 0.28894988 -0.023661176 0.0631372
000010 fd 99 82 3e 81 8c 05 bd d3 db 63 3e 3d 2d bc 3e
       0.2550811 -0.032604698 0.22251825 0.36753264
000020 b2 24 c8 3e 8c ff 34 3d 64 0d 13 3e 28 11 f5 bd
       0.39090496 0.04418902 0.14360577 -0.11966163
000030 fc b4 55 3e 74 f6 e7 3b a9 01 71 3e 82 56 03 3e
       0.20869821 0.00707894 0.2353579 0.12825969
000040 33 94 8f bb 4e 6a b2 bd 89 ee d7 3d e2 31 39 3e
       -0.0043816804 -0.08711682 0.10543544 0.18085435
000050 ef 6e a3 3e c8 51 9c 3e 52 c7 48 3e 77 12 ed bd
       0.31920573 0.30531144 0.19607285 -0.115757875
000060 c2 a4 be bd 16 96 0e 3e fe 86 ab 3d 72 91 a1 3e
       -0.09308769 0.1392444 0.08375357 0.31556278
000070 96 a9 05 3e 5a 1f 73 3e 80 d0 c1 3e b2 e8 78 3d
       0.13052973 0.23742428 0.37854385 0.06076879
000080 a1 2d 9a 3e b6 18 b9 3c f0 96 c1 3e 3b 6b 73 3e
       0.30112937 0.02259479 0.3781047 0.23771374
000090 da e3 c4 3e da 37 29 3d 05 5c 84 3e 95 04 32 3e
       0.38455087 0.04131303 0.25851455 0.1738456
0000a0 c9 e5 b3 bc ac 17 a9 bd a1 65 97 3e 11 2e 76 bc
       -0.021960156 -0.08256468 0.29569724 -0.0150256315
0000b0 88 b8 ad bd f7 a8 0c 3e f7 eb dd 3e 00 7e ac 3e
       -0.08482462 0.1373633 0.4334409 0.3368988
0000c0 0e ed 91 3e d6 75 57 3e ea a8 71 3e 3e 3e 24 3d
       0.2850117 0.21041045 0.23599592 0.04009842
0000d0 32 f6 d7 bc 4a 4d 24 3e 28 7a 8a 3e 5d a2 2f 3e
       -0.026362512 0.16045108 0.27046323 0.1715178
0000e0 ac 8a 89 3e fe a3 83 3d 9a 0a 5b 3e 1c b7 6f 3d
       0.2686361 0.064277634 0.21390763 0.058524236
0000f0 a4 a5 38 3e 73 b5 39 3e 99 e7 ba 3e 8d ae 8b 3e
       0.18031937 0.18135624 0.3650482 0.2728161

fc.2.weight f4 [64, 64]
000000 5a be ae 3d 18 10 d6 bd 6e e5 d9 bd 43 e8 bd bd
       0.085324004 -0.104522884 -0.10639463 -0.09272816
000010 64 97 8f bd a2 24 de 3d 92 8c da 3d ba 73 d7 3d
       -0.07011297 0.10846831 0.10671343 0.1052012
000020 27 79 e4 3d 26 54 6c bd 28 6e 81 bd 60 d2 5d bd
       0.111559205 -0.057697438 -0.06319839 -0.054155707
000030 e9 6f 50 3c 53 5a 06 be 62 cb 69 bc 34 3f bf bd
       0.012721994 -0.13120393 -0.014269682 -0.09338227
000040 62 3f cf bd 01 88 5b 3d 2d 1b 49 bd 57 74 9b 3d
       -0.10119511 0.0535965 -0.049098182 0.075905494
000050 40 2c 11 bd f3 13 ff bd a0 a8 09 be c3 f5 82 bc
       -0.03544259 -0.12454977 -0.13443232 -0.015986329
000060 1c 61 8d 3d ae 7e d3 3d 36 31 a3 bc b1 31 b5 bd
       0.06903288 0.103268966 -0.019920927 -0.088473685
000070 f4 6e 6e 3d 22 eb 13 3d e6 e4 ba bc 93 d3 91 bc
       0.058211282 0.036112912 -0.022814225 -0.017801082
000080 d7 b4 f6 3b c9 1c cf 3d 48 97 80 bd fb ed e4 3c
       0.007528882 0.10112912 -0.062788546 0.02794551
000090 c2 d7 8f bd e4 8c b6 3d 42 8b bf 3c a1 12 ad bc
       -0.070235744 0.089135915 0.023381833 -0.021127047
0000a0 d7 4a ed bc 27 d8 32 bc 81 1e c7 3b ac 39 ae bd
       -0.02896635 -0.010915793 0.0060766344 -0.08507094
0000b0 48 5c 21 bd fe 71 60 3d 76 24 c7 bc 2b 4a 13 bc
       -0.039394647 0.05479621 -0.024309378 -0.008989851
0000c0 86 1b cc bd be e9 41 3d 7f 5c 62 3d cc 3e 32 bc
       -0.09966187 0.047342055 0.055263992 -0.01087923
0000d0 00 d2 b8 3d f5 aa 58 bd 9f fc cb 3d 2a c9 25 3c
       0.09024429 -0.052897412 0.09960293 0.010118762
0000e0 5f e7 40 3d 18 cb 00 be a7 5e cf 3d 73 8b 0a 3d
       0.047095653 -0.12577474 0.101254754 0.033824395
0000f0 c8 29 bd bc 7b 33 4e 3d a2 41 bb bd 6e 2a ca 3d
       -0.023091212 0.050342064 -0.09143378 0.09871374
000100 db f2 4c 3e bf d1 ab 3d dc f4 8c 3e b7 7a 8f 3e
       0.20014517 0.08389615 0.27530563 0.28023311
000110 db 27 3c 3e 26 f6 db 3d 75 6e 14 3e 3a 1e 05 3e
       0.18374579 0.107403085 0.14495261 0.12999812
000120 1c 51 7b 3e 79 4c 8f be 52 e1 4b be 39 bd b1 be
       0.2454266 -0.27988032 -0.19910172 -0.34714678
000130 a3 54 b4 3d 86 f6 79 3e 79 d3 52 3e 58 9d d7 3d
       0.08805206 0.24410447 0.20588483 0.10528058
000140 78 55 84 3e 06 ba 54 3c ab 52 7f 3e 23 03 c7 be
       0.25846457 0.012983805 0.24933879 -0.3886958
000150 8d 7c e5 3d 61 3d 8a 3e dc 8e 81 3c bf 22 b6 be
       0.11205397 0.26999953 0.015815191 -0.35573384
000160 21 0d f7 3d 13 c6 46 3e b1 7c 48 3e de 09 31 3e
       0.12063051 0.19411497 0.19578816 0.1728892
000170 d7 a7 28 3e 92 b2 da 3d 6f eb 84 3e a0 21 81 3e
       0.16470276 0.10678591 0.25960872 0.25220966
000180 6a bc 05 3e 90 91 67 3e b2 26 28 3e 0f 30 81 3e
       0.13060156 0.22614121 0.16421011 0.25231978
000190 c3 f2 f9 3d 0d 02 7f 3e 17 f2 8d 3e 3c 1d e4 be
       0.12204506 0.24903126 0.27723762 -0.44553554
0001a0 66 04 45 3e 33 9f 25 3e bc 81 18 3e cc 00 36 3e
       0.19239959 0.16174011 0.1489324 0.17773741
0001b0 5f a7 b2 be ba 96 34 3c fc 3b 7a 3e cc 57 cb 3c
       -0.3489332 0.011022264 0.24436945 0.024822138
0001c0 62 d7 7b 3e 37 94 dd be a2 d5 c0 3d bf 21 99 be
       0.24593881 -0.4327714 0.09415747 -0.2990856
0001d0 5a b5 27 3e 72 37 a0 3e 2a 13 9e 3e 97 2f b3 3d
       0.16377774 0.312923 0.30873996 0.087493114
0001e0 c0 07 e7 3d 8d 7f 5a 3e af 6a d9 3d 51 b6 32 be
       0.11280775 0.2133772 0.106160514 -0.1745236
0001f0 0d b6 41 be 7c 08 92 be 30 42 16 3e 8f 4d 99 3d
       -0.18917103 -0.28522098 0.14673686 0.07485496
000200 9f 54 7b 3e d6 b5 f9 3d 4f 50 f9 3d d7 a9 48 3e
       0.24543999 0.121928856 0.12173521 0.19596039
000210 e5 63 1a 3e 30 72 6c 3d 81 2b 4c 3d 8f 9f 2b 3e
       0.15077169 0.057726085 0.049846176 0.16760086
000220 a8 9e 31 3e 14 6c ca be b3 11 9a be d4 3c db bd
       0.17345679 -0.39535582 -0.30091628 -0.107049614
000230 cc b3 68 3e 95 89 ab 3d e9 9c af 3e c2 10 20 3e
       0.22724837 0.08375851 0.342994 0.15631393
000240 96 b5 63 3e 8a 2c dc 3c 7d 8e 78 3e 02 3f 59 be
       0.22237238 0.026876707 0.24273105 -0.21215442
000250 cf 5a f2 3d 24 40 40 3e ad c0 f3 3d 2f 68 b2 be
       0.118337266 0.18774468 0.11901984 -0.3484511
000260 1b 51 83 3e 83 8a 20 3e 71 71 68 3d 4d 5e 3d 3d
       0.25647816 0.15677838 0.05674881 0.04623251
000270 3d 52 04 3e 53 fe 4e 3e c7 f9 86 3e 4a fd 90 3e
       0.12921996 0.20214204 0.2636244 0.28318244
000280 87 98 6c 3e 2d a9 c6 3d 1d a1 9b 3e 45 e4 5b 3e
       0.2310506 0.097002365 0.30396357 0.21473797
000290 d1 0c 99 3e 27 fa 58 3e 2d e2 90 3e 0f bb d9 be
       0.2989259 0.21189176 0.28297558 -0.42525527
0002a0 db a4 25 3e a3 e9 37 3e 4a 13 72 3e 8c 5a b2 3e
       0.16176169 0.17960219 0.2364017 0.34834707
0002b0 10 12 88 be f8 83 45 3e 18 50 82 3d 1b 49 86 3d
       -0.2657628 0.19288623 0.06362933 0.065569125
0002c0 b0 7b 8d 3e 3b 76 b4 be 1c 61 65 3e 59 80 b8 be
       0.2763343 -0.35246453 0.22400326 -0.36035421
0002d0 79 aa 90 3e 6d a5 68 3e cf 53 51 3e 0a ba 25 3e
       0.2825506 0.22719355 0.20442127 0.1618425
0002e0 6e 69 85 3e b8 7c 47 3e 67 9d 82 3e a6 b9 92 be
       0.26057 0.1948117 0.25510713 -0.28657264
0002f0 4f d6 b7 be e3 0d ac be 9b b5 97 3d ee 7b 89 3e
       -0.35905692 -0.33604345 0.07407685 0.26852363
000300 b0 c2 a5 be 46 06 11 3e 5e 48 19 be ca 0f d8 be
       -0.32375097 0.1416255 -0.14969012 -0.42199546
000310 a1 2d 98 bd 13 1f 8e 3d ca 27 11 3d e9 34 0d 3e
       -0.07430578 0.06939521 0.035438336 0.13789715
000320 1c 60 c4 3d d7 a7 6d 3e 6e 1b 29 3e f3 ff 0f 3e
       0.09588644 0.23208557 0.1651437 0.1406248
000330 99 6c 8c 3e cf d8 89 3e 22 36 20 be 86 f1 e8 bd
       0.27426603 0.26923224 -0.1564565 -0.11374192
000340 b7 e2 f0 bc 7e 0a 37 3e 3f d9 57 be ed 11 7f 3d
       -0.029404981 0.17875096 -0.21078967 0.062272955
000350 3c dc 30 3e 1b 59 28 be cb d2 90 3e a9 20 8b bc
       0.17271513 -0.16440241 0.28285822 -0.016983347
000360 59 4a 92 be e8 5d 6a 3e a6 47 2c be 4e d5 53 3e
       -0.28572348 0.22887385 -0.16824207 0.20686838
000370 26 69 96 be 56 ed 80 be 89 d3 35 bb 1b db 73 be
       -0.29377097 -0.25181073 -0.0027744493 -0.23814051
000380 f5 94 eb 3d 15 a5 b0 3e f0 f0 17 be 95 c3 94 3d
       0.11503021 0.34500948 -0.14838004 0.07263867
000390 9e b4 db 3d 49 6d 53 be 91 f5 88 be a2 e3 8d be
       0.10727809 -0.20647158 -0.26749852 -0.27712733
0003a0 65 2d a5 be 95 30 b3 be b5 d5 98 bd f7 7c d1 be
       -0.32261196 -0.34998003 -0.074626364 -0.40915653
0003b0 0c 0e 14 be bf 6e 5a be 8e db a7 3e ca a6 50 3d
       -0.14458483 -0.21331309 0.32784694 0.050940312
0003c0 54 7c 2a be 95 9d 41 3e 21 9e 9e bd 15 25 3c 3e
       -0.1664899 0.18907769 -0.077450044 0.1837352
0003d0 8a 79 ed bd 12 6d 73 be a2 61 99 be 57 64 41 bd
       -0.11595447 -0.23772076 -0.299573 -0.047214832
0003e0 98 29 9f be 4c 16 b8 be 0a 3f 2a be a0 49 3a bd
       -0.3108642 -0.3595451 -0.1662561 -0.04548037
0003f0 8a 32 b1 3d 9b 72 2d 3d 29 08 9a 3e 71 a2 09 be
       0.08652218 0.042345624 0.3008435 -0.13440873

fc.2.bias f4 [64]
000000 e7 de b6 bd 98 bd 30 3e fa cf 5a 3e 32 f2 2b bd
       -0.08929234 0.17259824 0.213684 -0.041979022
000010 70 44 4a 3e 55 27 f2 3d 0d dd f8 3c 71 78 c7 3d
       0.1975267 0.11823908 0.030378843 0.09739769
000020 7f 8e 27 3e 5b 49 21 3e 74 b2 fc 3d a6 80 c6 3d
       0.16362952 0.15750639 0.12338725 0.096925065
000030 86 a7 44 be 3e 34 85 3e ae 68 47 3e dc 3e a7 bd
       -0.1920453 0.2601642 0.19473526 -0.08166286
000040 ac de 1d 3e e1 51 a1 3d 1e 84 bc 3d 49 84 bd 3d
       0.15416974 0.07876945 0.09204887 0.09253747
000050 70 b2 6a 3e 63 2a d3 3c 25 2e 36 3d 6b a0 17 3e
       0.22919631 0.025777048 0.0444776 0.14807288
000060 c6 5c d3 3d 05 40 0b 3d 1b 90 82 3d c5 1c 1c 3e
       0.103204295 0.0339966 0.06375142 0.1524535
000070 4a f5 36 3e 91 a0 3b 3d 38 44 85 3e 6b c6 20 bd
       0.17867008 0.045807425 0.2602861 -0.039251726
000080 1d 7c 97 3d 0a 72 2e 3e 42 67 f1 bd 82 92 47 3e
       0.073967196 0.1703569 -0.11787273 0.19489482
000090 55 71 40 3e d0 1c fc 3d 0b 35 e8 bb 1c 33 48 be
       0.18793233 0.12310183 -0.0070864013 -0.19550747
0000a0 a4 8b 5c 3e 1e 65 0c 3e 72 16 38 3e 85 81 05 3e
       0.21537644 0.13710448 0.17977312 0.13037689
0000b0 46 d4 32 3e 26 0b e8 3d a5 78 f5 3d 89 9f 37 3e
       0.17463788 0.113302514 0.11985902 0.17931952
0000c0 24 a8 8b 3c 79 ca 5c 3e f4 d2 67 3e 6d 7e 44 3e
       0.01704795 0.21561612 0.22639066 0.19188853
0000d0 e6 ab 11 3e 97 fd 24 3e 5d 08 4d 3e af 59 07 be
       0.1422573 0.16112362 0.20022722 -0.13217805
0000e0 4c 01 e1 3d 0c c9 2c bd 13 44 fe 3d c0 93 8f 3d
       0.109865755 -0.04218392 0.12415328 0.07010603
0000f0 20 a9 01 3d c1 83 23 3e ee 22 65 3e af 53 77 3e
       0.03165543 0.15968229 0.22376606 0.24153017

actor.weight f4 [6, 64]
000000 15 3e 0c 3d e0 45 6d bd 60 b8 88 3d 28 98 e8 bd
       0.034238894 -0.057927966 0.06675792 -0.113571465
000010 14 41 c4 3d e0 43 88 bc e2 e1 d1 3d 7a 33 5e 3d
       0.09582725 -0.016633928 0.10248162 0.05424831
000020 29 d0 bf 3d b8 5e e5 bd a7 f4 05 bc 8d 7b f0 bd
       0.09365875 -0.11199707 -0.008176005 -0.117423154
000030 85 42 be 3d 43 81 27 3d 48 1e da 3d d4 3e 21 bd
       0.09290031 0.040894758 0.10650307 -0.03936656
000040 98 46 dd bd 25 ca c0 3d 48 0a a0 bc 77 c8 a3 bd
       -0.1080448 0.09413556 -0.019536152 -0.0799722
000050 62 c9 4b 3b 17 ab 1b bc 22 fb f3 3b 4e 70 cd 3d
       0.0031095375 -0.00950124 0.007445709 0.10031186
000060 79 8c 1a 3d c1 c5 22 bd aa f9 a6 3d ad 76 a5 3d
       0.03773162 -0.039739374 0.081530884 0.08079276
000070 60 eb 5f 3c 43 d8 01 3d a4 a6 dd 3c 8e 09 c6 3d
       0.013666958 0.031700384 0.027057 0.09669791
000080 1f dd 56 bd a7 05 1d bd 8e 7a 11 3d 00 2e a2 3d
       -0.05245697 -0.03833547 0.035517268 0.0791893
000090 8a 11 17 bd 64 a4 51 bd c6 86 a7 bb 5c 2a 66 3c
       -0.03688196 -0.051182166 -0.005112502 0.014048185
0000a0 fc b9 52 3d a7 7c d7 3a b8 e7 14 ba 44 2f 17 bd
       0.0514469 0.0016440348 -0.0005680281 -0.03691031
0000b0 85 b6 4d 3d d9 c7 97 3c af 80 83 bd 89 66 b9 bd
       0.050222892 0.018527912 -0.06421029 -0.0905276
0000c0 1f c7 eb bd 3f e0 d7 3d 79 3c 6a 3d 38 d5 02 be
       -0.11512589 0.105408184 0.057186577 -0.12776649
0000d0 b5 c2 da bd dc 33 76 3d 6f f3 61 bd 96 d7 03 3e
       -0.10681669 0.06010805 -0.055163797 0.12875208
0000e0 77 7f ad 3d 70 84 01 3c 55 11 50 3c cd b0 fb 3d
       0.084715776 0.007905111 0.012699445 0.122895814
0000f0 d7 16 5e bd 38 ee 16 bd 7f 87 bc 3c d6 96 d2 3d
       -0.054221 -0.036848277 0.023013828 0.10282676
000100 55 9a bc 3b 12 e9 c9 3b 51 f1 89 3d 68 60 93 3d
       0.0057557025 0.0061618173 0.067354806 0.071961224
000110 5f 28 ad bd df 01 8f bd ff c6 3a 3d 8b 0d 83 3d
       -0.08454966 -0.06982779 0.045599934 0.063990675
000120 e2 44 ca b8 23 a8 9a 3d f2 d8 0f bd 50 48 cc bd
       -9.644941e-05 0.07551601 -0.035119005 -0.0997473
000130 52 19 82 3d fc 63 53 3d ea e2 52 3d 50 b5 66 bc
       0.06352486 0.051609024 0.051485933 -0.014081314
000140 4e f7 13 bd 43 0f 79 3d 7f a4 e1 bd 71 6c c2 3b
       -0.03612452 0.06080557 -0.11017703 0.0059333374
000150 26 1c d2 bd 44 13 90 3c 03 c2 b7 bc cb d8 3d 3a
       -0.10259275 0.017587312 -0.02243138 0.00072420825
000160 ea 65 a6 bd aa 6c 7c b9 47 81 1f bd 3e 12 f3 bd
       -0.08124907 -0.00024073073 -0.038941648 -0.11868714
000170 43 7c 46 3d 01 5d 5e 3d 3b a5 0f 3c 90 d7 f1 3d
       0.04845835 0.054287914 0.008767421 0.118086934
000180 fa 44 d8 bd 91 95 cf bd 6f 17 ef bd f1 28 c5 3d
       -0.10560031 -0.101359494 -0.116743915 0.096269496
000190 53 02 f5 bd e9 7b 11 3c a2 9c f3 bc 54 83 01 3d
       -0.11963334 0.00887964 -0.029737774 0.031619385
0001a0 d5 5d 01 be 80 23 bd bd ef 0e 9d bd 0b 83 42 bd
       -0.1263345 -0.09235287 -0.07668864 -0.047488254
0001b0 bc 14 98 3d f0 26 ed 3d c4 da da bd 20 84 d1 3d
       0.0742583 0.11579692 -0.106862575 0.10230279
0001c0 e1 a9 52 3d a6 d5 05 be b3 a9 32 bd f3 9e 5a bd
       0.05143154 -0.13069782 -0.04361887 -0.053374242
0001d0 f9 4b 65 3c 08 a3 e3 3d 51 5c ae bd 7b 35 89 3d
       0.013995164 0.1111508 -0.08513702 0.06699654
0001e0 c2 d9 d5 bd d8 ba 94 bc 50 25 07 3c 13 88 9b bd
       -0.10441925 -0.0181555 0.008248642 -0.075943135
0001f0 b7 96 fe 3b b2 fd f4 3d 20 ff d3 3d 14 41 da bd
       0.0077694315 0.11962451 0.103513956 -0.10656944
000200 95 a9 92 3d 74 25 97 3d 13 67 da 3d ac e5 96 3d
       0.071612515 0.073801905 0.10664191 0.07368025
000210 8d 20 d3 bc 8a 81 da bd 29 98 e3 bd a8 62 e6 3d
       -0.025772357 -0.10669239 -0.111130066 0.11249286
000220 c6 c4 ad bd ba 0e 24 bd e2 34 1f 3d b8 4a d0 3b
       -0.08484797 -0.040053107 0.038868792 0.0063565634
000230 38 60 c8 3d 63 52 a9 3d 0b 31 25 3c 98 34 d2 3c
       0.09783977 0.08267667 0.010082494 0.025659844
000240 97 3f e8 bc e0 92 c5 3d 08 8d a2 bd 70 0a dd 3d
       -0.028350635 0.09647155 -0.07937056 0.107930064
000250 b6 3b c2 bd 12 d9 b5 bd 07 7a ff 3d e3 d5 b3 bd
       -0.09484045 -0.088792935 0.12474447 -0.0878103
000260 12 d5 00 3e c8 5a a9 3c 56 ab 8c bd 47 a3 37 bd
       0.1258128 0.02067317 -0.06868617 -0.044833448
000270 9a c9 d4 3d 3e 0a 1e 3d 1d 92 11 3d fc 3a 72 3c
       0.10390015 0.038583986 0.035539735 0.014784571
000280 5a fe 18 3d 78 75 98 3c d2 ae e0 bc 32 e4 ab bd
       0.037351944 0.018610701 -0.02742711 -0.08393134
000290 49 fa 8b bd 51 96 f6 3c 6c c8 5f bd 47 b5 75 bd
       -0.068348475 0.030100973 -0.054634497 -0.059987333
0002a0 d0 3f b1 3c 1d 80 e3 3c b7 db 25 3c a9 9a 5a bd
       0.021636873 0.02777105 0.010123185 -0.05337015
0002b0 6d e3 93 bd 3f 1b f6 bd f5 7c 17 3d b5 0c 22 b9
       -0.072211124 -0.120169155 0.036984403 -0.00015454258
0002c0 04 bc a0 3d 16 c6 c2 ba 9a 94 06 be 60 12 9f bd
       0.07848361 -0.001486006 -0.13142624 -0.07767177
0002d0 67 e2 2a bd f0 08 ce bd 79 33 78 3d aa 79 ef bd
       -0.04171982 -0.100602984 0.060595963 -0.116931275
0002e0 ce 9d 20 3d 3e aa af 3d 6f a6 6b bd d2 4c 31 bd
       0.039212994 0.08577393 -0.05753177 -0.043286152
0002f0 c1 0e cc 3d 8a 14 06 bd 47 f7 d7 bd a7 34 0b 3b
       0.099637516 -0.03273443 -0.10545211 0.00212411
000300 72 82 cf bc d5 c4 28 bd 96 16 b6 bd 9e ac b5 3d
       -0.025330756 -0.04120334 -0.08891027 0.08870815
000310 47 0d a5 3d d9 f1 c1 3b 0d 2c 44 bd 6a 68 f9 3c
       0.08059173 0.005918723 -0.047893573 0.030445296
000320 b4 ec c3 bd 70 7c df 3c c3 9e cd bc 86 f0 83 3d
       -0.09566632 0.027281016 -0.025100118 0.064423606
000330 6b 93 0a 3a de 4f ec 3d a7 44 45 3b e0 53 fd bd
       0.0005286249 0.11538671 0.0030100734 -0.123695135
000340 0d b8 01 be 6e 4a 29 3d a6 c2 94 3d d8 16 67 bc
       -0.12667866 0.041330747 0.07263689 -0.0141045675
000350 ef 87 05 bd 65 b1 c0 bd 05 0a 5f bd 5b 71 c7 bd
       -0.03260034 -0.09408835 -0.054452915 -0.09738418
000360 7b 8d 03 3e 1f a1 c7 3d c2 c1 6a 3d 02 43 0b 3d
       0.1284694 0.09747528 0.057313688 0.03399945
000370 05 a9 39 bd d1 c7 b8 bd 63 fa da bc 89 58 86 bd
       -0.045327205 -0.09022487 -0.026730722 -0.065598555
000380 29 67 7f bd 80 59 aa 3d 6f f6 d0 3c cb 58 52 bd
       -0.06235424 0.08317852 0.025508134 -0.05135421
000390 42 33 e3 3d 39 97 c9 bd 1c a3 f7 3d 21 bb ff bb
       0.11093761 -0.098432966 0.120916575 -0.00780429
0003a0 f2 ec aa bd b2 7c a0 3d 8e 62 cd bd 65 62 ce bd
       -0.08345975 0.07836284 -0.100285634 -0.10077361
0003b0 c4 81 4a bd b5 c8 f3 3d 47 53 74 3c 49 1a 83 3c
       -0.04944016 0.11903516 0.014912433 0.016003745
0003c0 54 37 fc bd a5 61 e7 3d 97 71 49 3d 18 87 21 3d
       -0.123152405 0.11297921 0.049180593 0.039435476
0003d0 78 73 ee 3d 38 a9 84 bd 46 9e 55 3d 82 98 ae bc
       0.11643118 -0.064775884 0.052152894 -0.021312956
0003e0 bd 30 2e 3d ca e8 8d bd c2 cf f7 3c ff 04 ec bd
       0.04252695 -0.069291666 0.030250434 -0.115243904
0003f0 0e 30 03 3d 85 ea d2 3c cc 42 91 bd 7c 9f a3 bc
       0.03202825 0.025746593 -0.070928186 -0.019973509

actor.bias f4 [6]
000000 23 94 9f 3c 1b 4d 33 3d 6e 7e 2c bd e9 b4 8f 3d
       0.019479817 0.043774705 -0.04211276 0.07016928
000010 e1 6a 96 bc 5b 50 b1 bd
       -0.01836151 -0.08657905

critic.weight f4 [1, 64]
000000 30 30 db bd 99 cb 86 3e 89 d7 83 3e 63 8a c5 be
       -0.107025504 0.26327208 0.25750378 -0.38582143
000010 c9 43 ad 3e eb c7 c5 be 8b 49 c3 be a9 9e b9 be
       0.33840778 -0.38629088 -0.38142046 -0.3625386
000020 d0 0b 9c 3e 6b 0a bc be 8b d4 c2 be 4a 16 a1 3e
       0.30477762 -0.36726698 -0.38052782 0.31462318
000030 24 bf 9f be b6 88 c6 be a8 3d 79 3e 48 04 fa bd
       -0.31200516 -0.38776177 0.24339926 -0.12207848
000040 41 54 dc be 3e 7a c9 be 18 79 a3 3e 2d 4f 97 be
       -0.4303303 -0.39351076 0.31928325 -0.29552594
000050 de 0b 62 3e f4 2c 9d 3e 70 18 2e bd 12 af 9a be
       0.2207484 0.3069836 -0.042503774 -0.30211693
000060 2f 32 6d 3e 12 5a 9c 3e a7 b8 2e bd 0c 53 8c 3e
       0.23163675 0.30537468 -0.042656567 0.2740711
000070 a6 9c b6 be 30 28 87 3e bd c9 9c 3e c4 e1 11 bd
       -0.35666388 0.26397848 0.30622664 -0.035615698
000080 e1 58 a7 3e d8 48 6f 3e 98 b4 cc bd bd 21 a8 3e
       0.32684997 0.23367631 -0.09995383 0.3283824
000090 81 3a 80 3e 10 a0 af 3e b5 af a0 3e f1 e6 84 be
       0.25044635 0.34301805 0.31384054 -0.25957444
0000a0 ea 17 91 3e 3c 28 80 3e e7 57 b8 be 2b 8e 8e 3e
       0.28338557 0.25030696 -0.36004564 0.2784284
0000b0 e8 f1 d6 be 4d 9e bd be c0 3f 79 3e 8a ad 94 3e
       -0.41981435 -0.37034836 0.24340725 0.2903865
0000c0 3f 6a d0 bd 58 40 98 3e 5c f2 85 3e df ee 7b 3e
       -0.10176515 0.2973659 0.26161468 0.24602841
0000d0 9b 3e a9 be d1 98 00 3f 7a ce ab 3e 45 07 67 3d
       -0.33055577 0.5023318 0.33555967 0.056403417
0000e0 67 b1 8b bc 20 d3 12 3c fa 82 58 3e 91 ee d3 bc
       -0.017052365 0.008961469 0.21143714 -0.025870593
0000f0 3f 16 ba 3e 0e 01 b1 be 77 f8 62 3e f3 44 bb be
       0.36345097 -0.34571117 0.22165094 -0.36576042
