models/Walker2d-v2/ppo_kl_20241114_021700.pth (torch, 26021 bytes, 7 tensors)

fc.0.weight f4 [64, 17]
00000000: 220b fc3d 0f1d e63e a597 f7bd 9440 943e
00000010: 6422 0d3c 8aec 06bd efc3 8b3e 1558 883e
00000020: 8eea 0a3e ea17 5d3e 57fe c33e 59b6 f3bd
00000030: be09 eebd 2579 a83c 0916 22be e671 9cbc
00000040: afb4 38be 2160 203d cb76 f73d 8386 1f3e
00000050: 7527 473e fcbf 96bd 4c84 b73e 85ed b43c
00000060: 7d96 9f3e fca9 e93e d9c7 25bc 49e6 9f3e
00000070: 06b6 8bbe bd1e 933d fbad 09be 66ca da3d
00000080: b7c0 cabd e764 4a3d 8506 0e3e 1d96 3e3e
00000090: 809b 9a3e 87a0 0e3e 674c 8c3e 659d a53e
000000a0: 0c47 7d3e 4663 bebc f976 543e 5c87 3e3e
000000b0: ba14 de3e ad2c 29be fb18 70be 9bfe 2b3e
000000c0: c3d3 6cbe 6fb1 3dbe 1876 41be 3bf7 c33e
000000d0: e164 a33e 70a4 a13e 09cc bf3d edba 043e
000000e0: a3cd 8d3e 6bb1 363d 2086 21bd 25e6 553e
000000f0: 42bb 883d a2f9 333c 1b35 a6b8 698c 8cbe
00000100: e5bb 22be 7115 c8be 5964 9fbe cdbc 793e
00000110: 24f1 20bb 222d 11be 5261 ff3c d5e5 483e
00000120: 6266 5ebe 374d edbd 13ae 90bc 53dd 50bd
00000130: 30a9 e83d b664 70be 1d50 a73e e7c9 3f3e
00000140: a4bc 08be 34f9 873d 33a3 2a3e 8527 d2bc
00000150: 1834 a1bb a1dd 0dbd 33c0 04bf bf62 2f3e
00000160: f7f2 de3d 2b90 8cbd bdb2 d33d ddf4 b9bd
00000170: 947c 8b3e 48ee 89be f841 8abe 41b4 dabe
00000180: ccdd 373e 9eca 0e3e 858d 77be 9d91 473d
00000190: 8a7f 06bd 522f 5bbd 01ef 8d3b aaa8 d73e
000001a0: 6698 4abc 09a7 653e af4f 983d cfc8 3dbb
000001b0: 316b e2bc 60e5 7b3e b32a 2d3e 0ada 923e
000001c0: 798e bf3e b5ae 803d a135 a0bd dfe9 343e
000001d0: bbac 513e c09c 0a3e 7b26 eebd 611e e8bd
000001e0: c064 4a3e 6b19 44be 4a6c 36be da25 45be
000001f0: ce28 853e 37fc 4abe 3769 2fbe 1b00 ee3d
00000200: f7e3 7ebd 5c24 bf3d fba1 09bd 06ef 07be
00000210: 4638 1cbe daa5 6dbe 5a81 0dbe 4b3b c73d
00000220: d385 88bd 8894 d33e f5c5 173e f2b3 053c
00000230: 5143 713e 12f2 b83e 8967 a93c 740f a53d
00000240: 0a2e 303e d2be 203e c6f7 ce3e 13b8 193e
00000250: be74 20be 7612 253d 1d09 1b3e 0dc2 1f3e
00000260: 1c70 3fbe 8d84 b23e 31ef 583e 8f7b 883e
00000270: f9b1 f4bd 444e bebd c390 8b3e 6aa2 91bd
00000280: f3a6 053e 73a1 df3e 2e06 cb3e 7c8c 7f3e
00000290: f443 babd 76b5 94bd c19d ae3c 45bd 623d
000002a0: d407 fd3c 0c9f 573d 7810 223d d75d 213e
000002b0: e154 23bc c1cb 6d3e decf bbbd 9aba 6e3d
000002c0: c33e b53e 0e0c 833e af41 993e cfc2 c93e
000002d0: 8253 a53e 2e53 2bbe b868 69be 469f de3c
000002e0: d3d9 9cbe 14ab 71be f4a7 2dbd 1a11 c03e
000002f0: 2f8d 093e 304e 873e 1112 723e 0206 393e
00000300: 3be2 b43e d227 9d3d 262e 973e cae2 8dbd
00000310: 5409 ae3d 4512 983e 2a49 14be 8104 86be
00000320: ed77 ad3d 8ea0 27be 9478 553d 2ad7 833d
00000330: 388e d6bd ed70 e7be 49e6 de3e c56e d93e
00000340: cfbb 19bd 48ae a6bd 12c1 a83e 432d 533e
00000350: 8e11 ebbe 9ec3 5cbc b895 c2be ead2 373e
00000360: 6312 233b 558d bf3c aded 423e 3376 8d3e
00000370: 43a7 623e 3f0f 2ebd 0270 fb3e fa8a b4bd
00000380: 6068 e63c 754e 763d ff36 933e 5895 01bc
00000390: 50a7 ab3e f738 953e cc04 a83e 797e 423e
000003a0: 29a6 903d 6bb3 8bbe b284 5d3e d4f9 72be
000003b0: 4c55 c03d 8d0b 23be a9a6 243e 02cf 9d3e
000003c0: fa1e 243e 087d cb3c 2010 0ebe 2e75 a83d
000003d0: 2905 90bb 9483 143e fa01 af3e f2db 99bc
000003e0: 3eb5 da3e b29a 033c 58ca 593d f7f3 44be
000003f0: 13da 09be eb3d 29be 481c 43bd 82a4 2a3d
0.12306811 0.44944045 -0.12089471 0.2895552 0.008614156 -0.032940425 0.27297923 0.266297
0.13566038 0.21591154 0.38279983 -0.119000144 -0.11622952 0.020565579 -0.15828718 -0.01909728
-0.18037675 0.039154176 0.12083205 0.15578656 0.19448645 -0.07360837 0.35843122 0.022085914
0.311695 0.456375 -0.010118448 0.3123038 -0.2728731 0.07183597 -0.13445275 0.10683136
-0.09900039 0.049412634 0.13869675 0.18611951 0.30196762 0.13928424 0.2740204 0.32346645
0.24734133 -0.023240697 0.2074851 0.18606323 0.43375188 -0.16520949 -0.2344703 0.16796343
-0.23127656 -0.18524717 -0.18892705 0.3827456 0.31912902 0.31570768 0.093650885 0.12961932
0.2769595 0.044602793 -0.039434552 0.20888574 0.066763416 0.01098481 -7.9253885e-05 -0.27450874
-0.15891989 -0.39078858 -0.31131247 0.24388428 -0.0024557794 -0.14177373 0.031174336 0.19618924
-0.21718743 -0.11586993 -0.01766113 -0.05099232 0.11360395 -0.23475918 0.3267831 0.18729363
-0.1335321 0.066393286 0.16663818 -0.02565361 -0.00491954 -0.03463519 -0.5185577 0.17127512
0.108861856 -0.06863435 0.10336826 -0.09079907 0.27243483 -0.26939607 -0.27003455 -0.42715648
0.17955703 0.1394448 -0.24175079 0.048722852 -0.032836474 -0.053511925 0.00433147 0.42120868
-0.012365436 0.22427 0.074370734 -0.0028958803 -0.027639003 0.24599218 0.1691082 0.28681976
0.37413386 0.06283323 -0.07822729 0.1766734 0.20476048 0.13536358 -0.11628433 -0.11333919
0.19764996 -0.19150321 -0.17814746 -0.1925272 0.26007694 -0.19822775 -0.1712998 0.11621114
-0.062229123 0.09333107 -0.033601742 -0.13274774 -0.15255842 -0.23207799 -0.13818875 0.09728106
-0.0666615 0.41324258 0.14821608 0.008160578 0.23560835 0.36122185 0.020679252 0.08059588
0.17205063 0.15697792 0.4042341 0.15011625 -0.15669534 0.04030081 0.15140195 0.15601368
-0.1869511 0.34866753 0.21184994 0.26656768 -0.11948008 -0.09292272 0.27258882 -0.07111056
0.13051967 0.43677863 0.39653152 0.24955934 -0.09094992 -0.072611734 0.021315457 0.055356283
0.030887522 0.052641913 0.039566487 0.15758453 -0.009968967 0.23222257 -0.09170507 0.058283426
0.35399446 0.25595134 0.29932925 0.3940644 0.32290274 -0.1673095 -0.22793853 0.027175557
-0.30634937 -0.23600417 -0.0423965 0.37513047 0.13432764 0.2642684 0.23639704 0.18068698
0.3532885 0.07673611 0.29527396 -0.06928022 0.08497873 0.2970144 -0.14481035 -0.2617531
0.0847014 -0.1636984 0.052116945 0.06437524 -0.10476345 -0.45203343 0.4353507 0.42467323
-0.037532624 -0.0813871 0.329598 0.20622735 -0.4591183 -0.013474373 -0.3800485 0.17951551
0.0024882786 0.023382822 0.19035979 0.2762924 0.22134118 -0.04249501 0.49108893 -0.0881557
0.028125942 0.060133416 0.28752896 -0.0079091415 0.33526087 0.29145023 0.3281616 0.18993558
0.070629425 -0.27285323 0.2163265 -0.23728114 0.09391269 -0.15922375 0.16079201 0.30821997
0.16027442 0.024839893 -0.13873339 0.08225475 -0.0043951464 0.14503318 0.34181195 -0.018781636
0.42716402 0.008032488 0.053171486 -0.1923369 -0.13462095 -0.16527526 -0.047634393 0.041660793

fc.0.bias f4 [64]
00000000: 5dca 6a3c be19 d53d 639f 40bd 7e42 c93e
00000010: 85e4 abbd 19f3 663e 9df6 503d 0a68 1b3e
00000020: 5545 fb3d 6026 563e c490 563e 73b0 213e
00000030: 7ed7 8b3e 4787 133e a961 683e 09d9 c23e
00000040: a00b 52bd e462 933e 3b11 573e 7ad6 d33b
00000050: acd0 d63e d087 3f3d b4c4 933e 7ab6 7b3e
00000060: c9fe 873e da0b a83e 832b 1b3e 4fb1 983e
00000070: 3dba 2f3e 356c 02bd ad37 1c3e 2e7f 5cbd
00000080: c5b6 663e f449 cf3d 2237 903e 9561 873e
00000090: 8e6a 583e 5068 913e 16df f13d be00 4f3e
000000a0: 97e3 0b3e 57c3 5ebc bafd a4bd d462 b23d
000000b0: ad10 b4bd 5c8d 1a3e ed81 63bd 149d 00bc
000000c0: a19a 993e dd61 703e 6953 c93d 7842 8f3e
000000d0: d6b3 973d b91f 66bc dabd 21bd e209 573e
000000e0: 3a99 973d 2e9e bbbd 43fd 903e b01b c93e
000000f0: 8fb2 2e3e fbc3 ff3d 4ce9 a93d 60a8 a33e
0.014330474 0.104053006 -0.047027003 0.39308542 -0.08393196 0.22553672 0.05101644 0.15176407
0.122690834 0.20913076 0.20953661 0.15789966 0.27312845 0.14407073 0.22693504 0.3805621
-0.051280618 0.28786385 0.21002667 0.0064647766 0.4195608 0.04676038 0.2886101 0.24581328
0.26561573 0.32821542 0.15153317 0.29822776 0.17160888 -0.031841476 0.15255614 -0.053832226
0.22530659 0.10121527 0.28167063 0.26441637 0.21134397 0.28399897 0.118101284 0.20215127
0.13661037 -0.013596377 -0.08056207 0.08710256 -0.08792243 0.15092987 -0.05554383 -0.00784995
0.30000785 0.23474832 0.09830362 0.279804 0.07407348 -0.014045649 -0.039487697 0.20999864
0.074022725 -0.0916103 0.28318223 0.39278936 0.17060302 0.12488552 0.08296451 0.31964397

fc.2.weight f4 [64, 64]
00000000: c414 d9bd 1c73 003c 8acf 8b3d 9a39 9fbc
00000010: d191 a63d 2447 70bd d4ce f5bd 1545 9d3c
00000020: 0c7f c3bc 4ef1 e03d 6fab d73c 3e97 cfbd
00000030: 925e 9b3d ee66 b23d 8342 453d e8d2 a53d
00000040: 4ded e6bd 12ec ef3d bb8b ad3d 54a2 1cbd
00000050: 7454 a53c d091 8cbd e5d9 4b3d 1596 e93c
00000060: 96bb bebd 7d73 b5bd a470 02be 5ed1 0c3d
00000070: c849 9bbc a91e 13bd 6052 b53d 33c2 0e3d
00000080: f531 b4bd 3d1c 48bd e8bc cb3d 1a22 333c
00000090: aa55 c03d 3fe0 d33d 90de d7bd 6384 dbbd
000000a0: 8e16 253d 4965 b83b 3fa4 923d 2cd4 afbd
000000b0: 2cc7 d13d 6bc3 00be d8b3 e8bd d6be dd3d
000000c0: 0035 c23a bdcc d23d 4d7c edbd 18dd 803d
000000d0: 47a0 6fbd 27f1 913c 87b7 cc3c f56c e7bd
000000e0: a572 95bd e15d 05bd 5d5b 59bd 2ae7 57bd
000000f0: 96d3 9fbd 09f4 90bd 0a36 96bd 5653 c93d
00000100: 0d0b 063e 7ffa 923e 17ed ab3e 60b2 153e
00000110: adce 2bbc a598 53be 0e1e a33e 08d0 0cbe
00000120: 7e84 a83e bed6 fe3d 4de6 833e 2b66 483e
00000130: ed1e 66be 061d a03e 52e7 a43d 472b 4e3e
00000140: c7b4 d53d 4fd1 6a3e 80e0 e13d 3465 c2be
00000150: b66f 9a3d e5af 523e e94e 613c dc1d 223e
00000160: 669a 6a3d 4f5f 7b3e bb07 3b3e 01b5 943e
00000170: 5eea b6be c126 193e 2b9c 043e 1989 3f3e
00000180: 3e29 573e 5de2 4fbe c4a0 993e dad5 ba3d
00000190: 70e1 943e c336 963e d2d7 bd3d b43d 533d
000001a0: 00e0 993e 7c22 af3d 5441 413e 18da 1a3d
000001b0: c2de 133e c8f0 333e 460a 90be 476c 2f3e
000001c0: 51e5 753e 8ee4 953e 52d3 193e 3498 53bc
000001d0: 4949 923e cd58 2c3c 6e72 883e 8901 8dbe
000001e0: faa3 653e 5ec3 613e fba3 ca3d 453d 96bb
000001f0: a4b3 783e ec81 833e 5914 ff3d c3fa f23d
00000200: 5299 693e 756c 1a3e 21db ab3e 02a9 053e
00000210: b918 ab3a 4d37 28be 586d 3c3e 0052 4a3d
00000220: 24e4 963e 2d13 4d3e 6723 b63e 844a e33c
00000230: 33a9 83be 8f73 9f3e 2774 853e 3686 0d3e
00000240: eea5 713d 4adc 9b3e 3835 923e 7fe7 c9be
00000250: 6680 5f3e f241 8c3e 674f 5c3d 11ea 8a3e
00000260: 2ac1 223e de9f 7a3e 841e 363e 40c7 ef3d
00000270: 92e0 adbe 35ad 823e c0a2 703e c9a0 113e
00000280: a63d 523e 4290 8ebe 3fd4 b83d cfa8 3d3c
00000290: 0e62 543e 5867 523e 3d3e 513e 9a40 2f3e
000002a0: 7cf0 873e 756e 80bd 7f30 2c3e 381a ed39
000002b0: 1a74 723e 1264 713e 889e afbe b50e f63d
000002c0: 83ba 523e 3262 c43d 242d 633e b895 dfbc
000002d0: 0cae 063e 36f5 c33d 5c9b 803e 9b0a 49be
000002e0: 3d45 743e 50e8 9a3e 1f93 623e ffda 073d
000002f0: b433 ea3c a64d 413e 5cc7 ff3c 21bf 113d
00000300: eee1 983e d34b f63d a4db 853e e4d4 923e
00000310: b5c5 143c 581d 4ebe 0489 6e3e 9549 0fbe
00000320: 8d26 743e 58e1 9b3e 7ec7 033e 52e4 b73d
00000330: ae00 b2be 66e8 c03e b261 843d c218 403e
00000340: 318f 6d3e efe8 783e d4cc 8f3e ff96 a7be
00000350: 58b7 853e 694c cc3d 7c54 a9bd 8b8e 3f3e
00000360: b296 b93d 9850 523d d81e a03e 1ac1 843e
00000370: 4c1e a7be 378c 383e 6db7 8d3e 608a 683e
00000380: 36eb 223e b049 88be e26e 8c3d 3f69 fb3d
00000390: 622e 913e 8371 923e 1e40 933e f997 803e
000003a0: df9f f83d 5ca7 a6bd 449b 903d 036d ea3d
000003b0: 9810 503e 27f5 803e 6e0c cebe 195f 833e
000003c0: ee10 d93d 8db1 8c3e 3009 e63d b817 263d
000003d0: ca26 2e3e f46f 47bd bacd b13e 780d e0be
000003e0: db20 3d3e bc3a aa3e a653 6a3d 245d fe3a
000003f0: 6de7 633e b771 0a3e 9bef a63d 6961 623e
-0.10599664 0.007839944 0.06826694 -0.019436646 0.08133281 -0.058661595 -0.1200234 0.01919798
-0.023864292 0.10983525 0.026326863 -0.10136269 0.07586397 0.087110385 0.048159134 0.08096868
-0.1127573 0.11714949 0.08473917 -0.038240746 0.020181872 -0.06863749 0.049768347 0.028513948
-0.09313123 -0.08859918 -0.12738281 0.034379356 -0.01895608 -0.03591791 0.088536024 0.03485317
-0.08798591 -0.048855055 0.099481404 0.010933423 0.09391339 0.10345506 -0.10540497 -0.1071861
0.040304713 0.0056273085 0.07160234 -0.085853904 0.10243067 -0.12574546 -0.113624275 0.10827415
0.0014816821 0.10292957 -0.11595974 0.0629217 -0.05850246 0.017815186 0.024989856 -0.11300079
-0.07297257 -0.032560233 -0.053065646 -0.05271069 -0.07804029 -0.07077796 -0.07334526 0.09830348
0.13090153 0.28706738 0.33579323 0.14618826 -0.010486287 -0.20663698 0.31858867 -0.13751233
0.32913584 0.124433026 0.25761643 0.19570224 -0.22472735 0.31272143 0.08051933 0.20133696
0.10434871 0.22931407 0.11029148 -0.37967837 0.075408384 0.20574911 0.013751724 0.15831703
0.057276152 0.24548076 0.18264668 0.29044345 -0.35725683 0.1495619 0.12950198 0.18704642
0.21011826 -0.20301194 0.30005467 0.0912282 0.29078245 0.29338655 0.0926968 0.051572517
0.3005371 0.08551499 0.18872577 0.037805647 0.14440444 0.1757232 -0.28132838 0.17131148
0.24013259 0.29275936 0.15022019 -0.012914706 0.28571537 0.010519219 0.26649803 -0.27540234
0.22425833 0.22047183 0.09894558 -0.0045849406 0.24287277 0.2568506 0.12455053 0.11864235
0.22812393 0.15080436 0.3356562 0.13052753 0.0013053633 -0.16427346 0.18401086 0.049394608
0.29470932 0.20026846 0.35573885 0.027745493 -0.25715026 0.31142852 0.2606518 0.13820729
0.058996134 0.30441505 0.28556228 -0.3943443 0.21826324 0.27394062 0.05378666 0.27131703
0.15893999 0.24475047 0.17785078 0.11707926 -0.33960396 0.2552277 0.23499584 0.14221491
0.2053133 -0.27844435 0.09024858 0.011575892 0.2074053 0.20547235 0.20433898 0.17114487
0.26550663 -0.06271068 0.16815375 0.00045223697 0.23677102 0.2357333 -0.34300637 0.12014524
0.20578961 0.09589042 0.22185189 -0.027293071 0.13152331 0.09568255 0.2511853 -0.19632952
0.23854537 0.30255365 0.22126435 0.033167835 0.028589107 0.18877277 0.031222992 0.035582665
0.2985987 0.12026181 0.26144135 0.28678048 0.00908034 -0.20128381 0.23294455 -0.13992913
0.23842831 0.3044536 0.12869069 0.089790955 -0.34766144 0.37677306 0.064639464 0.18759444
0.23199154 0.24307607 0.2808596 -0.32732388 0.26116443 0.099755116 -0.08268067 0.1870672
0.09061946 0.05134639 0.31273532 0.25928575 -0.32640302 0.18022238 0.27679005 0.22709036
0.15910038 -0.2661872 0.06857087 0.122759335 0.283557 0.28602228 0.28759855 0.25115946
0.12139868 -0.0813739 0.070608646 0.114465736 0.2031883 0.25187036 -0.40243858 0.2565849
0.10598932 0.2747921 0.11232221 0.040549964 0.17006984 -0.04869075 0.3472727 -0.43760276
0.18469565 0.33247936 0.05720868 0.001940642 0.2225625 0.13519941 0.0815117 0.22107472

fc.2.bias f4 [64]
00000000: dfa1 bbbd 5839 033d fa59 443e 23a6 563e
00000010: 6e5c a33e 20c6 503e d5b3 593e 30dd 473e
00000020: 2f35 073e d332 15bc 0a68 0e3e f07d 333e
00000030: 7a46 103e 3bd9 4c3d 07fd 433e b451 1b3e
00000040: 675a 913d 97ba 593c f627 2b3e 5233 c03d
00000050: 6674 c83c 672b 8a3c b6fa 1b3e 5319 a83d
00000060: 9f96 063e c269 963b be33 ab3d 287b d5bd
00000070: c507 393e e06a e83d 666f 693e 9b9e 3cbd
00000080: 55cf b63d f7e3 9d3e 3e0b 05bc e90b d4bd
00000090: 6398 633c b8a5 4f3d 4d80 633d 0353 123d
000000a0: ecdf 0b3e 974f 593d 60b2 043e 9c96 12be
000000b0: 2f5e 413e a4d3 22bd c7ec 413d e517 333e
000000c0: 1a4b 213e 2b03 103e b25f b23e 8ff3 143d
000000d0: 1ff9 0b3e eda2 223e 48f9 463e 3085 073d
000000e0: a2f6 803b 4afd 7d3d b2d8 423e 2320 123e
000000f0: b466 10bd 4bfe f23d 8ecc 193e 8dd9 9cbd
-0.09161734 0.03203711 0.19174948 0.20961814 0.31906456 0.20388079 0.21260007 0.1951797
0.13203882 -0.009106356 0.13906875 0.1752851 0.14089385 0.050011855 0.19139491 0.15167886
0.07097321 0.013289115 0.16714463 0.093847886 0.024469566 0.016866399 0.15232357 0.08207955
0.13143395 0.004590244 0.083594784 -0.10423881 0.1806937 0.1134851 0.22796401 -0.046049695
0.08926264 0.30837986 -0.008120356 -0.10353834 0.013891312 0.05069515 0.05554228 0.035723697
0.13659638 0.05305442 0.1295867 -0.14315265 0.18883584 -0.039752617 0.04734495 0.17489584
0.15751305 0.14063708 0.34838635 0.036365088 0.13669251 0.15882464 0.19431031 0.033086002
0.003935651 0.062009133 0.19027975 0.14270072 -0.035254195 0.11864909 0.15019438 -0.07658682

actor.weight f4 [6, 64]
00000000: 1163 e33c 6c6e 8d3d c936 3dbd 6bf9 fabc
00000010: 9974 cfbd 769a ad3d 8797 483d a1a5 3c3d
00000020: 20a0 07bd 7c1b edbd 2a10 b8bd 833e 65bd
00000030: da19 8cbd e969 a4bd 1288 be3d 4c59 2abd
00000040: 52ad 98bb 9b55 f63d 3f87 c03b 9e88 44bd
00000050: 84d0 993d 5a6a d5bd 7003 cabd 4e5d 803d
00000060: b69f 5cbd 948b 4d3d 38cf d8bd 7fdb 04bd
00000070: 4675 b43d ccda c63d 8a58 17bd 1803 d6bc
00000080: 4834 b1bd a4f0 44bc 4e49 d8bd 14fc 3abe
00000090: a372 533d 87c2 f23c a1da aa3d 6f7d d03d
000000a0: c1dd babd 1181 37bd e014 9d3d da15 293d
000000b0: 6a91 dabd ede3 f13d b7df 5e3d a07d d4bd
000000c0: 9cb2 71bd b075 b13d c255 fdbd 9d9b 10bd
000000d0: fe5c 09bb 92de 63bc b81f 183d 4b4f cf3d
000000e0: 53af c5bd 46e6 e3bc 40bb d1ba 0827 6fbd
000000f0: 3669 b73d d146 e5bd 5010 aebd 95ff b63d
00000100: cae8 7e3c 6028 e73a bcc1 cdbc e147 923d
00000110: dc66 c3bd 7ea8 c4bd ce78 ef3d d48c 5a3d
00000120: 86e5 373d 2b66 133d ebc1 123d d321 ba3d
00000130: 4b20 533d 28ad ddbb 52e3 aebc 0cf4 39bd
00000140: 4878 913d 81cd 2ebd 62a6 8fbc f737 573d
00000150: 1ec7 0c3d a3dc 4e3d 6dd5 b4bc 9c65 c23d
00000160: 1f6b a7bd 33e2 053e 3b9a d9bd ce2a 123d
00000170: 3a86 c73d 7d4a 173d f8ed be3d 3bc3 7c3d
00000180: 7860 98bd ce8b e73d 6c64 583d 163b 693d
00000190: 46f5 9ebd 0e5e b73b 4f9f 4c3d 915a d8bd
000001a0: 0a48 8a3d 5d7b a03d 33aa 9c3d 9069 933c
000001b0: 31ce f7bb 9875 f7bc 2d5d 97bd c1e5 d0bd
000001c0: 5164 f9bc 783d a4bd 877f 88bd 11ef 0c3e
000001d0: 5bf3 e1bd a804 cd3d 808e e23d 2fac 593d
000001e0: 3576 063e 7c9b ac3b f9e1 13bd 4be1 e9bc
000001f0: 1499 0fbd db51 463d 88e5 7d3d f9fd a53c
00000200: 573c 203d c36e 083d 004a f4b5 fe76 ffbd
00000210: 5a25 9b3d 433f 82bd bcdf c7bd 8b04 09bc
00000220: cabf 01be 223d c2bd 7df3 9f3d 7783 34bc
00000230: 08f2 6dbd c3a2 a6bd 65f5 cebd 9a92 8fbd
00000240: a148 a63d 8a0a a23d 1ac6 fd3c 2a91 8cbd
00000250: 56e4 2c3c 88f0 913d c271 41bd 99c6 443a
00000260: 079e bcbb c456 9d3d d30e 2c3d 69d9 bebd
00000270: 7e49 393c bb52 443b a668 7b3d ee71 d8bd
00000280: fd5c 7e3c 80ca cbbc 98ab 833c 9741 fabd
00000290: 5383 6abd fd95 463c bc86 dabd f2c0 d2bc
000002a0: c0da 5dbd 0f63 6bbc 5bfd bd3a 1f13 b9bc
000002b0: 8bb9 423c ca5a 3dbc 08f0 0bbd ce49 513c
000002c0: 41ef 753d a051 f13d b3e8 8e3b 45e6 313d
000002d0: 4636 16b9 4cbc c03c 8f73 94bd 6d6f f23b
000002e0: e3a0 cabd d722 bdbd 9dd1 773d 87e4 f13c
000002f0: 813a 9e3d f8cc f9bd a7c4 40bd 23a3 29bc
00000300: 6043 bc3d f9a4 ac3d 4c39 aa3c 9493 3fbd
00000310: 056b cabb 1d4c 2d3d 27e9 ba3d 2c71 8b3d
00000320: 855f d9bd e722 363d b47c 013e 7879 f5bc
00000330: 6b38 dcbc a7a2 fdbd ee93 ffbd 973f f2bd
00000340: 2cdf 8f3d 88dd d03d 1df6 f6bd 478f 58bd
00000350: 39f0 04be 4da1 cb3d 3205 c13d ed37 ce3d
00000360: 4677 a7bd 9ffe 9ebd 1d64 a9bc f670 e73d
00000370: d250 c03b 0499 cd3d 2aa0 a13b d9bc bbbd
00000380: edba 36bd a5d2 36bd 8e6e 8e3d 3777 18be
00000390: ac8c 18bd a5e4 efbd 7dc2 b3bc 887c 833d
000003a0: b0e7 ecbd f1e9 f13c ef14 a0bd f175 4bbc
000003b0: c154 463d ac20 013e f5d6 e3bd b11f de3d
000003c0: 76cb 283d 3408 03bd f9e3 92bd a18d 563d
000003d0: e0f9 5a3b a757 afbd 44c9 9d3d b206 40bc
000003e0: 6230 b7bd b94a cb3d 72aa 23bd 59c8 de3d
000003f0: 8136 e8bd 8fa4 753b 8d51 2c3c a1bc 9dbd
0.0277572 0.06905827 -0.046194825 -0.03063651 -0.10129661 0.08476727 0.048972633 0.046056394
-0.03311169 -0.11577508 -0.08987458 -0.05596782 -0.06840868 -0.08028013 0.09303297 -0.041589066
-0.0046593333 0.12028047 0.0058754976 -0.04798185 0.07510474 -0.104206756 -0.09863937 0.062677965
-0.05386325 0.05018194 -0.10586399 -0.03243589 0.08811431 0.09709701 -0.03694967 -0.026124522
-0.0865255 -0.012020264 -0.10560857 -0.18260223 0.051622998 0.029633773 0.083424814 0.101801746
-0.091243275 -0.04480082 0.07669997 0.041280605 -0.10672267 0.118110515 0.05441257 -0.103755236
-0.059008226 0.08665025 -0.12369873 -0.035304654 -0.0020959969 -0.013908045 0.037139624 0.10122546
-0.09652581 -0.027819764 -0.001600124 -0.058386832 0.08955614 -0.11195148 -0.08499205 0.08935467
0.015558431 0.0017635934 -0.025116794 0.07142616 -0.09541103 -0.0960245 0.116929635 0.05335696
0.044896625 0.035986107 0.035829466 0.09088483 0.05154447 -0.0067650266 -0.02134863 -0.045398757
0.0710302 -0.042676453 -0.017535392 0.052543607 0.03436958 0.050503384 -0.022074426 0.09492037
-0.081747286 0.1307457 -0.1062512 0.035685353 0.097423986 0.036936272 0.09322733 0.061709624
-0.07440275 0.113059625 0.052830145 0.056941114 -0.07761626 0.005595929 0.049956616 -0.10564149
0.067520216 0.0783603 0.076496504 0.017994672 -0.0075624217 -0.03020744 -0.07390819 -0.10200072
-0.030443342 -0.08019537 -0.06664949 0.13763072 -0.110327445 0.10010654 0.11062336 0.053142723
0.1313103 0.0052675586 -0.036104176 -0.02854981 -0.035058096 0.048417907 0.061986476 0.020262705
0.039120045 0.033308756 -1.8200953e-06 -0.12473868 0.075754836 -0.063597225 -0.09759471 -0.0083629
-0.12670818 -0.094843164 0.078101136 -0.011017672 -0.058092147 -0.08136513 -0.10105399 -0.07010384
0.081193216 0.079121664 0.030978251 -0.06863625 0.010552486 0.07125956 -0.04722763 0.00075064
-0.005756143 0.07682565 0.042006325 -0.093188114 0.011309026 0.0029956538 0.061379097 -0.10568605
0.0155251 -0.024876833 0.016073033 -0.122195415 -0.057254147 0.012120721 -0.1067023 -0.02572677
-0.054163694 -0.014366879 0.0014495061 -0.022592125 0.011885057 -0.01155729 -0.03416446 0.012773944
0.060042623 0.11783147 0.004361236 0.043432493 -0.00014325333 0.023527287 -0.072486036 0.007398537
-0.09893968 -0.09235161 0.060502637 0.029527916 0.077260025 -0.12197298 -0.047062542 -0.010353836
0.09192538 0.084299035 0.020779274 -0.0467716 -0.0061773085 0.042308915 0.091265015 0.06808695
-0.10613922 0.04446688 0.12645227 -0.029965147 -0.026882371 -0.12384539 -0.12479387 -0.11828535
0.070249885 0.10198504 -0.12058661 -0.052871015 -0.12982263 0.09942875 0.09424819 0.10069261
-0.081770465 -0.07763409 -0.02067762 0.113008425 0.0058690095 0.10038951 0.004932423 -0.09166879
-0.04461186 -0.04463448 0.069546804 -0.14889227 -0.03724353 -0.11713532 -0.021943325 0.06420237
-0.115676284 0.029530497 -0.07816493 -0.012418256 0.04842067 0.1261012 -0.11124984 0.108458884
0.04120966 -0.031990245 -0.071723886 0.05238116 0.0033413097 -0.0856164 0.07704404 -0.011720346
-0.08944775 0.099263616 -0.03995747 0.10878057 -0.11338521 0.0037482118 0.01051749 -0.07701994

actor.bias f4 [6]
00000000: 8038 903d f469 7a3d f746 fe3c 951a 7cbb
00000010: 98d6 1439 4ae7 adbd
0.070420265 0.0611362 0.031039698 -0.0038467993 0.00014194322 -0.084913805

critic.weight f4 [1, 64]
00000000: 55d9 b2bd ba7c 793e 5c20 9e3e 4904 813e
00000010: 7fcd bfbe ad2d 903e c03c abbe 308e a23e
00000020: 02d3 813e eaaa 88bd 89ea b6be 88ae 5d3e
00000030: 2bb2 a43e e50f 733e ae50 a43e 1e3f 623e
00000040: 0478 6f3e 44d8 6bbd 0905 993e 2261 a13e
00000050: 8738 aa3e f851 ad3e 2b83 a33e 2a80 ad3e
00000060: 6360 bbbe c9ba 8f3e 2c6a 933e 49a3 65bd
00000070: 2391 a53e 3f12 823e 02ad 823e 65f7 4dbe
00000080: c7f9 b9be a9fa c4be 38f5 ad3e 33ef eebd
00000090: 429e a13e 1723 aabd 989a 773e f4a6 a93e
000000a0: 754f a03e 881c 7c3e fa76 933e 688b 44bd
000000b0: 1b12 6c3e 68ae e7bd d7df 863e 70f1 833e
000000c0: 5d25 e7be ed4c c2be 761d ebbe 77a8 a63e
000000d0: 7935 853e cc05 cbbe 59fc dcbe 319d 63bd
000000e0: 147f 653e 9034 8a3e 3881 913e c828 b6be
000000f0: a0eb 33be fee7 95be d4e6 8b3e e653 80be
-0.08732859 0.24363986 0.30884063 0.25198582 -0.3746147 0.28159848 -0.33444786 0.31749105
0.253563 -0.06673224 -0.3572581 0.2164861 0.3216718 0.23736532 0.32092804 0.2209439
0.23385626 -0.057579294 0.29886654 0.3151942 0.33246252 0.338516 0.3193601 0.33886844
-0.36596975 0.28072193 0.2879194 -0.056063924 0.32337293 0.25404546 0.2552262 -0.20113905
-0.36323377 -0.3847249 0.3397615 -0.116667174 0.31566054 -0.08307474 0.24180067 0.33135188
0.3131062 0.24620259 0.2880171 -0.04798451 0.23053782 -0.11312562 0.2634265 0.2577014
-0.45145693 -0.37949315 -0.45920914 0.32550403 0.2601736 -0.3965286 -0.43161276 -0.05556983
0.22411758 0.26993227 0.284189 -0.3557799 -0.17570353 -0.29278558 0.27324545 -0.2506401
