models/Walker2d-v2/reinforce_20241114_021931.pth (torch, 26051 bytes, 7 tensors)

fc.0.weight f4 [64, 17]
000000 10 cc 4f 3e 8d db 0e 3d 80 6e c9 3d 27 e5 08 3d
       0.20292687 0.03487735 0.09835529 0.03342166
000010 07 57 0a be fe c8 5c 3e 92 ed 0f 3e c5 6e 8a 3d
       -0.13509761 0.21561047 0.1405547 0.06759409
000020 48 39 2d 3e 7d 4f 02 be de 4d 04 be 53 4a 40 3e
       0.16916382 -0.12725635 -0.12920329 0.18778352
000030 3a 0f 4a be 08 70 5d 3c 1e 31 0c be 0a 7a 71 be
       -0.19732371 0.01351548 -0.13690612 -0.2358171
000040 67 5d 20 3d 51 70 51 3d 9d c8 18 be a0 a1 71 3e
       0.039151575 0.051132504 -0.14920278 0.23596811
000050 85 35 07 be d9 65 8d 3d 28 ee ff 3b a8 f9 a1 bd
       -0.1320401 0.069041915 0.007810373 -0.07908946
000060 a1 d0 81 3e 91 a0 1b 3e 2e 92 30 3e 44 48 5b be
       0.25354484 0.1519797 0.17243263 -0.21414286
000070 2d 20 2d be ab 1e 94 3d 33 a0 77 be d1 77 b0 3a
       -0.16906805 0.07232412 -0.24182205 0.0013463442
000080 6f 0d f2 bd a6 28 40 be b3 96 b2 b9 e2 27 4a bd
       -0.118189685 -0.18765506 -0.00034063085 -0.04935444
000090 6d 94 77 3d ea 9b 5e bd 0d d6 ba bd 17 5c 42 3e
       0.060444284 -0.05434791 -0.09122858 0.18980442
0000a0 6b 4b 4f bc de 87 3f be ce 37 d4 bd 06 dc 7f 3d
       -0.012652258 -0.18704173 -0.103622064 0.06246569
0000b0 4a 62 02 3e c9 69 45 3e 94 18 65 be 8a c1 c5 3d
       0.12732807 0.19278635 -0.22372657 0.09656055
0000c0 7e 8a dd bd 67 7b 6b 3e 04 fb 12 be 00 e9 9c 3c
       -0.10817431 0.22996293 -0.14353567 0.019154072
0000d0 88 43 4c 3e 66 39 1c 3e 0a 04 59 be b6 a3 9d 3d
       0.19947636 0.15256271 -0.21192947 0.07697241
0000e0 4d da 16 be 62 44 93 3d cd f5 0d 3d 6e 38 4c be
       -0.14731713 0.07190777 0.034658242 -0.19943401
0000f0 f4 e6 5b be 77 7d 19 bc 0b 33 47 be b6 a6 75 3e
       -0.2147482 -0.009368292 -0.19453065 0.23989376
000100 c6 df e0 bd 88 e7 54 be fc 48 17 be 33 9e 4b bd
       -0.109801814 -0.20791447 -0.14773935 -0.049711417
000110 8f 50 1b 3d 67 73 ef bb c9 60 36 3d 58 aa 6c be
       0.037918624 -0.007307458 0.044525895 -0.23111856
000120 78 d8 78 be bc d3 ad 3d 61 ee 06 bd 7f ed 11 be
       -0.24301326 0.08487651 -0.03294218 -0.14250754
000130 3f e5 b0 bd 63 fb f9 3d 34 5a 1e 3e 4f c0 47 3e
       -0.08637475 0.12206151 0.15464097 0.19506954
000140 19 71 d5 bd 9d 5b 93 bd ac 78 4e be ab d9 08 3d
       -0.10421962 -0.07195208 -0.2016322 0.03341071
000150 a6 43 13 be a9 c0 5d 3e 03 34 5e be 17 5f 5b 3e
       -0.14381275 0.21655525 -0.21699528 0.21422993
000160 91 e0 c5 bd dc 03 31 be a4 22 b1 bc 46 9b 05 3d
       -0.09661973 -0.17286628 -0.021622963 0.032618783
000170 c4 c2 db bd 35 e4 a5 3d a7 2b 58 be 4d d9 8d 3d
       -0.10730508 0.08100168 -0.21110402 0.069262125
000180 42 2f 6e be 79 d1 8c bd 03 84 0d 3e 40 f4 5e be
       -0.23260215 -0.06875891 0.1381989 -0.21772861
000190 32 fd fc bc 8e 05 6c 3e cd 3e 8a bd 30 a6 88 bd
       -0.030882452 0.23048994 -0.067502595 -0.06672323
0001a0 d6 77 03 bd 5e b5 cc bd fe f0 c4 bc ff 7d 22 3e
       -0.032096706 -0.099955305 -0.024040695 0.15868376
0001b0 33 0f ee 3d ff 8f 94 3d fe a2 a7 3d 6f 65 1d be
       0.11623993 0.072540276 0.08185385 -0.15370725
0001c0 eb e1 dd bd 12 57 2e be 1e ae 4d bd 5b e6 dd 3d
       -0.10834106 -0.17025402 -0.05021488 0.108349524
0001d0 4e bf 37 3d c4 73 24 be 4b bd 21 be 86 58 82 3e
       0.044860177 -0.16059786 -0.15794866 0.25458163
0001e0 4b 53 51 be 9f 92 0a be b3 0e 9e bd 34 d0 70 3e
       -0.2044193 -0.13532494 -0.077176474 0.23516923
0001f0 70 b2 0c 3e 90 d6 59 3b 9c 90 94 3c 50 e5 16 3e
       0.13739944 0.0033239461 0.018135361 0.14735913
000200 37 9b f5 bb ed e4 9f bc ec 61 3b bd 31 45 75 3e
       -0.0074953097 -0.01951834 -0.045747682 0.23952176
000210 6d e4 40 be 15 d2 69 be 04 0c 2c bd e7 f5 4e 3e
       -0.18837138 -0.22834046 -0.042003646 0.20210992
000220 95 ef 3a be d9 0e 33 be ca 33 dd bd 60 b2 ef bd
       -0.18255456 -0.17486133 -0.108008936 -0.11703944
000230 e1 42 44 3e ce 9a 8a 3e d3 62 8d 3c 01 0f 4e 3e
       0.19166137 0.27071232 0.017259037 0.20122911
000240 7b 43 a1 3c 27 7b d9 3c 6c 08 23 3d f6 66 85 bd
       0.019685498 0.026547981 0.039802954 -0.06513779
000250 26 07 2f 3d c2 b8 30 be d7 41 27 be 13 3c c0 bd
       0.042731427 -0.1725798 -0.1633371 -0.09386458
000260 f7 46 64 3e e7 fc 6a 3e 1d e1 63 be 93 03 f3 3b
       0.22292696 0.22948037 -0.22253843 0.0074161976
000270 81 11 2e be c2 1c 17 3e f0 d6 46 3e 38 2e 27 be
       -0.16998865 0.14757064 0.1941793 -0.16326225
000280 0e 82 dc 3d 90 0f 6c be 05 32 23 3e ca f8 78 3e
       0.107669935 -0.23052812 0.1593705 0.24313655
000290 a2 66 0f 3e 5e 96 89 bd 16 69 8c 3e c7 61 7c 3e
       0.14003995 -0.067181334 0.27423924 0.24646674
0002a0 02 e5 0d be 1c c9 21 bd b8 de 81 3e 82 14 b9 bd
       -0.13856891 -0.039498433 0.25365233 -0.09037115
0002b0 8d 7d 3e be 6b 1b e4 bb 3b c8 83 3d ec a4 73 3d
       -0.18602581 -0.0069612763 0.06434675 0.059483454
0002c0 23 40 1e 3e f1 28 ed 3d 5b 92 4f be 45 13 43 3e
       0.15454154 0.115800746 -0.20270674 0.1905032
0002d0 63 7d b9 3c 09 6a 27 3d 13 6b 3b 3e 6c d3 30 be
       0.022642797 0.040872607 0.18302564 -0.17268151
0002e0 93 d0 ab 3c 84 a2 c8 bb d3 44 b5 3d e2 72 34 bd
       0.02097348 -0.006122889 0.08851018 -0.044054873
0002f0 0c e5 e0 3d 91 72 b5 3d 41 7a 25 be 55 b3 ba 3d
       0.10981187 0.088597424 -0.16159917 0.09116236
000300 45 71 62 be b7 e6 95 bd e7 f5 4e be e8 5c b2 bd
       -0.22113521 -0.07319396 -0.20210992 -0.08709127
000310 ec 53 2a 3d ad 1d 11 be cb f0 56 be a1 85 60 3c
       0.04158394 -0.14171477 -0.20990293 0.013703735
000320 43 74 f9 3d be a4 3b 3e 89 67 f7 3c 78 05 71 bd
       0.12180378 0.18324563 0.030200737 -0.058843106
000330 ef 9f a8 bd 4f 14 4e 3e ab c3 da 3d a1 27 77 3e
       -0.0823363 0.20124935 0.10681852 0.24136211
000340 5d db cd 3c b7 39 87 3e 52 6f 7f 3d 1e 34 3d 3e
       0.025129015 0.2641122 0.062362023 0.18476912
000350 f0 bc 9a 3d 42 31 97 3c 91 d5 5a 3e 39 4b 3d be
       0.07555568 0.018456105 0.21370532 -0.18485726
000360 8f f1 b9 bd 14 62 1c 3e 48 b9 d9 bd ad c9 68 be
       -0.09079277 0.15271789 -0.10631043 -0.22733183
000370 2b f5 01 3e 75 48 0c 3d 31 ba 28 bd 01 57 71 3e
       0.1269118 0.034248788 -0.04119319 0.23568346
000380 60 d6 34 be 3e c5 64 bc f1 a2 2a 3e 07 99 f8 bb
       -0.17659903 -0.013963042 0.1666372 -0.0075866017
000390 6f f1 7a 3e fb 0b 4d be 85 a6 1b 3e df 9a 2f be
       0.24506162 -0.20024101 0.15200241 -0.17148922
0003a0 65 bb 26 3e 6d e4 b6 3d 6f 1f e9 bd 63 b1 2c 3e
       0.16282423 0.089302875 -0.113829486 0.16864543
0003b0 ae 2e 51 be 74 92 1e bd 7b 2d 26 3e 8a b7 0b bd
       -0.20427963 -0.038713887 0.16228287 -0.034110583
0003c0 5b 50 ae 3d 4e e6 ed 3d 2e b5 b0 bd 88 8d 15 bd
       0.0851142 0.11616193 -0.08628307 -0.036511928
0003d0 cc 0d c9 bd e7 8f 64 bd ca f1 ea bc 88 81 11 be
       -0.09817085 -0.0558013 -0.028679747 -0.14209569
0003e0 89 28 2e 3e d7 5f 64 be 3d 2f ad bd 68 7d 46 be
       0.1700765 -0.22302185 -0.084562756 -0.19383776
0003f0 97 67 2c 3e cc d5 66 3c 4d 11 a4 3a eb e3 c2 3d
       0.16836391 0.014089059 0.0012517363 0.09516128

fc.0.bias f4 [64]
000000 92 18 29 3e 33 f4 5a 3e a3 7d 18 3e f0 68 17 3e
       0.16513279 0.21382217 0.14891677 0.14786124
000010 c5 27 5c be c7 04 27 bd 4b d5 ca 3d 28 ef 23 3e
       -0.21499546 -0.04077604 0.09903964 0.160092
000020 0d f3 d6 3d 95 96 cf 3d 11 de 49 3d 44 cf 04 be
       0.10495577 0.10136143 0.049284045 -0.1296969
000030 9c 1e 5e 3d 15 f0 95 3c 64 79 76 be 75 38 0e 3e
       0.05422841 0.018302957 -0.24069744 0.13888724
000040 34 0b 36 3e d2 9d 02 3e 33 a6 6a 3e fa 53 44 3e
       0.17777711 0.12755516 0.22914962 0.1917266
000050 61 0e 6b 3e 46 3a c7 bd 2f 50 83 3d 8e 4b 12 be
       0.22954704 -0.09727912 0.06411778 -0.14286634
000060 d4 15 ca bd b1 eb e4 3d 13 d0 96 3d 4f 34 15 3e
       -0.09867445 0.11177767 0.07363906 0.14570735
000070 25 5c 34 3d ee e3 1e be 6a 79 2d bd fe 9d 2f be
       0.04403319 -0.15516636 -0.042352118 -0.17150113
000080 30 93 57 be bb c4 19 3e eb 57 41 be 15 35 52 be
       -0.21052241 0.15016453 -0.18881194 -0.20528062
000090 40 c9 3d 3e 74 cc 9f 3d 10 59 d4 bd 89 8a 5e be
       0.18533802 0.07802668 -0.1036855 -0.21732534
0000a0 6e a9 8c bc e6 80 48 3e ea 44 50 be 90 26 55 be
       -0.017170634 0.19580421 -0.20338789 -0.20815492
0000b0 d2 73 1d bd 36 fb 91 3d 92 da af 3d 29 c8 18 be
       -0.038440533 0.07127993 0.08586611 -0.14920105
0000c0 84 e1 45 3e 6c 83 c8 3d 45 02 cc 3d 31 c9 17 3e
       0.19324309 0.09790692 0.099613704 0.14822842
0000d0 bd b3 f2 bd bc 6f 31 be e6 6f 0f 3e 3b db 1a 3e
       -0.118506886 -0.1732778 0.1400753 0.15122692
0000e0 eb b6 0b be b9 60 bf 3d a3 47 03 be 0d cd b7 3d
       -0.13643996 0.0934462 -0.12820296 0.08974657
0000f0 5a 2a c7 3d e1 ac 1d be ba 9a 23 be ff 28 1c be
       0.09724875 -0.1539798 -0.15976992 -0.15250014

fc.2.weight f4 [64, 64]
000000 8e 31 d9 3b 6e b2 2c 3d c3 a3 7b bd 40 66 ec bd
       0.006628222 0.04216235 -0.061435472 -0.1154294
000010 37 d5 5c bd 39 51 a3 bd a2 ec 2d 3d 28 c6 50 3d
       -0.053914275 -0.07974476 0.042462 0.050970227
000020 ba 03 8f 3d 03 fd 81 3d 6a 38 81 bd d6 bd 3d 3d
       0.06983133 0.06347086 -0.06309588 0.04632362
000030 9f 29 82 bb a3 ef 22 3d 04 a7 97 3c cd 7b 8e bc
       -0.003972247 0.039779317 0.018512256 -0.017393017
000040 49 40 a0 3d 20 3d 4d bc 0b e7 de 3d 5c 7f ea 3d
       0.078247614 -0.01252678 0.10883912 0.11450073
000050 75 6d 0a 3e 7d 71 a9 3d c9 2a c9 3c 0d 69 80 bc
       0.13518317 0.08273599 0.024556534 -0.015675092
000060 0b 9a 91 3d 7e f0 11 3b 2a c1 e9 bc 8e 38 a1 3d
       0.071094595 0.0022268589 -0.02853449 0.07872115
000070 ba ab b9 3d 9d fe 9e 3d 98 69 d7 bd a7 dd 0f 3c
       0.09065957 0.077634074 -0.10518187 0.008780873
000080 53 be 01 3e bd 6d b9 bd 80 80 4e bd b5 1a bf 3d
       0.12670259 -0.09054134 -0.050415516 0.09331266
000090 5c d2 42 3d 2c 55 86 3d bb 22 8c 3c ae 0d fd 3c
       0.047563896 0.06559214 0.017106405 0.030890312
0000a0 12 73 05 3e 86 54 c8 3d 97 f8 a3 3d fb 72 90 bd
       0.13032177 0.097817466 0.08006399 -0.07053181
0000b0 b7 18 67 bc 8b cf a4 3d e8 9d c0 3d f9 f1 9a bc
       -0.014105014 0.08047398 0.09405118 -0.01891421
0000c0 0f f8 6a bd cc ef e1 bc 73 ef ac 3d f5 2f df 3c
       -0.057365473 -0.027580164 0.08444109 0.027244547
0000d0 f7 c6 8e 3d 3b 8c f5 bd 22 29 88 3d cb e8 a1 bd
       0.06971543 -0.119896375 0.066484705 -0.0790573
0000e0 c9 40 c8 3d f3 21 7c bc 12 00 ef 3d 8d db 7d 3d
       0.09777982 -0.0153889535 0.11669935 0.061976958
0000f0 94 be f8 bd d6 ea 0c bc ab 41 25 3c dd 8a 37 3d
       -0.12145725 -0.008600911 0.010086457 0.044810165
000100 41 61 01 bb ca 1a 70 3d 77 b3 8e 3c 71 a5 e3 3d
       -0.0019741806 0.058619298 0.01741956 0.1111554
000110 f7 3f a8 3d d4 ed fc 3d 36 a3 ac 3d b7 b9 24 bb
       0.08215325 0.123500496 0.084295675 -0.0025135109
000120 ba fc 42 bd 43 1a e3 3d 57 0a d0 3c b5 ac 4b bd
       -0.0476043 0.110889934 0.025395555 -0.049725253
000130 83 66 ff 3d a8 bb 3a 3d 7f 14 15 3c 2a 39 8b bd
       0.124707244 0.04558912 0.009099125 -0.067980126
000140 f0 cb 39 bd d0 97 91 bd f5 43 ef bc d3 a3 b3 bd
       -0.045360506 -0.07109034 -0.02920721 -0.08771481
000150 ef 68 f5 bc f9 f9 62 3d ca 3b df 3c e0 ff b1 3b
       -0.029957263 0.055414174 0.02725019 0.005432114
000160 8e fd 61 3b 78 f2 a2 3d 19 f1 59 bd e9 e3 71 bd
       0.0034483406 0.079564035 -0.053208444 -0.059055243
000170 d5 0f b9 3d d3 cf 8c bd 5e eb 2a 3d 19 94 cd 3c
       0.09036223 -0.06875577 0.04172837 0.025095033
000180 91 b7 c8 3d 88 d1 34 bd 6d 63 cc 3c 0a d8 b3 3d
       0.098006375 -0.044145137 0.024949754 0.087814406
000190 f0 d6 f0 bc 9d 3e 89 3d 6b 60 00 3d 1d 81 bf 3c
       -0.029399365 0.06701396 0.03134195 0.023376996
0001a0 9b 8f c5 3d 1b 14 90 bc 10 9f d8 3b 4d 80 ef bd
       0.09646531 -0.017587712 0.0066107586 -0.11694393
0001b0 91 f0 f5 bc 71 ec bc 3d 42 cb 99 3d ff a5 a4 3d
       -0.030021938 0.09224785 0.075094715 0.08039474
0001c0 4a 77 78 bd 9f cc ab bc 05 cc 0a 3c 27 be fa 3d
       -0.060660638 -0.020971594 0.008471494 0.122433
0001d0 19 67 08 3e 3a f0 a3 bd a5 7f 78 3d d4 d9 b8 3d
       0.13320579 -0.08004804 0.060668606 0.090259224
0001e0 fc 9c 78 bc a6 e5 96 bd 68 66 f5 3d 96 ca 11 3e
       -0.015174147 -0.07368021 0.11982423 0.14237437
0001f0 13 37 b7 3c f4 32 d7 bc 5a 37 86 3d d4 68 6e 3d
       0.022365129 -0.026269414 0.06553526 0.05820544
000200 db 26 27 3d 7e 32 30 bd 7f e1 df 3d 7d f4 75 bd
       0.04080854 -0.043016903 0.10931682 -0.060047615
000210 ff 57 d5 bd af 35 3f bd bb 58 81 3c 84 24 ac bd
       -0.104171745 -0.046682056 0.01578938 -0.08405402
000220 38 8f 99 bd 5a 4e 7d 3d 93 dc f7 bd f6 86 c1 bd
       -0.0749802 0.0618423 -0.12102618 -0.0944957
000230 fc 6e ff bc db f1 a8 3d 27 9a a4 bd c8 95 ad 3c
       -0.031180851 0.08249255 -0.08037215 0.021189585
000240 d4 92 73 3d e1 96 a8 3d 2b c6 60 bd 02 9b 73 bd
       0.059466198 0.08231903 -0.054876488 -0.059474
000250 12 08 6a bd f1 ef f2 bc d3 43 df 3d 5d db 94 3d
       -0.057136603 -0.029655429 0.10901608 0.07268403
000260 06 26 2e bd ef 7f fc bc db d1 24 bd 10 e8 be 3d
       -0.04251673 -0.030822722 -0.040239196 0.09321606
000270 50 fb bd 3d b6 d7 03 be 6e e0 b8 bd b3 49 de 3c
       0.0927645 -0.12875256 -0.090271816 0.027134752
000280 76 fa 05 3e 19 56 d6 3d 02 1f 58 bd 48 ab d6 3d
       0.13083825 0.104656406 -0.052763946 0.10481888
000290 2b d2 63 bd 61 1c 85 bd 44 da f5 bd e3 e5 c0 ba
       -0.055620354 -0.064995535 -0.120045215 -0.0014716949
0002a0 14 b2 86 3c 86 47 a5 3d f7 88 e6 bd 82 79 d5 bd
       0.016442336 0.08070283 -0.11256593 -0.104235664
0002b0 fa f2 3b 3c b2 21 d9 bd 58 67 d3 3d 86 b5 81 bc
       0.011471504 -0.1060213 0.10322446 -0.015833627
0002c0 a5 e2 92 3d 4a 22 9c bc 71 d2 0d bb 45 2b 41 3b
       0.07172135 -0.019059319 -0.0021640325 0.0029475254
0002d0 d9 13 96 bb c5 00 af 3d 13 cd f1 3d 27 fb d1 bd
       -0.0045800027 0.08545069 0.11806693 -0.10252982
0002e0 32 6a 21 3d 69 73 0b bd bc 83 3a bd a0 3c a7 3d
       0.039407916 -0.03404561 -0.045535788 0.0816586
0002f0 bf 18 fd 3c 7b 05 41 3c ba 31 11 3b 87 4a 3d 3d
       0.030895589 0.011781092 0.0022154883 0.046213653
000300 d7 6a 92 3c 2c c3 fd bd c3 51 54 bc c2 73 52 3b
       0.01787321 -0.12390742 -0.012958947 0.0032112454
000310 cb 87 f6 bd b6 3a 86 3c 51 ce f3 bd 51 9b a2 3d
       -0.12037619 0.016385417 -0.11904586 0.079397805
000320 a3 43 01 3e 77 21 88 3d 12 d5 96 bd 9a a0 39 bd
       0.12623458 0.06647008 -0.07364859 -0.045319177
000330 e5 9c 31 bc 66 c6 05 be ac 11 2a 3c ac ce 00 bd
       -0.010840629 -0.13063964 0.01038019 -0.031447098
000340 1b 74 97 3d 6a 97 09 3d ff 32 86 3d f0 6a 3f 3d
       0.07395192 0.033591665 0.065526955 0.046732843
000350 d5 42 c0 3d ce 14 35 bd 12 68 79 bd f7 6e ca bd
       0.09387747 -0.044209294 -0.060890265 -0.09884446
000360 b1 7d a3 bc 0c 71 10 bd 68 d4 94 3d e9 88 86 bd
       -0.019957395 -0.03526406 0.07267076 -0.06569082
000370 64 6a 23 3e ba 69 2c bd 09 f6 33 3d fa f8 d5 bd
       0.15958554 -0.042093016 0.04393581 -0.10447879
000380 b4 64 01 3e 1a 76 20 3e 9a a8 3f bd 9d c5 94 bc
       0.12636071 0.15670052 -0.04679165 -0.018160636
000390 b2 28 de bc a4 1a b1 3d ff b9 da bc a7 09 ac bc
       -0.027119014 0.086476594 -0.026700018 -0.021000696
0003a0 a6 5c d9 bd b3 5b 4b 3d 4d d4 4f 3c 06 39 74 3d
       -0.106133744 0.049647998 0.012684894 0.059624694
0003b0 bf 3a 1d bd df 60 1a bd 77 84 e5 bc 94 91 01 3e
       -0.038386103 -0.03769004 -0.028017266 0.1265319
0003c0 cc bb 77 3d 9a 2a 7c bc 36 42 c8 bd 44 38 0e 3d
       0.06048183 -0.015391016 -0.09778254 0.034721628
0003d0 b2 67 a8 bc fb 3e 00 be 46 a7 9a 3d d9 60 74 bc
       -0.020557258 -0.12524025 0.07551436 -0.014915668
0003e0 8b 02 58 bd 7c 77 95 bc cd 7b 46 3c c6 7a 01 3e
       -0.0527368 -0.018245451 0.012114477 0.1264449
0003f0 6c b6 af 3d 9b 91 23 3e 2f 98 71 bc ce b3 a3 bd
       0.08579716 0.15973513 -0.014745756 -0.079932794

fc.2.bias f4 [64]
000000 10 22 d3 3d 47 f4 01 bd 5c 56 b2 3d 72 45 52 3d
       0.10309231 -0.0317271 0.08707878 0.05133576
000010 09 56 c1 bc fd 60 b3 bd 01 76 56 3d e8 65 df 3d
       -0.023600595 -0.087587334 0.05235863 0.10908109
000020 ef e0 20 bd ce 21 83 bc 77 a2 b3 bd 25 88 bb bd
       -0.039277013 -0.01600733 -0.08771222 -0.09156827
000030 3d 45 05 3d cd fa bd bd d0 08 c7 3d d9 0a d4 3c
       0.032536734 -0.09276352 0.09718478 0.025884079
000040 3c 51 00 3e ad 27 2c 3d a0 e9 c0 3d 18 cb 21 bd
       0.12530988 0.042030025 0.094195604 -0.039500326
000050 06 e9 c7 3d 10 8a 08 3e 53 61 06 be 01 5a 71 3d
       0.097612426 0.13333917 -0.13123064 0.058923725
000060 d0 13 ff bc a4 0d a4 bc ce c3 8a bd 4c 92 01 bd
       -0.031137377 -0.020026036 -0.06775628 -0.03163366
000070 32 9e 83 3d 36 b5 e1 bd c3 cf d2 bd 43 72 9e 3d
       0.06426658 -0.11020891 -0.10293534 0.077366374
000080 e6 30 10 3d 7b d4 37 bd 8c 6f a0 3d 90 85 0d bc
       0.035202883 -0.04488037 0.07833776 -0.008637801
000090 cf 71 00 bd 47 d9 d6 bd 50 fa 08 bc 27 2f 8d 3d
       -0.031358536 -0.10490661 -0.00836046 0.06893759
0000a0 48 49 46 bd 61 9f 73 3b 04 30 c1 bd 62 6e 8d bd
       -0.04840973 0.0037173855 -0.094329864 -0.069058195
0000b0 0c e4 b8 3d ed 30 8e 3d b7 a6 bc 3d 38 73 86 bd
       0.090278715 0.069429256 0.09211486 -0.06564945
0000c0 6a 70 a3 bc 5c be 12 bd 47 ed c0 3c 37 67 6f 3c
       -0.019951064 -0.035826072 0.023550643 0.014612011
0000d0 9a bf fd 3d 6c 0c c9 bd 6e ae a1 3d 75 0e 03 3d
       0.12390061 -0.098168224 0.07894598 0.03199621
0000e0 f4 4b 82 3b a4 41 95 3d 15 76 bb bd e7 d4 7a 3d
       0.0039763395 0.072879106 -0.09153382 0.061238196
0000f0 33 ef fc bc f8 e3 48 3d e7 38 fa 3d 38 b1 4b bd
       -0.030875778 0.049045533 0.122178845 -0.049729556

actor.weight f4 [6, 64]
000000 ef 96 bc 3d 62 49 03 3e a2 12 db ba 9b 9b ca 3d
       0.09208476 0.12820962 -0.0016713927 0.09892961
000010 cf 9f 2c 3d dd 85 d9 bd 6a 11 c0 3d 5c c0 9c 3d
       0.042144593 -0.106212355 0.093783215 0.07653877
000020 94 ee a3 3d b7 e7 23 bd e3 23 14 3e 0a 52 3d bd
       0.080044895 -0.040015902 0.14466815 -0.046220817
000030 36 bd ab 3d 13 77 1f be 6b 0d c3 3d ff 63 d7 3d
       0.083856985 -0.15572767 0.09524044 0.105171196
000040 7e 34 0f 3e 25 56 bd 3d 48 e5 32 3e 06 5d 1e 3e
       0.13984868 0.092449464 0.17470276 0.15465173
000050 e8 e4 dd 3d d1 e3 dc 3d 5a 3b 93 bd b3 cb e7 bd
       0.10834676 0.1078564 -0.07189055 -0.113181494
000060 4d 56 d1 3d 2c 2c 03 3c 98 8e 2a bc f9 4e a4 3c
       0.10221539 0.008006137 -0.010409974 0.020057188
000070 dd fb 99 bd 95 b4 36 bd 62 13 8c bd 76 e8 0b 3d
       -0.07518742 -0.04460581 -0.068396345 0.03415724
000080 d5 01 2f 3e b1 42 98 3b 3c 98 a6 3d cf d6 c5 bc
       0.17090543 0.004646622 0.08134505 -0.02415028
000090 2e f5 2d 3d 9d 39 86 bc a1 b5 ea bd f5 27 5c 3c
       0.04247015 -0.016384894 -0.11460424 0.013437261
0000a0 2e 04 b6 bd 31 f3 36 bd 58 db 06 3d d2 fd eb 3d
       -0.08887516 -0.04466552 0.032924026 0.11523022
0000b0 ec 7b af 3d ba 5d a9 bc 0c 7e 8b 3d 90 ac b7 bc
       0.08568558 -0.020674575 0.06811151 -0.022421151
0000c0 a1 a0 b0 3d 17 2c 07 3e a7 d7 ea 3d 95 ce 5b 3d
       0.086243875 0.13200413 0.11466914 0.05366381
0000d0 d2 76 c8 bc 23 27 4f bd ee 80 a5 bc 01 3c e4 3c
       -0.02447072 -0.050574433 -0.02020308 0.027860643
0000e0 42 8f cc bc 98 bc cf bc 66 d0 dc bc 0d c1 87 bd
       -0.024970654 -0.025358483 -0.02695484 -0.066286184
0000f0 57 1a 8e 3d e7 cb cf 3d 14 aa d6 3d 54 22 0d bd
       0.06938618 0.10146313 0.104816586 -0.034456566
000100 8d be c5 3c 56 81 ca bc c3 51 45 3d f0 4f 0c bd
       0.024138713 -0.024719875 0.048173677 -0.03425592
000110 9a 63 5b bd 1f 2b 83 bd 3b 3e 17 be 83 aa e8 3b
       -0.053561784 -0.06404709 -0.14769833 0.0071004047
000120 cd 2c 8e bd 5a 61 aa 3c f0 f7 18 bd 18 e3 90 bd
       -0.06942139 0.020798374 -0.037345827 -0.07074565
000130 98 84 a9 3c 94 65 f7 bd 9f 83 ae bd ce 88 70 bc
       0.020693108 -0.12079921 -0.085211985 -0.014681054
000140 d5 69 c6 3d 98 74 ad 3d 5a 8f f6 bd f7 e3 13 be
       0.096881546 0.08469504 -0.12039061 -0.1444243
000150 48 83 e1 bd dd 41 bc 3d 13 35 df bd 69 49 c7 bd
       -0.11011368 0.0919225 -0.10898795 -0.09730799
000160 1f c2 ad bb 20 32 cf 3d f2 b4 06 be 43 f6 b9 bc
       -0.005302682 0.101169825 -0.13154963 -0.022700435
000170 ec 5d b7 bb de f4 41 3d e9 df ca 3d c9 87 28 3d
       -0.005595913 0.047352664 0.09905989 0.04114512
000180 76 5a 17 bd 47 04 1f 3c 00 4b 92 3d 67 be 62 bc
       -0.036951505 0.00970561 0.07143211 -0.013839341
000190 74 5b 24 be 0d 58 3f 3d 28 3a 72 3d da 53 f8 3c
       -0.16050512 0.04671483 0.059137493 0.030313421
0001a0 14 15 50 3d 02 22 0b bd 86 00 0e be 2a 87 fa bd
       0.05080135 -0.03396798 -0.13867387 -0.12232812
0001b0 6e 3b 05 3c 2e af 50 bd 7c be b1 3d ce 5b 99 3d
       0.008131845 -0.050948314 0.0867891 0.074882135
0001c0 d5 c3 af bd de ea a5 3d 04 c7 5f 3c f0 90 35 bd
       -0.08582274 0.08101438 0.013658289 -0.044327676
0001d0 07 06 fd bd a7 ea 7f bc 83 18 82 bd d1 4d ec bd
       -0.12354665 -0.01561991 -0.063523315 -0.1153828
0001e0 1c 7f 12 3d d9 fa 4e bd b3 94 b5 3d 0c 64 93 bb
       0.035765752 -0.050532196 0.08866253 -0.0044980105
0001f0 35 cf 3d 3c be 09 bb 3d eb bb 89 3d a8 9a 95 3d
       0.011585047 0.091327175 0.06725296 0.07304889
000200 73 9f ed 3d 01 8e b2 bd 2c 1a 01 be 78 fb 29 bd
       0.11602678 -0.08718491 -0.1260764 -0.041499585
000210 92 ef cb 3d 3d ba 4f 3d c7 7e e7 bc d5 58 ac 3d
       0.09957804 0.05071472 -0.028258694 0.08415381
000220 33 17 d0 3d 16 ac bf bd 03 9c 61 3d c1 01 5d 3d
       0.10160675 -0.09358995 0.055080425 0.05395675
000230 97 0f bd 3d 4c 68 07 3e 8d 93 05 3d 6b 91 be bc
       0.09231489 0.1322338 0.03261142 -0.0232627
000240 f5 d1 56 3c 1a 0f 9d 3b f0 2a 56 bd 29 5b ee 3b
       0.013111581 0.00479306 -0.052287042 0.0072740507
000250 87 51 bd 3c ce 0c 73 bd ba f5 9b 3d 76 a6 af bd
       0.023110164 -0.059338383 0.07615228 -0.08576672
000260 60 b6 a7 bd e9 fd f1 3c 96 07 8e bd a6 e5 c1 3d
       -0.08189082 0.02954002 -0.06935041 0.0946763
000270 48 55 58 3b 05 8b b3 bd d5 e9 53 3d 2c 6a 69 3d
       0.0033009816 -0.0876675 0.05173667 0.05698602
000280 7e 3e f1 bd 5f de ed bd 56 db 6b 3c ce 9b 3f bd
       -0.117794976 -0.116146795 0.0143955555 -0.046779446
000290 90 4d b5 bd 21 76 d1 3c 6c 24 12 be b0 98 c0 3d
       -0.088526845 0.025569024 -0.14271706 0.09404123
0002a0 50 06 ad 3d 5f c6 d2 bd 2a c2 c3 bd 38 49 b2 3d
       0.0844847 -0.102917425 -0.09558518 0.087053716
0002b0 01 05 df bd 95 77 80 3d 38 b3 f0 bd 7c 1f 1c bd
       -0.10889626 0.062728085 -0.11752933 -0.038115963
0002c0 d5 0f ac 3d 69 d3 f3 bd 60 db e7 ba a3 d2 bf 3d
       0.08401457 -0.11905558 -0.001768928 0.09366348
0002d0 97 41 ea bd 9e 3a 20 bc 18 a6 49 bc 84 2a c0 bd
       -0.114382915 -0.0097796 -0.012307666 -0.09383109
0002e0 ce a1 df bc 32 0a d8 3d cc 90 a1 3d 4f 7d 30 bc
       -0.027298834 0.105488196 0.07888946 -0.010772063
0002f0 ab ea bd bc 42 6b ed 3d 21 87 97 bd ff a9 ec 3d
       -0.023183187 0.115927234 -0.07398821 0.11555862
000300 0b 63 27 be 73 5f 05 be f2 47 ae 3c c4 aa eb bd
       -0.16346376 -0.13024692 0.02127454 -0.1150718
000310 df 2c a8 bc dc b7 43 3d 4f da 32 bd f3 36 06 bd
       -0.020529209 0.047782764 -0.043665227 -0.032767247
000320 61 c5 83 bd 4e c4 a5 3d ca e1 70 bd 11 9f 1a 3d
       -0.064341314 0.08094083 -0.05880908 0.037749354
000330 9d 8a 10 bd 91 37 53 3d 12 2a e0 bd 3c c8 21 be
       -0.035288442 0.051566664 -0.10945524 -0.1579904
000340 6d 7a 30 bc 1e 88 90 3d fc 88 00 bc bc fd d7 bd
       -0.010771376 0.07057212 -0.00784516 -0.10546443
000350 f0 40 f7 bc 01 b3 c2 bd 4d 46 cf bd aa 6c 89 bd
       -0.030182332 -0.095067985 -0.10120831 -0.06710179
000360 b4 e0 ab bd 72 e7 ea 3b 62 9f 86 bc 2c 1c 4e bd
       -0.08392468 0.0071687037 -0.016433422 -0.050319836
000370 e8 06 d9 bc f4 75 e4 3d 59 b4 4b bc 42 3f a1 3d
       -0.026492551 0.1115531 -0.012433135 0.078733936
000380 02 18 b2 bd fb c2 0f 3d 00 05 03 be cc 0e b7 3d
       -0.086959854 0.035098057 -0.12794876 0.08938369
000390 ab 9b c5 bc 9e 7b 00 bc 92 ab 3f bd ec e9 2f 3c
       -0.02412208 -0.007841973 -0.04679448 0.010736924
0003a0 15 6a 25 3d 55 80 e9 3d 5b f0 8a bd 30 06 39 3d
       0.04038437 0.114014305 -0.067841254 0.045171916
0003b0 9f c3 3c bd 4a c1 fc bd 37 e7 90 3d 58 73 8f bd
       -0.046084996 -0.123415545 0.07075351 -0.07004422
0003c0 ee 4d c0 3d 38 28 4c bd 06 f3 46 bc 7d e3 d5 bd
       0.09389864 -0.049843043 -0.012142902 -0.104437806
0003d0 d0 0c 17 3d 69 14 69 3d 5a f7 ed 3d c4 b6 ec 3d
       0.036877453 0.05690423 0.11619444 0.11558297
0003e0 c7 92 b0 3c fe fe 67 3d e2 09 94 bd 57 61 82 bd
       0.021554364 0.056639664 -0.072284475 -0.06366222
0003f0 66 e6 d8 3c 96 69 86 bd 85 15 a2 3a 1f 63 d7 3d
       0.02647705 -0.06563108 0.0012366032 0.10516953

actor.bias f4 [6]
000000 74 7d a4 bd 12 67 b1 bd b3 fc a4 3d 00 ea 16 be
       -0.08031741 -0.08662237 0.08056011 -0.14737701
000010 83 59 8a 3c 44 b4 6f bd
       0.016888386 -0.058521524

critic.weight f4 [1, 64]
000000 f0 5c ad 3d fe c5 ae bd 40 d8 d1 3c 0a f9 a5 bd
       0.08464992 -0.08533858 0.025615811 -0.08104141
000010 68 67 8f bd f0 7f 57 bd 3c 79 07 bd 04 67 37 bd
       -0.07002145 -0.052612245 -0.033074602 -0.044775978
000020 02 a9 f8 bd de 16 a6 3d e0 e1 77 bc d2 f3 d0 bd
       -0.12141611 0.0810983 -0.015129536 -0.10202755
000030 9c 19 07 bd 08 d7 fb bd c0 56 c2 bd 40 83 c4 bd
       -0.032983407 -0.12296873 -0.094892025 -0.095953465
000040 0a 87 8d 3d 10 0e 13 3d ba 95 ae 3d e4 fc 65 bd
       0.06910522 0.035902083 0.08524652 -0.05614938
000050 86 07 d3 bd 1e 0f a0 bd e0 19 72 3c 54 4a d1 3d
       -0.10304169 -0.078153834 0.014776677 0.10219255
000060 f4 9a 06 bd 68 21 94 bd 2a 00 83 bd d0 e2 52 3d
       -0.03286262 -0.07232934 -0.06396516 0.051485837
000070 fc 41 4f bd bc 53 c4 bd 88 1a ec bc 54 6c 85 3d
       -0.050600037 -0.095862836 -0.028821245 0.065148026
000080 cc 8c 56 bd 6a 66 ae 3d 90 4a fe bd 04 29 9d bd
       -0.052380368 0.08515628 -0.124165654 -0.07673839
000090 28 45 24 3d dc 4d e7 3d f8 9b 46 3d cc 69 80 bd
       0.040105015 0.11294147 0.048488587 -0.06270179
0000a0 8a 62 f9 bd d2 a9 e8 3d d4 0d 56 bd 5c b4 b0 3d
       -0.12176998 0.11360516 -0.05225928 0.08628151
0000b0 b0 60 65 bd 96 6c 96 bd c0 0c b5 3d f2 b7 90 bd
       -0.05600041 -0.0734493 0.088403225 -0.07066335
0000c0 58 58 78 3d cc 8c f8 3d 80 5a a0 3a 6c 88 74 3d
       0.060631126 0.1213623 0.0012234002 0.059700415
0000d0 ea 60 83 3d 10 84 cd bd 2a c0 e4 bd e8 ab 84 bc
       0.06414969 -0.100349545 -0.11169465 -0.016195253
0000e0 04 69 4b 3d f4 fd 3d 3d 88 10 d8 3d b8 f2 ef 3c
       0.049660698 0.046384767 0.10550028 0.029290542
0000f0 52 ba c6 3d c8 e6 44 3d 04 28 50 3d 4e cf e0 bd
       0.097035065 0.048071653 0.050819412 -0.1097704
