models/CartPole-v1/actor_critic_20241114_011837.pth (torch, 21729 bytes, 7 tensors)

fc.0.weight f4 [64, 4]
00000000: 8483 be3e 2d17 41bd fe6e 863e 39ae ed3e
00000010: 2ee0 af3d 8c9f 1b3e 3cee 07bf 509b 953e
00000020: 568a 7ebc ba11 e93e 9ad4 9b3e 053a e4be
00000030: 700b 8bbe 53ae e23d a591 013f 18e9 52be
00000040: 9710 eebe 7dd0 49be b48d 81bd a3c7 693e
00000050: 4607 343d 7bd2 e63e f384 aebe 716b 03bf
00000060: 6949 d53e db2e efbe d400 c7be a2cc e93e
00000070: 7384 63be 2cfc bb3b d1fe b9bd 2116 b2bd
00000080: 8398 c63e 2b06 113d 356f c1bb 01ec de3e
00000090: c40c f9be 21a8 063c 9b4b 4b3d 2b38 93be
000000a0: d69e b6bd a907 5b3e e5b3 55be 577d 8dbe
000000b0: 374b 3bbe 5163 04bf d220 05bd 6cc2 593e
000000c0: bdaa 533e 7c9e 053e 49fd abbe 2a8a a13e
000000d0: e3c6 f7bd 2181 9bbe cb57 1abe ca2b 503e
000000e0: 4295 06bf a312 febd ce46 1d3e d2c6 ad3e
000000f0: d0a9 a5be 6e75 6fbe ba41 9b3d 0392 73be
00000100: 1c06 363d bf27 6e3e cc79 5fbe e9a0 183e
00000110: b663 c63e 7906 ca3e 4efb 14be 6a6a 693e
00000120: fe8d bcbd 1203 ce3e 9108 eabe 6c82 ab3e
00000130: f0c3 fdba d22f b6be a6d3 fabe 3924 d73e
00000140: fbc2 603d 5946 e4be 2409 37be 4b98 fe3d
00000150: 0f13 d23e ff0e 353e 03ea 8a3d 025a 853e
00000160: e8b1 9bbe 5341 fd3e 5cb0 8c3e 9944 9fbb
00000170: 628a 833e 57e2 1bbc 9a93 10bd 7b4c 57bd
00000180: 994b 92be 940c 2e3e cbbf f63e d753 edbe
00000190: 9fe9 79bd be4a c9be c0a0 29bb 0aa5 95be
000001a0: 59b5 0cbd f0a3 40be 1a28 1ebf 9165 06bf
000001b0: a848 d13e 5a9c ab3e 7ea9 34bd bbc2 08bf
000001c0: 7061 c2be 4c84 773d 0bb5 2abe 8a38 b03d
000001d0: 2eb1 503d 0f34 5bbd 90da cdbe b989 da3d
000001e0: 3641 5bbd 46eb b93e 138a 9cbe 6d9b c7be
000001f0: f861 c93e 72d1 edbd a511 1ebe cea4 21be
00000200: e0ae c0be e7f9 343e 1be4 afbd 0163 5e3e
00000210: 377f 8e3e 6543 3b3e fdcc 013f da5c 93be
00000220: fc8a 80be 15d3 d3bd e3f5 ef3e c585 9d3d
00000230: 05ff d63e 9f74 59be 3075 183e 51a0 40be
00000240: a773 053f ffbe 093f 0304 603e 9b8a 05bf
00000250: 76c3 a8be 888c 8ebe b20c ed3d c401 bb3e
00000260: bfcb 52bd aefd 5dbe cdf6 a9be 3094 903e
00000270: e877 893e 6e6d cbbe 8074 e8bd 004a 61be
00000280: ea6a 6a3e ede0 17bd 404f 1abe f98a 7f3e
00000290: 1c24 4ebe 7829 8dbd 2421 d4be e077 893c
000002a0: c399 863d a39a 723e eed5 433e d367 953d
000002b0: 40e5 b7be 913c 193e 6074 5bbe a1c7 c4be
000002c0: c6c3 7cbd 8bc7 fcbe 4f9a 10be daf2 98bd
000002d0: 5e66 d43e 6a85 fdbd 71e3 80be 6d08 06be
000002e0: 2b18 9f3e fb73 ca3e aa89 4cbe 6237 2c3e
000002f0: 9e30 acbd 85c1 273e 4e3c 3abe 0407 0abf
00000300: 252a ae3e 7b26 05bd 2df6 a23e 2a87 a3be
00000310: 16d9 71bd 9eb9 e2bd 5910 2c3e 2f82 afbe
00000320: d819 b23d c0af f63e 33f2 c8be 9597 a6be
00000330: e6f7 e13e ed79 28be 7780 96be bbb8 79be
00000340: 5839 bf3e 835a 913d 37d7 6b3e 993d 253e
00000350: 0ad9 b5be b989 db3e 681e a43d c453 4b3e
00000360: e5dd 8a3e 44c7 b6bc f23d 563e 0fe8 bc3e
00000370: 34bb 9c3e ab4d 963e 4894 db3d 3e07 843e
00000380: d031 0e3d a027 9dbd 4016 56be b8ab 9d3d
00000390: b5a0 c4bd c703 4dbe 4e8d 2bbe cebd f33e
000003a0: c79e 0abe 9b5b ddbe 467b 17bc eb27 fe3e
000003b0: 7e1b bbbe c80b 41be b6fc b73e c83e 093f
000003c0: 431a fa3e f4b6 d23b 69fe b9be cf47 e33e
000003d0: a95e abbe b4e5 3f3e f19f d03b 3465 1ebf
000003e0: 30fa 8f3e 9bb9 a0bd 6525 cebd 3e89 123f
000003f0: 2d19 02bd 88eb ba3e ab7a b1bd b959 13be
0.37209713 -0.047141243 0.26256555 0.46421984 0.08587681 0.15197581 -0.5309789 0.29220057
-0.015535912 0.45521337 0.3043564 -0.44575515 -0.27157164 0.11068406 0.5061286 -0.2059673
-0.46497032 -0.19708438 -0.06325856 0.22830062 0.04395225 0.4508246 -0.34085807 -0.5133582
0.4165757 -0.46715435 -0.3886782 0.45663935 -0.22218494 0.0057368483 -0.090818055 -0.08695627
0.38788232 0.035406273 -0.0059031495 0.43539432 -0.48642552 0.008218796 0.04963265 -0.2875379
-0.08917014 0.21389641 -0.20869406 -0.2763469 -0.18290411 -0.51714045 -0.032502003 0.21265572
0.206706 0.13048738 -0.3359168 0.31550723 -0.120984815 -0.30371955 -0.15072553 0.20329204
-0.525715 -0.124058984 0.15359041 0.3394075 -0.3235612 -0.2338464 0.07580896 -0.23786168
0.04443942 0.2325735 -0.21823806 0.14905132 0.38747948 0.39458063 -0.1454899 0.227945
-0.0920677 0.40236717 -0.4570966 0.33497941 -0.0019360762 -0.3558336 -0.489896 0.42019823
0.054873448 -0.4458492 -0.1787458 0.12431391 0.41030166 0.17681502 0.067829154 0.26045233
-0.3040917 0.494639 0.27478302 -0.0048604724 0.25691515 -0.009514413 -0.035297014 -0.05256317
-0.285733 0.16996986 0.481932 -0.46353027 -0.061013814 -0.39314836 -0.0025883168 -0.29227477
-0.034352634 -0.18812537 -0.6177994 -0.5249873 0.40875745 0.33517724 -0.044106953 -0.53422135
-0.37964964 0.060428903 -0.16670625 0.08604534 0.05095022 -0.053516444 -0.40205812 0.106708
-0.053528987 0.36312312 -0.30574092 -0.38985768 0.39332557 -0.11612214 -0.15436418 -0.15785524
-0.3763342 0.17673455 -0.085884295 0.21717454 0.27831432 0.18287428 0.5070341 -0.28781778
-0.25106037 -0.10342995 0.46867284 0.0769153 0.4199144 -0.21235894 0.14888453 -0.18811156
0.52129596 0.5380706 0.2187653 -0.5216462 -0.32961625 -0.27841592 0.11574687 0.36524785
-0.05146384 -0.21678802 -0.33196107 0.28238058 0.26849294 -0.39731926 -0.113503456 -0.22000885
0.22892347 -0.03707974 -0.15069294 0.24955358 -0.20130962 -0.06892675 -0.41431534 0.016780794
0.065722965 0.23691802 0.19124576 0.072951935 -0.3591709 0.1496451 -0.21431112 -0.38433555
-0.06171014 -0.4937099 -0.14121364 -0.07468195 0.4148435 -0.12378962 -0.25173524 -0.13089152
0.31073126 0.3954161 -0.1997439 0.16818002 -0.084077105 0.16382416 -0.18187067 -0.53916955
0.3401653 -0.0325074 0.31828442 -0.3193906 -0.05904492 -0.1107056 0.16803111 -0.3427901
0.086963356 0.48180962 -0.39247283 -0.32537523 0.44134444 -0.16452761 -0.29394886 -0.24386875
0.37348437 0.07097342 0.23031317 0.16136779 -0.3551715 0.42878512 0.08013612 0.19856173
0.27122417 -0.022311814 0.20922068 0.36895797 0.30611575 0.2935613 0.10721642 0.25786775
0.034715474 -0.076735735 -0.20906925 0.076987684 -0.09600965 -0.20020972 -0.16753122 0.47605747
-0.13537131 -0.43233952 -0.009245699 0.4963983 -0.36544412 -0.1885215 0.3593499 0.5361142
0.4884816 0.006430501 -0.36326912 0.44390723 -0.33470657 0.18739969 0.0063667228 -0.61873174
0.28120565 -0.078479014 -0.10065726 0.57240665 -0.03176229 0.3650782 -0.08665975 -0.14389695

fc.0.bias f4 [64]
00000000: b7b5 2fbe 6c25 4a3e 9ffa 993e d138 093f
00000010: 62eb 573e a05a febb 7c27 99be 0e8f 2a3f
00000020: 8903 7a3e 3393 c73d b799 2c3f e5bb cdbe
00000030: a4b9 5b3e 4945 fa3e c591 d3bd 29d4 b63e
00000040: 5494 bdbe 54e0 9ebe 3ca2 abbe c076 623e
00000050: bf4a 1d3f f08a 97be 51ca 01be c729 103f
00000060: 381a 813d 081d 523e f36b 17be 7f4c 9dbe
00000070: 0c47 11be 0ac8 803e c1b6 203f e512 2e3f
00000080: edfb eb3e 9bf0 083f 899a c13e 18cd b03e
00000090: 7892 9abe e867 ae3d 9470 2e3f 8c26 ecbe
000000a0: d7c6 a73e 8eaf f6be d5bd aabe cd70 e23e
000000b0: abe6 9a3d 8d86 043f e1d2 a63e cd95 5abe
000000c0: 7655 e73e d4e2 e43e 0132 98be 8441 163f
000000d0: 87a4 e33e a2ec e5be 2f34 423e 4aa0 ab3e
000000e0: 0830 febe 86fa 5cbe 785a 84be 7f1c 88be
000000f0: 439b ecbd 9652 8bbe 20a8 64be 3037 023e
-0.17159162 0.19740838 0.3007402 0.5360232 0.21085885 -0.007762268 -0.29912937 0.66624534
0.24415411 0.09744873 0.6742205 -0.40182415 0.21457535 0.48880985 -0.10330538 0.3570874
-0.37027228 -0.31030524 -0.33522213 0.22115612 0.6144218 -0.29598188 -0.12674834 0.5631375
0.06303829 0.20518887 -0.14787273 -0.30722424 -0.14187258 0.25152618 0.6277886 0.6799758
0.46090642 0.53492135 0.37813213 0.34531474 -0.30189872 0.08515912 0.6814053 -0.4612316
0.3276889 -0.48180813 -0.33347955 0.44226685 0.07563528 0.5176781 0.32582763 -0.21346207
0.4518239 0.44704306 -0.2972565 0.5869372 0.44461462 -0.449071 0.18965219 0.33520728
-0.4964602 -0.21579942 -0.25850272 -0.2658424 -0.11553051 -0.27211446 -0.2232976 0.12716365

fc.2.weight f4 [64, 64]
00000000: ce3c 39be b18c 803e 5166 e73d 07f1 683e
00000010: 35b7 4a3d cc75 7ebd e71a a53d 913e 333e
00000020: 173d 703e 76c2 6cbd 7f50 f13d 965d 2abe
00000030: 8108 753e d61e 8e3e f0a0 21be f10e 523e
00000040: b008 bebd 3764 ebbd b407 afbd 5459 0d3e
00000050: a2d9 f43d d653 913d 6394 2dbd e366 8b3e
00000060: d8c0 34bd 7e6c 1d3e ff9c 33be dadb 1dbe
00000070: 1aa0 003e 9a33 5d3e ea82 573e 0f54 3d3e
00000080: aca8 cb3d b2c9 a83d 4d55 b43d 261c 443e
00000090: d5b9 14be 65b7 333e f782 313e e809 25bd
000000a0: 86a2 c43d 7852 9d3c cdf8 8dbd 62ee 663e
000000b0: ea87 c1bc 7f93 893d d7e3 a33d 1543 98bd
000000c0: d284 e13d 99da 633e 3c03 c4bc 32a5 e33d
000000d0: c5ab 163e 3f28 853d 993a 00bd 6b73 533e
000000e0: a6df e53d 2d0a 88bd 4940 fcbd 8f70 58be
000000f0: 7821 533d 0c72 36be a509 bebd 74bf 3fbd
00000100: 2463 68bd 7e3e dcbc e317 b9bc 1529 94bd
00000110: 9469 173d 6185 843d 0046 543d 9d6c 93bd
00000120: 5ea5 8e3d 8f33 cfbd 6323 49bd 36dd 903d
00000130: 0efe 1d3c c806 10bd c078 a3bc 630c ab3b
00000140: 7f8d c73d 2c27 403d a770 a5bd 3863 81bd
00000150: 00b8 98ba 3bc2 6abd 0fce 6b3d 2022 923c
00000160: 9997 17bd 3470 fbbd 7119 04be 3ac0 803c
00000170: 6c80 d8bd e653 e2bc c905 63bd 455c 6e3d
00000180: 4bf5 783d 22d9 a83d dad5 b33d bf80 aebd
00000190: 0d89 363d 148a e3bd 8061 743b 5661 f63d
000001a0: 7164 97bd 582b 0dbd 98fd 86bd 007d 80bc
000001b0: 9893 033d cc48 6bbd ff0f a83d bc04 883d
000001c0: ae5a c33d e614 8fbd 597b f63a 8e1b 70bd
000001d0: e4f2 8abd b097 a8bc 90b8 2cbd a22f afbd
000001e0: 909c c6bc bc77 443d fad8 cc3d 60b1 00bc
000001f0: b05e 363d 2428 a13d f8be 6cbd 03df e6bd
00000200: 0c60 f33c e6c7 143d 8a0c de3c d119 263e
00000210: ab41 4f3d 55b5 4abd c5af 92bd 0134 423e
00000220: 88ef 2e3d 6f29 1d3e 42b1 463e 039c e8bd
00000230: c114 0b3e c46b 0d3d 9c23 c7bd 4dc1 353e
00000240: 8df1 c8bd 4444 963d aafd 833d f7f8 293e
00000250: f704 8b3d 90e1 1fbd 398b e33d 0a93 413e
00000260: 9ecc 4d3d 95bf 8f3d ace7 86be 57f7 23be
00000270: 9924 41bc d6d9 813e 3fc7 423e fb38 503e
00000280: 0747 763e 0c81 a83d d168 d13c cfc9 843e
00000290: d8ea 23be 8fc9 89bc 38a8 593e 640d 41bd
000002a0: 76ac e23c 7000 693c 47d5 f93d d0aa 853d
000002b0: 14e0 0d3e b375 2b3e d8a0 043e 8cf0 17bd
000002c0: d87d 3c3e b80d 733d f5fa 43be 09c3 4d3e
000002d0: 8987 683e 119e 4f3d b5ff c63d aaca 3b3d
000002e0: fa0c d23d ca6c ddbd 7b9b 723d 2301 8bbe
000002f0: 6bd9 01be 6aca d2bd 2db7 dfbc 0820 c0bc
00000300: f474 e1bc 4bce 083d 19b9 8c3d d105 863e
00000310: 3bed 383e ed69 ebbc 74aa 60bd a5cd 403e
00000320: a922 5f3e 4a47 a23d cc97 6c3e a27e 0bbe
00000330: 65df 073e f5e2 273e 25c2 f0bd 6995 2c3d
00000340: e72e 9cbd efbf b93d 5603 a23d eefd b73d
00000350: c6b6 733e 6a4a 843c aa5e e2bc 1af7 553e
00000360: edd6 79bd 00ea 833e 2396 43bd f085 2bbe
00000370: 87ff 003e 4b9f 943d 902f b63d 8b08 053e
00000380: cea7 ba3d 841c 0e3e c5dd 7d3d 3ec4 b63d
00000390: 17e1 9ebd 5bcc 8c3d d17d e43d 08de 863c
000003a0: 4d0c dc3d a0b5 c33c d6a5 c53d ac7d 323e
000003b0: b991 f4bc be5f 853d 887c ae3d 07d3 71bd
000003c0: 70b7 2f3c 492b 733e cb28 4dbe cb49 493e
000003d0: 6402 7c3e 9f59 cd3d 2d57 e13d 78e7 083e
000003e0: 00d4 e33d 07fe b2bd b3e6 f0bd 03cc 5bbe
000003f0: 9f52 10be 6842 33be e72b 2ebd c094 88bd
-0.18089601 0.2510734 0.11298812 0.22748195 0.049491126 -0.06212406 0.08061772 0.17504336
0.23460804 -0.05780264 0.117829315 -0.16637263 0.23929025 0.277579 -0.15784049 0.20513512
-0.09279001 -0.11493724 -0.08546391 0.13803607 0.11955573 0.070960686 -0.04237784 0.27226934
-0.044129223 0.15373418 -0.17540358 -0.15415898 0.12561074 0.21601716 0.21046034 0.18489097
0.09944281 0.08241595 0.08805332 0.19151363 -0.14524014 0.17550428 0.17335115 -0.04029265
0.096013114 0.019204363 -0.069322206 0.22551873 -0.02362438 0.06717586 0.080024414 -0.0743467
0.110116616 0.22251357 -0.023927324 0.11115493 0.14713962 0.06501817 -0.031305883 0.20649497
0.11224298 -0.06642566 -0.12316949 -0.21136688 0.05154559 -0.17816943 -0.09279183 -0.046813443
-0.056735173 -0.026885267 -0.022594398 -0.07234398 0.03696592 0.064707525 0.05182457 -0.07198451
0.06965135 -0.10117256 -0.049106013 0.07073443 0.009643091 -0.035162717 -0.019955039 0.0052199825
0.09743785 0.046912357 -0.08078127 -0.063177526 -0.0011651516 -0.05731414 0.05756956 0.017838538
-0.03700981 -0.122772604 -0.1290033 0.01571666 -0.105713695 -0.027627897 -0.05542544 0.058193464
0.060780805 0.0824454 0.08781023 -0.0852065 0.044564296 -0.11110321 0.003728956 0.12030284
-0.073922046 -0.034465164 -0.06591338 -0.015684605 0.03212318 -0.05744247 0.08206176 0.06641528
0.0953878 -0.06986408 0.0018805071 -0.05862003 -0.06784609 -0.020580143 -0.0421682 -0.08554007
-0.024244577 0.04796575 0.100023225 -0.0078547895 0.044523895 0.07868984 -0.05779931 -0.11273005
0.029708885 0.03632345 0.027105588 0.16220786 0.050599735 -0.049489338 -0.07162432 0.1896515
0.042708904 0.15347837 0.19403556 -0.11357882 0.13582136 0.0345266 -0.09723589 0.1774952
-0.09811697 0.073372394 0.06444867 0.16598879 0.06788056 -0.039033473 0.11110539 0.18903747
0.050243966 0.07018963 -0.26348627 -0.16012321 -0.011788511 0.25361508 0.19021319 0.20334236
0.24050532 0.08227739 0.025562676 0.25935218 -0.16007555 -0.016819743 0.21255577 -0.04713191
0.027670126 0.014221296 0.121988826 0.065267205 0.1385501 0.16744117 0.12951982 -0.037094638
0.1840738 0.059339255 -0.19138701 0.20093931 0.22707953 0.050687853 0.09716741 0.045847572
0.10256381 -0.108117655 0.05923031 -0.27149305 -0.12680595 -0.10292514 -0.027309025 -0.023452774
-0.027521588 0.03339986 0.06871242 0.26176313 0.18059246 -0.028737033 -0.054850057 0.18828447
0.21790566 0.079237536 0.23104781 -0.13622525 0.13268812 0.16395171 -0.1175578 0.042134676
-0.076261334 0.090698116 0.079107925 0.0898398 0.23800191 0.016148765 -0.02763303 0.20895043
-0.060995985 0.25764465 -0.047750603 -0.16750312 0.12597476 0.07256945 0.088957906 0.1299154
0.091140375 0.13878065 0.061979074 0.08924149 -0.07757776 0.06874915 0.1115681 0.016463295
0.10744534 0.023890316 0.09650771 0.17430753 -0.029854642 0.06512402 0.08519846 -0.059039142
0.010724887 0.2374698 -0.20035093 0.19657056 0.24610287 0.100268595 0.110029556 0.13369548
0.1112442 -0.08739858 -0.117627524 -0.21464543 -0.14094017 -0.175058 -0.042522337 -0.06668997

fc.2.bias f4 [64]
00000000: aa32 663e b898 a4bd 3c33 6c3e 3adc e33d
00000010: 8e78 b83d ad6c cd3d 0abe aebd 68b7 97bc
00000020: 0f19 683e 47ef 1ebe 6a50 f43d bc18 7f3e
00000030: 29be b33d dfcf 49bd b51f 11bd ba84 3a3d
00000040: a985 a13d f763 8f3d 59bf 663e 0413 d3bd
00000050: dfd5 383e 7bbf 1ebd 43cc 6c3e 2a55 d93d
00000060: 6776 38bc 2ede 6c3d ee49 5d3d ad3e b0bc
00000070: 2414 dcbb 50a1 d03c 15d0 fb3c 946f 64bd
00000080: fbe9 dfbd a62a cd3d c8b6 863e 50c9 2cbd
00000090: 7340 8f3e d4af fabd 7490 9dbd 522a 223d
000000a0: 58a9 fc3d 1d7e e53b 6fa8 a13d 1d7b 9b3e
000000b0: 555c 5b3e 9905 423d a8e9 423d b419 133e
000000c0: 2b4d 993b 691b 4a3e 1710 7e3e 0bca 0a3e
000000d0: 54e6 81bd cf6b 553e 2a78 3dbd c189 623d
000000e0: efbd 573d abda 683e 6511 ecbd bb97 703d
000000f0: 4af4 063e b118 d5bb 2c64 efbd 4576 5a3e
0.22480264 -0.08036941 0.2306642 0.11125989 0.09007369 0.10030494 -0.08532341 -0.018520072
0.22665809 -0.15520965 0.119294 0.24911779 0.087765045 -0.049270507 -0.03543063 0.045536734
0.07886822 0.07001489 0.22533931 -0.10306361 0.18050335 -0.03875683 0.23124795 0.10611947
-0.011258698 0.057829075 0.054025583 -0.021514261 -0.006716268 0.025467545 0.03073887 -0.05577047
-0.109333 0.100179 0.26311326 -0.042184174 0.27978858 -0.12240568 -0.07693568 0.03959114
0.12336987 0.0070035593 0.07893454 0.30367365 0.2142194 0.04736862 0.047586113 0.14365274
0.0046783886 0.19737019 0.24810825 0.13553636 -0.0634276 0.20841907 -0.046257176 0.055307154
0.05267137 0.22739665 -0.11526755 0.05873845 0.13179126 -0.0065031876 -0.11689028 0.21334179

actor.weight f4 [2, 64]
00000000: 1276 0dbe 73c0 c6bd 4a5e 063e 5911 c1bd
00000010: 12ec 84bb 1e8b 743d bf28 403d 28cb 38be
00000020: 9288 f43d 72ea e63c fdfd d3bc 147b bbbd
00000030: 7887 893d 0876 2ebd 9833 433d 5553 033e
00000040: 3dd0 91bd c428 d8bd 1b42 36bd 7998 003e
00000050: d5e7 923d 4efc e33d e85e bdbc 80f8 7fbc
00000060: c422 113c 21ed 0bbe 48a6 8ebd 9f2a 82bd
00000070: 0f7f 04be 6b0e b03d 758e 843d e812 4c3d
00000080: c262 89bd 9cc4 c8bc 97fb aa3d ba46 f7bd
00000090: 4587 9d3d bc1d b03d 8c86 23bd 39a5 46bd
000000a0: 64da 483c fa16 cb3c c789 043d 1ad4 5c3d
000000b0: 08cd bcbd 0d8a 2cbd d2ae 59bd 9698 ce3d
000000c0: 6ada 59be e589 6c3d 918e 12be 29bc dd3d
000000d0: f6e2 d0b8 2c0c 85bd d0d9 8b3c 7be6 b4bb
000000e0: c5d4 6a3d cd86 42bd 1992 563e 19eb 50bd
000000f0: cbb9 c0bd 5b41 073e a143 adbd 7568 b93d
00000100: be61 bdbd 69fe 2a3d c4c1 9c3d 4cad 77b9
00000110: 99a7 4cbd 3578 c0bd 5135 e23c 3999 0c3e
00000120: 3eb8 2cbd 4a19 f7bc 803d 33bd 73e9 b03d
00000130: 3728 d9bd 8e0a 1fbd 1776 f5bd e27c aabd
00000140: 64e9 e5bb 72ef 983d 3ae1 413d 3143 34bd
00000150: ef2d 85bd 200c 8e3d f6e2 cabb c38e 1d3e
00000160: bdcf 0dbd 0366 d83d 25ce e33d 783b 53bd
00000170: f2d7 33bd d925 2d3c ddaf 73bd 3ca8 233d
00000180: 2acb 383c 2db4 96bd 6494 3b3d b4eb 91bd
00000190: 375a fdbd d8e6 e43c a4ea aabd 1db3 723e
000001a0: 00de 49bd af7a c63d f8a8 11bd 4f8e dc3c
000001b0: 1208 e1bd 3251 fd3d d498 71bc 8984 2a3d
000001c0: 3557 573e 7911 863d 15e1 a43d a57a b7bc
000001d0: cc67 fd3d cc55 a13d afe6 91bb dc5f a6bd
000001e0: 9195 92bd f21d d53c ae9b 9cbc fb1d e1bd
000001f0: 3e68 943d 1334 883c 35e4 5b3d 16b3 c6bd
-0.13814571 -0.097046755 0.13121906 -0.09427137 -0.004056462 0.059702985 0.04691386 -0.18046248
0.11940111 0.028187964 -0.025877947 -0.09154335 0.06715292 -0.042593032 0.047656626 0.12824757
-0.071197964 -0.105546504 -0.044496637 0.12558164 0.07173125 0.11132108 -0.023116544 -0.015623212
0.008858386 -0.13664676 -0.069653094 -0.063557856 -0.12939094 0.085965 0.06472484 0.049822718
-0.0670829 -0.024507813 0.08348768 -0.12074037 0.07691816 0.085994214 -0.039923236 -0.048497412
0.0122591 0.02479123 0.032357957 0.053913213 -0.09218794 -0.042123843 -0.053145237 0.10087697
-0.21274725 0.057748694 -0.14312197 0.10826904 -9.960488e-05 -0.06496462 0.017071635 -0.0055206395
0.05733182 -0.047491837 0.2095417 -0.051005457 -0.09410437 0.13208525 -0.08460165 0.09053127
-0.092471585 0.04174653 0.07654145 -0.00023620314 -0.04996452 -0.09397928 0.027613314 0.13730325
-0.042167895 -0.030163426 -0.043759823 0.08638277 -0.106033735 -0.038828425 -0.119854145 -0.08324601
-0.0070163477 0.074675456 0.047333933 -0.04400939 -0.06502902 0.069359064 -0.0061916066 0.1538649
-0.034621943 0.10566332 0.11123303 -0.051570386 -0.043907113 0.010568106 -0.05949389 0.039955363
0.011278907 -0.073585846 0.045795813 -0.07125035 -0.12370723 0.027942106 -0.083455354 0.23701139
-0.04928398 0.09691369 -0.03556153 0.026923327 -0.109878674 0.123690024 -0.01474591 0.0416303
0.2102936 0.065463014 0.080507435 -0.022397349 0.12373313 0.078776926 -0.0044525485 -0.081237525
-0.07157434 0.026015256 -0.019117203 -0.109920464 0.07246445 0.016626393 0.053684432 -0.09702127

actor.bias f4 [2]
00000000: 63ab 7dbd 4045 393d
-0.061931025 0.045232058

critic.weight f4 [1, 64]
00000000: 9e6d 563e 5efc d43d d736 8d3e fc39 8b3e
00000010: a185 d6bd 4885 3cbe a2d1 8abb 1044 85be
00000020: eb8c 7b3e 1192 0fbe 91bd 6f3e 39c9 753e
00000030: 9fed 8f3e 0da3 98bc 88ad e0bd fff3 923e
00000040: 4e92 e5bd 61d8 a6bd 3791 8c3e 8381 42be
00000050: 4868 963e d381 c7bc ac7c 783e 510b 493e
00000060: 4873 2cbc c035 8a3e a81f 683e 4591 56bd
00000070: be9d 45bd e5ff 78bd 0db9 d7bd 14e9 243d
00000080: ed38 393d 1f82 8fbd 6110 733e 2a3f a43d
00000090: 1225 323e dcca 433d 6b74 53be 5fd8 4fbe
000000a0: b6bb 833e dde3 dfbd d5dc 8c3e 8bfc 4b3e
000000b0: 1282 5f3e 2c06 8ebd 9942 47bd a8c3 8a3e
000000c0: eb18 5bbe 99cf 8b3e 57de 8c3e 04e3 5a3e
000000d0: 0567 e4bd 4ef9 853e e334 ffbd 6672 6c3e
000000e0: d193 8b3e e89b 823e f5f0 5bbe a6d8 f0bd
000000f0: 73b2 663e 87b9 9e3d 7228 dcbd 6dd3 963e
0.20940253 0.10399698 0.27580902 0.27192676 -0.104747064 -0.18410218 -0.004236416 -0.2602849
0.24565475 -0.14020564 0.23412158 0.24002542 0.28110978 -0.018632436 -0.109705985 0.2870178
-0.11209546 -0.0814674 0.2745454 -0.18994717 0.29376435 -0.024353897 0.24266309 0.19633223
-0.010525532 0.26994133 0.22668326 -0.052384634 -0.048246138 -0.060790915 -0.105333425 0.040261343
0.045220304 -0.070072405 0.23736717 0.0801986 0.17396954 0.047800884 -0.20649879 -0.20297383
0.2572915 -0.10932133 0.2751223 0.19920556 0.21826962 -0.06934771 -0.048647497 0.271024
-0.21396224 0.27306822 0.27513382 0.21375662 -0.11152462 0.26166767 -0.12461259 0.23090515
0.27261212 0.25509572 -0.21478637 -0.117600724 0.2252901 0.0775023 -0.10749902 0.2945818
