models/CartPole-v1/ppo_clipped_20241114_011759.pth (torch, 21719 bytes, 7 tensors)

fc.0.weight f4 [64, 4]
0	0x3f06971f	0.5257434
1	0xbe04beca	-0.12963405
2	0x3e66c886	0.22537431
3	0x3dc266f2	0.094922915
4	0x3f1d7ea3	0.6152136
5	0xbe77fa4f	-0.24216579
6	0xbf252059	-0.64502484
7	0xbf20ff97	-0.6289
8	0xbedbc882	-0.42926413
9	0x3f000090	0.5000086
10	0x3bb6ba2e	0.0055763936
11	0xbedc1dbe	-0.4299144
12	0xbeec9603	-0.462082
13	0x3e2bc75a	0.16775265
14	0xbec557f7	-0.38543674
15	0xbede18a2	-0.43378168
16	0x3e84a507	0.25907156
17	0x3eacdbd8	0.33761477
18	0x3ef3952d	0.4757475
19	0x3de40fa9	0.111357994
20	0x3e81238e	0.2522244
21	0xbec005ee	-0.37504524
22	0xbe14c6ae	-0.14528915
23	0xbeb78e55	-0.35850778
24	0x3e2e7f46	0.17040738
25	0x3dfd459b	0.12366792
26	0x3e989a28	0.29805112
27	0x3e4bff32	0.19921568
28	0x3e4574f6	0.19282898
29	0xbdbbbde6	-0.0916708
30	0xbe9509ef	-0.2910914
31	0x3ed9cf7f	0.4254112
32	0xbebc4931	-0.3677459
33	0x3e088263	0.13330989
34	0x3d13ce58	0.036085457
35	0xbcb03314	-0.021508731
36	0xbefc540d	-0.49282876
37	0x3e813d10	0.252419
38	0x3f0c57e7	0.5482163
39	0xbe133859	-0.14376964
40	0x3e8e88be	0.278387
41	0xbe64e6b9	-0.22353639
42	0xbe723949	-0.23654665
43	0xbea1b977	-0.3158681
44	0x3d3d6242	0.046236284
45	0xbe2f24dc	-0.17103904
46	0x3ca04f84	0.019569166
47	0x3e2e84a1	0.17042781
48	0xbde2526f	-0.11050879
49	0xbeed67b1	-0.46368173
50	0xbe6a9192	-0.22907093
51	0xbe1e583a	-0.15463343
52	0x3a6562c9	0.0008750377
53	0xbce3425a	-0.0277416
54	0xbf2129cd	-0.6295441
55	0xbec291ea	-0.3800195
56	0x3e158dbe	0.14604852
57	0xbed08088	-0.40723062
58	0x3e7d0877	0.2471026
59	0x3d8d58f4	0.06901732
60	0xbec318ff	-0.38105008
61	0xbe60c7e9	-0.2195126
62	0xbf172258	-0.5903678
63	0xbf17c80f	-0.5928964
64	0xbeba30b8	-0.36365294
65	0x3ed1dd5b	0.40989193
66	0x3e8828b4	0.26593554
67	0x3d61c835	0.055122573
68	0x3e98f13f	0.29871556
69	0xbbd6a8e4	-0.006550895
70	0x3adfe06d	0.0017080434
71	0xbbeace2b	-0.0071656904
72	0x3c9eb5ed	0.019373858
73	0x3ea46312	0.32106835
74	0x3ee14a57	0.4400203
75	0x3f100b38	0.5626712
76	0xbe731471	-0.23738267
77	0xbe79705a	-0.24359265
78	0x3f38b93c	0.72157645
79	0x3e982464	0.29715264
80	0xbef55842	-0.47918898
81	0x3e73f17c	0.23822588
82	0x3e5f6102	0.2181435
83	0xbd804e83	-0.06264975
84	0x3eefc21c	0.4682778
85	0xbefc1672	-0.49235874
86	0xbebd90aa	-0.37024432
87	0xbe171412	-0.1475375
88	0xbdcd29c9	-0.100177355
89	0x3d9260fc	0.071474046
90	0x3e31ef16	0.1737636
91	0x3f2918c4	0.66053414
92	0xbd7e1da3	-0.062039983
93	0x3f053e06	0.52047765
94	0xbe352b6a	-0.17692342
95	0xbdd7712c	-0.10519633
96	0xbe58ad74	-0.21159917
97	0x3ec1f9ed	0.3788599
98	0xbed21744	-0.41033375
99	0x3e2e477c	0.17019457
100	0xbdb3df06	-0.08782773
101	0xbb8a24e1	-0.004215822
102	0xbece8447	-0.40335295
103	0xbd95f4de	-0.07322095
104	0xbe90d9ef	-0.2829127
105	0xbd34b3af	-0.044116672
106	0xbf29aeb1	-0.6628218
107	0xbe691820	-0.22763109
108	0x3ee99985	0.4562494
109	0xbe881129	-0.26575592
110	0xbddc2c43	-0.1075063
111	0xbe7e8b7d	-0.24857898
112	0x3e380965	0.17972334
113	0xbf1b9573	-0.60774916
114	0x3ea43a9a	0.3207596
115	0x3e54b882	0.20773509
116	0xbe9fe93a	-0.31232625
117	0x3eae75d9	0.34074286
118	0xbea47380	-0.3211937
119	0x3da92d4f	0.08260595
120	0xbe8658d7	-0.26239654
121	0xbe596f58	-0.2123388
122	0xbeaae97d	-0.33381262
123	0x3ec84200	0.39112854
124	0x3e909718	0.28240275
125	0x3e903941	0.2816868
126	0xbe0bde9d	-0.13659139
127	0xbeda5ae7	-0.42647478
128	0x3e06975b	0.13143675
129	0x3eefabb0	0.46810675
130	0xbf038921	-0.5138112
131	0xbeadb3c2	-0.33926207
132	0x3ec9ff79	0.39452723
133	0xbed56e16	-0.4168555
134	0xbf0dea4b	-0.5543563
135	0x3e3a6f72	0.18206576
136	0xbe93616a	-0.2878526
137	0x3ece2a49	0.40266636
138	0x3e18ec0a	0.14933792
139	0x3dd4db71	0.103934176
140	0xbf1173b6	-0.56817186
141	0xbd7cd782	-0.06172896
142	0x3e9d021b	0.3066567
143	0x3f207ce9	0.626906
144	0xbe18e10c	-0.14929599
145	0xbea38915	-0.31940523
146	0xbeba9c0e	-0.36447185
147	0xbd9f2a85	-0.07771782
148	0xbeb162d9	-0.34645727
149	0xbef80eb6	-0.48448724
150	0x3e876591	0.26444677
151	0x3efa52d4	0.48891318
152	0xbeba0902	-0.36334997
153	0x3e610304	0.21973807
154	0x3f13cd0a	0.5773474
155	0x3f26f355	0.65215045
156	0x3e99cc97	0.30038902
157	0xbdafc251	-0.08581985
158	0x3ec53fb3	0.3852516
159	0x3e9dfe42	0.30858046
160	0xbdead757	-0.11466854
161	0x3e678db0	0.22612643
162	0xbe9f3c76	-0.31100816
163	0x3e674518	0.22584951
164	0x3dc088f0	0.09401119
165	0x3e5f49b5	0.21805461
166	0xbec5fe85	-0.38670745
167	0xbdbabee8	-0.09118444
168	0xbf150bb5	-0.5822099
169	0x3e8e8b79	0.27840784
170	0x3ee36ebf	0.4442043
171	0x3f2887a7	0.6583199
172	0xbefb23d2	-0.49050766
173	0x3f024f2b	0.5090205
174	0x3dc3cd5d	0.09560654
175	0x3d7a5435	0.061115462
176	0xbdd08a4a	-0.101826265
177	0xbd87c4b9	-0.06629319
178	0xbedf2ec4	-0.43590367
179	0xbda2d657	-0.07951038
180	0xbea2a2ab	-0.3176473
181	0x3eabcee6	0.33556288
182	0x3f286f4c	0.65794826
183	0x3f31a016	0.69384897
184	0xbe8332e0	-0.25624752
185	0xbec017a1	-0.37518027
186	0x3f07a7be	0.5299033
187	0x3f29907b	0.66236085
188	0x3e9539c6	0.2914564
189	0x3ed39a05	0.41328445
190	0x3e00464c	0.12526816
191	0x3d7fc422	0.062442906
192	0xbea48b82	-0.32137686
193	0xbedf312f	-0.43592212
194	0x3e961980	0.2931633
195	0x3f05a276	0.5220102
196	0x3e53cf98	0.2068466
197	0x3e228a23	0.15873007
198	0xbf2f7e55	-0.6855214
199	0xbef5b0b1	-0.47986367
200	0x3e9115a9	0.28336838
201	0xbec91ac2	-0.39278227
202	0xbea3b075	-0.31970564
203	0x3edf8c4c	0.43661726
204	0xbe09ae12	-0.13445309
205	0xbc7dc583	-0.015488985
206	0xbee3914c	-0.4444679
207	0xbe238514	-0.15968734
208	0x3dae796c	0.08519253
209	0x3e58b178	0.21161449
210	0x3d042677	0.032263245
211	0xbe92bc12	-0.2865911
212	0xbe823d60	-0.2543745
213	0xbedc3181	-0.43006518
214	0xbecce971	-0.40021852
215	0x3e89e5f2	0.26933247
216	0xbd815528	-0.063150704
217	0x3d34e960	0.044167876
218	0x3eb45e0a	0.35227996
219	0x3d8c2358	0.06842679
220	0xbea7aef2	-0.3275066
221	0x3eb9eb74	0.3631245
222	0x3e107b45	0.14109524
223	0xbec34562	-0.38138872
224	0x3d42872e	0.0474922
225	0xbec6fee7	-0.3886635
226	0x3df7c6da	0.12098475
227	0x3ebcd0e1	0.36878112
228	0xbe1de136	-0.15417942
229	0x3e862195	0.26197496
230	0x3f066aa2	0.5250646
231	0x3e84dc1c	0.2594918
232	0xbe8989a2	-0.26862818
233	0x3d99580e	0.07487498
234	0xbf1dbe08	-0.6161809
235	0xbeffb685	-0.4994394
236	0x3ed3a3e6	0.41335982
237	0x3e04002a	0.12890688
238	0x3de2f5cb	0.110820375
239	0x3e26eb62	0.16300729
240	0x3ee81b9c	0.45333564
241	0xbe2c59d7	-0.16831146
242	0x3e387c30	0.18016124
243	0xbe1ddb4c	-0.15415686
244	0xbdf0b10b	-0.11752518
245	0xbf0f37c2	-0.55944455
246	0xbe822b1d	-0.25423518
247	0xbeb80334	-0.35939944
248	0xbe0d3b1f	-0.13792084
249	0xbdc427c9	-0.09577901
250	0x3d949571	0.07255066
251	0x3e9742a5	0.29543033
252	0x3dae4a62	0.08510281
253	0xbefbd594	-0.49186385
254	0x3d9ffa10	0.078113675
255	0xbda7484c	-0.081680864

fc.0.bias f4 [64]
0	0x3f30ed15	0.6911176
1	0xbe85deba	-0.2614649
2	0xbdd4b5f8	-0.1038627
3	0xbda48405	-0.08032993
4	0xbe214d97	-0.15752254
5	0x3ec46c0c	0.38363683
6	0x3f16152d	0.5862606
7	0x3ec5093d	0.3848361
8	0xbec76f06	-0.38951892
9	0x3d109dac	0.035306618
10	0x3f0fc5bb	0.5616109
11	0x3f2d891b	0.6778733
12	0x3f1e98eb	0.61952084
13	0xbdce26ad	-0.100659706
14	0x3f0dc526	0.5537895
15	0xbe56221f	-0.20911454
16	0xbe655a68	-0.22397768
17	0xbec4219e	-0.38306898
18	0xbd937d4f	-0.07201635
19	0xbe12b979	-0.14328565
20	0x3e2ed119	0.17071952
21	0xbebbdd4b	-0.3669227
22	0xbe6f3f4d	-0.23363991
23	0x3e3b1c64	0.18272549
24	0x3edc2336	0.42995614
25	0x3ed49ac5	0.4152433
26	0xbdc1f53e	-0.09470604
27	0x3eb886be	0.360403
28	0xbeace36f	-0.33767268
29	0x3f069b92	0.5258113
30	0x3e9c6538	0.30545974
31	0x3eb7c7e7	0.358947
32	0xbe7801db	-0.24219458
33	0x3f101444	0.5628092
34	0x3f3b086f	0.73059744
35	0xbe65893e	-0.22415635
36	0xbe859c6e	-0.2609591
37	0xbe55efc0	-0.20892239
38	0xbe2ddc45	-0.16978557
39	0x3f35de7a	0.710426
40	0x3e2f21de	0.17102763
41	0x3f0ac13b	0.54201096
42	0xbe18772d	-0.14889212
43	0xbeb7a804	-0.35870373
44	0x3eae6246	0.34059352
45	0xbe39edd4	-0.1815713
46	0xbea646d7	-0.32475922
47	0x3c239842	0.009985032
48	0xbe8fb8ac	-0.2807058
49	0xbe9c5874	-0.30536234
50	0x3f18a4c1	0.59626395
51	0x3eb6114f	0.3556008
52	0xbc5005d8	-0.012696706
53	0x3f23ea24	0.64029145
54	0xbedad174	-0.42737925
55	0x3ef904aa	0.4863637
56	0x3f3ba34c	0.73296046
57	0xbe98c13e	-0.29834932
58	0xbe244155	-0.16040547
59	0xbe00b3fa	-0.12568656
60	0xbeaa8b64	-0.33309472
61	0x3ea52c70	0.32260466
62	0x3f0e08f1	0.55482394
63	0x3ed763e0	0.42068386

fc.2.weight f4 [64, 64]
0	0xbe05625b	-0.13025801
1	0xbab7fe93	-0.0014037661
2	0x3d23a99d	0.039956678
3	0xbdce1589	-0.10062701
4	0xbd8dbf49	-0.069212504
5	0xbd7ed855	-0.06221803
6	0xbdd0987e	-0.101853356
7	0xbe01fd0f	-0.1269419
8	0xbd906e50	-0.070522904
9	0x3d7ec7ef	0.06220239
10	0xbca99a25	-0.020703385
11	0x3ccaf57e	0.024775263
12	0x3d7f2b62	0.062297232
13	0xbd571d82	-0.052518375
14	0x3ddb4952	0.10707344
15	0x3d154ec5	0.036452074
16	0x3d0be0a3	0.034149777
17	0x3dff78c6	0.124742076
18	0x3da89cca	0.0823303
19	0xbdb13397	-0.08652418
20	0xbd2754a8	-0.04085222
21	0xbc8cddf0	-0.017195672
22	0x3db9cb95	0.09072033
23	0xbdedfda2	-0.11620642
24	0xbdd15d09	-0.10222823
25	0x3cffc46e	0.031221595
26	0xbda964ec	-0.082712024
27	0x3d6a7385	0.057239074
28	0xbc682678	-0.014169328
29	0xbdb85eb8	-0.09002441
30	0xba9233de	-0.0011154374
31	0xbdefa292	-0.1170093
32	0x3d4d3eb2	0.05010862
33	0xbde665d6	-0.112498924
34	0xbbfa3578	-0.0076357685
35	0xbdbcfdc1	-0.09228087
36	0x3d66e5d0	0.05637151
37	0x3dcc7dbf	0.09984922
38	0x3d8f68a9	0.07002384
39	0xbdcef667	-0.10105591
40	0xbdd6897a	-0.1047544
41	0x3cff4465	0.031160543
42	0x3d3d7f51	0.046263997
43	0x3c5c668e	0.013452185
44	0xbe075be9	-0.13218655
45	0xbce93475	-0.028467396
46	0xbe0a1509	-0.13484587
47	0xbdaa2213	-0.083072804
48	0x3d368706	0.044562362
49	0x3c8c80f6	0.017151337
50	0x3d080639	0.03320906
51	0x3d59a40e	0.05313497
52	0x3cc8f931	0.024532886
53	0xbd33695c	-0.04380165
54	0xbdc2323e	-0.09482239
55	0x3dbeadf4	0.09310523
56	0x3d7d182c	0.06179063
57	0xbc443c59	-0.011977279
58	0x3dedf148	0.11618286
59	0xbd911910	-0.070848584
60	0x3d63703c	0.055526957
61	0x3cc1d5a7	0.023661448
62	0x3d89df74	0.067320734
63	0xbd5bd148	-0.053666383
64	0xbd7e9a78	-0.06215903
65	0x3d899353	0.06717553
66	0x3e1175fa	0.1420516
67	0x3de8bdb1	0.11364306
68	0xbd3c3204	-0.045946136
69	0x3d4aef0e	0.049544387
70	0xbdc73a43	-0.097279094
71	0xbe0260d2	-0.12732247
72	0x3de03d19	0.109491535
73	0xbdef04ba	-0.116708234
74	0xbd1645db	-0.036687713
75	0x3d454907	0.048165347
76	0xbdb6984b	-0.08915766
77	0x3dcfd0fc	0.101472825
78	0x3c857bac	0.016294323
79	0x3e62cde0	0.22148848
80	0x3d31038a	0.043216266
81	0xbc8a677d	-0.01689505
82	0xbdf18599	-0.1179306
83	0xbe03c888	-0.12869465
84	0x3da0a8b6	0.07844679
85	0xbd113259	-0.035448406
86	0x3d90f053	0.07077088
87	0xbcde20e5	-0.027115295
88	0x3da05518	0.0782873
89	0xbc3f32a6	-0.01166979
90	0x3e54f8ca	0.2079803
91	0x3c425aba	0.011862451
92	0xbc19a675	-0.009378065
93	0x3d65c8c6	0.056099676
94	0xbcb6d071	-0.02231619
95	0x3de6a002	0.11260988
96	0x3dc38789	0.09547336
97	0x3df471c0	0.119357586
98	0x3c93caae	0.018040981
99	0x3d38cfff	0.045120236
100	0x3de22d4a	0.110437945
101	0x3ce089b7	0.027409418
102	0xbd119022	-0.035537846
103	0xbda55a9a	-0.080739215
104	0xbc42600c	-0.01186372
105	0x3ddde14d	0.10833988
106	0x3dd3fc79	0.1035089
107	0x3cb169f6	0.021656971
108	0xbc24676d	-0.010034424
109	0xbdcfb5eb	-0.1014212
110	0xbde02535	-0.10944597
111	0xbd023c7e	-0.03179597
112	0xbdc3b1d9	-0.09555406
113	0x3e40e312	0.1883662
114	0xbe277974	-0.16354924
115	0x3dd3147e	0.10306643
116	0x3df5ec7a	0.12007995
117	0xbae82c28	-0.0017713355
118	0xbde6c4b0	-0.11267984
119	0xbdc17df8	-0.09447855
120	0xbe38d7a0	-0.18051004
121	0x3df90ff5	0.12161247
122	0x3e54e5e6	0.20790824
123	0x3c026af9	0.007960075
124	0xbb3e7138	-0.0029059183
125	0x3e1f2cd9	0.15544452
126	0xbdef77be	-0.11692761
127	0x3dc11829	0.09428436
128	0xbcf43a0e	-0.029812839
129	0x3d23e325	0.040011544
130	0x3d8996e9	0.06718237
131	0xbd958168	-0.07300073
132	0x3e506534	0.20351106
133	0x3cfe4e4c	0.031043194
134	0x3d69610e	0.056977324
135	0x3d789ef8	0.06069848
136	0xbce72c03	-0.028219229
137	0x3e12b15b	0.14325468
138	0xbe017afc	-0.12644571
139	0x3d23447b	0.03986023
140	0xbcfe8d53	-0.031073248
141	0xbcc0d990	-0.023541242
142	0x3e11038c	0.1416151
143	0xbd4a01f5	-0.049318273
144	0x3da4a0b8	0.08038467
145	0xbdc322b4	-0.095281035
146	0x3e02c519	0.127705
147	0xbd4503df	-0.048099395
148	0x3e17eb26	0.14835796
149	0xbdc45b93	-0.09587779
150	0xbd5a2434	-0.053257182
151	0xbda3e68d	-0.080029584
152	0x3d63f988	0.055657893
153	0xbdab07c9	-0.08351094
154	0xbda6434a	-0.08118303
155	0x3d8cb878	0.06871122
156	0x3d84e2cb	0.0648857
157	0xbd972481	-0.073800094
158	0x3d33232d	0.043734718
159	0xbe23be8c	-0.15990657
160	0xbd9402f1	-0.072271235
161	0x3baf9560	0.005358383
162	0x3e1eac82	0.15495494
163	0xbd3376fb	-0.04381464
164	0xbcd466e2	-0.025927965
165	0x3e160534	0.14650422
166	0x3e22e790	0.15908647
167	0xbda76e94	-0.08175388
168	0x3de991f7	0.11404794
169	0xbd83262b	-0.06403764
170	0x3df763a8	0.12079555
171	0x3dd5e00d	0.10443125
172	0x3be39f7a	0.0069465013
173	0x3e11329d	0.14179464
174	0xbd326592	-0.043553896
175	0x3e181c7e	0.14854619
176	0x3d42c382	0.047549732
177	0x3c4d9cc8	0.012549587
178	0x3d4bb62e	0.049734287
179	0xbe1d0949	-0.15335573
180	0x3bf363a7	0.007427651
181	0x3d633694	0.05547197
182	0xbd709148	-0.0587323
183	0x3dd8f694	0.10593906
184	0x3defd8e9	0.11711294
185	0x3de8b34c	0.11362323
186	0xbcfb0a59	-0.030644583
187	0x3e01b206	0.12665567
188	0x3d1aa179	0.03775165
189	0xbe29d4ff	-0.16585158
190	0x3cc8bacc	0.024503134
191	0xbd24c6e2	-0.040228732
192	0xbd81f506	-0.06345563
193	0x3db52f8d	0.0884696
194	0x3db93099	0.090424724
195	0x3e37f3a7	0.1796404
196	0xbc1e7af8	-0.009672873
197	0x3e1ed945	0.15512569
198	0x3d089121	0.03334153
199	0x3c807983	0.015682941
200	0x3c686fbe	0.014186798
201	0xbd370190	-0.044679224
202	0x3e156afd	0.14591594
203	0x3d60bbd5	0.05486663
204	0xbc56334c	-0.013073754
205	0x3e890d76	0.26768082
206	0xbdddbc9f	-0.10826992
207	0x3d99d39e	0.07511066
208	0xbe2b3e7a	-0.16723052
209	0xbd4ca8fc	-0.049965844
210	0xbdd55aee	-0.10417734
211	0x3bd27b3b	0.0064233816
212	0xbd3b382d	-0.04570787
213	0xbcf9db67	-0.030500127
214	0x3b9ecfcb	0.004846548
215	0x3db8ff91	0.090331204
216	0xbcc656de	-0.024211343
217	0x3dda637c	0.106635064
218	0x3e14cae5	0.14530523
219	0x3e294bf0	0.16532874
220	0xbd9d279d	-0.07673571
221	0xbcc871a1	-0.024468245
222	0x3d021762	0.03176058
223	0x3e007ba4	0.12547165
224	0x3d7ea233	0.062166404
225	0xbd49eded	-0.04929917
226	0xbd65445c	-0.055973396
227	0x3ce0fe14	0.027464904
228	0x3d90a4f4	0.07062712
229	0x3c7bee9a	0.015376711
230	0x3d7421d2	0.059602566
231	0xbe1c3607	-0.15254985
232	0xbda2ffa4	-0.07958916
233	0x3ca92002	0.020645145
234	0x3d0c0726	0.034186505
235	0x3dc394a5	0.09549836
236	0x3d0d5985	0.0345092
237	0x3e1e238a	0.15443245
238	0xbd923078	-0.07138151
239	0x3df3195e	0.11870073
240	0x3df791ad	0.12088332
241	0x3e5900cb	0.21191709
242	0xbe0d4219	-0.13794746
243	0xbc1ac60e	-0.009446634
244	0xbd3aea1b	-0.045633417
245	0x3d5b7001	0.053573612
246	0x3db3ae8a	0.08773525
247	0xbd131b62	-0.035914786
248	0xbe0351f9	-0.12824239
249	0xba89a7f8	-0.0010502329
250	0x3e610b4e	0.21976969
251	0xbdb7702e	-0.089569435
252	0xbda40f61	-0.08010746
253	0xbcd5a8cc	-0.026081465
254	0x3bb17210	0.0054152086
255	0xbda3f688	-0.080060065

fc.2.bias f4 [64]
0	0x3d93205b	0.07183906
1	0x3dd4fe6d	0.1040009
2	0xbdbf7ce6	-0.09349994
3	0x3dc4ee1b	0.096157275
4	0x3da5705d	0.08078072
5	0x3e5274ef	0.20552419
6	0x3dac02f0	0.08398998
7	0xbde192f5	-0.11014358
8	0x3e8079d0	0.25092936
9	0x3ea41aae	0.32051605
10	0xbdc986a4	-0.09840134
11	0x3db5cc1f	0.08876824
12	0x3e1a5720	0.15072298
13	0x3a56ff61	0.00082015066
14	0xbda69409	-0.08133704
15	0x3e76933b	0.24079601
16	0x3e87f47c	0.26553714
17	0x3d14afa5	0.03630032
18	0xbd6cedf9	-0.057844136
19	0x3e8bed16	0.2732932
20	0x3ddf5846	0.10905509
21	0xbb3f2320	-0.0029165223
22	0x3d644120	0.05572617
23	0x3ea241a7	0.31690714
24	0x3defafad	0.11703429
25	0x3e037056	0.12835822
26	0x3d9cf8fe	0.07664679
27	0x3dded95c	0.10881302
28	0x3e893e9a	0.26805574
29	0x3d908cd8	0.07058114
30	0x3db20e61	0.08694149
31	0xbd88ac16	-0.06673448
32	0x3dac0acf	0.08400499
33	0x3e23d165	0.15997846
34	0xbd9029a0	-0.07039189
35	0x3dd993b9	0.10623879
36	0x3e29e3e8	0.16590846
37	0x3de01af0	0.10942638
38	0xbd7ff7b3	-0.062492084
39	0xbddd9e32	-0.10821189
40	0x3d6d149d	0.057880986
41	0x3d9bc46b	0.07605823
42	0x3e278d0e	0.16362402
43	0xbc0601fd	-0.008179185
44	0xbd6dd7ca	-0.05806712
45	0x3de60ccd	0.1123291
46	0x3ce5afe9	0.028037982
47	0x3e68a08c	0.22717494
48	0xbb84ebef	-0.004056446
49	0x3e650f4e	0.2236912
50	0xbbd4fbcc	-0.006499743
51	0x3d2e381b	0.042533975
52	0x3e86236e	0.26198906
53	0x3e2e64db	0.17030661
54	0x3dcb183e	0.09916733
55	0xbda18d3d	-0.07888267
56	0x3e83c28b	0.25734362
57	0x3e717aa9	0.23581947
58	0xbdefe8d4	-0.1171433
59	0xbc47ba3e	-0.0121904
60	0x3e1e082b	0.15432803
61	0x3e4475e6	0.191856
62	0x3d969af5	0.073537745
63	0xbdc2cb9d	-0.095114924

actor.weight f4 [2, 64]
0	0xbde64b10	-0.11244786
1	0x3d96bd21	0.07360292
2	0xbe1fd500	-0.15608597
3	0x3e4d435b	0.20045225
4	0xbd34c0d6	-0.044129215
5	0xbe0f71bf	-0.14008234
6	0xbdae8042	-0.08520557
7	0xbde485a1	-0.111583
8	0xbc1bb2c0	-0.009503067
9	0x3cbdc619	0.02316575
10	0x3e041048	0.12896836
11	0xbd8f08b9	-0.069840856
12	0xbe0b4256	-0.13599524
13	0xbe5036e2	-0.20333436
14	0x3de425b1	0.111400016
15	0xbd886c57	-0.06661289
16	0xbc82d8b7	-0.015972478
17	0x3d953dd6	0.07287185
18	0x3dd62e58	0.10458058
19	0x3da1016d	0.078616
20	0xbd8c6f09	-0.06857116
21	0x3e1417e5	0.1446224
22	0x3d74778a	0.059684314
23	0x3cb48d6b	0.02204009
24	0x3d7cb2e4	0.06169404
25	0xbd9448cc	-0.072404474
26	0xbc18714a	-0.009304354
27	0xbe182a32	-0.14859846
28	0x3d55a0d1	0.05215532
29	0xbdc9b747	-0.098494105
30	0x3d0f14e8	0.034932047
31	0xbd2a7c9c	-0.041622743
32	0x3d78b9cb	0.06072406
33	0x3c8f0efa	0.017463196
34	0x3db1a61f	0.08674263
35	0x3d88b7d2	0.06675686
36	0xbce180a5	-0.027527163
37	0xbc904c7f	-0.017614601
38	0xbd7bfa4b	-0.061517995
39	0xbe08454d	-0.13307686
40	0xbdcb2383	-0.09918883
41	0x3cd7ca8f	0.026341705
42	0xbd092d18	-0.03349027
43	0x3df53121	0.11972261
44	0xbd8bc9e9	-0.06825621
45	0xbb6fb544	-0.0036576549
46	0x3db024cc	0.086007684
47	0xbd433588	-0.047658473
48	0xbe3cb7f4	-0.18429548
49	0x3d7f81fa	0.062379815
50	0x3e09b0cd	0.1344635
51	0x3d6b5a19	0.05745897
52	0xbbdf1ccd	-0.0068088532
53	0x3d543dfa	0.051816918
54	0x3db52435	0.088447966
55	0x3dbe875a	0.0930316
56	0xbe1f3cbd	-0.15550514
57	0xbc5d76f2	-0.013517128
58	0x3b235040	0.002491966
59	0x3d5ba755	0.053626377
60	0xbe0d6a2b	-0.13810031
61	0xbd8d63cd	-0.06903801
62	0x3de9f268	0.114231884
63	0xbd5f21a4	-0.05447544
64	0x3c684cbb	0.01417845
65	0xbcbefc6a	-0.02331372
66	0x3e6eb820	0.23312426
67	0x3b747072	0.0037298468
68	0x3d8d5bbc	0.069022626
69	0xbd874d5d	-0.06606553
70	0x3ddfa22d	0.109196045
71	0x3e39ff57	0.1816381
72	0xbd6a25b7	-0.057164874
73	0xbd3b36ed	-0.04570668
74	0xbd335bd0	-0.04378873
75	0x3e05d028	0.13067687
76	0xbd729e69	-0.059233103
77	0x3e0fd1a1	0.14044811
78	0xbd393b5b	-0.04522262
79	0x3e116072	0.14196947
80	0xbda95cbe	-0.08269642
81	0xbd4e2e6e	-0.050337248
82	0xbe403f04	-0.18774039
83	0x3da66fd9	0.08126802
84	0x3dfaf6ac	0.1225408
85	0xbe1918d5	-0.14950879
86	0x3dcd3817	0.10020464
87	0xbde39bd1	-0.11113704
88	0x3deb83e4	0.114997655
89	0xbd82ac78	-0.06380552
90	0x3e257787	0.16158877
91	0xbd70ce39	-0.05879042
92	0x3e0a3d56	0.1349996
93	0x3dd75276	0.10513775
94	0xbdbb5566	-0.09147148
95	0x3dbd615c	0.092470855
96	0x3d9dd048	0.07705742
97	0x3d6960a7	0.05697694
98	0xbe117baf	-0.14207338
99	0xbd0764ec	-0.03305523
100	0xbd5afb77	-0.05346247
101	0xbcde0fd0	-0.02710715
102	0xbd34ca7d	-0.04413842
103	0x3d320315	0.04345997
104	0x3d84d972	0.06486787
105	0xbd0355e3	-0.03206433
106	0xbdafc7f8	-0.08583063
107	0x3d0b3ba5	0.03399243
108	0x3d852823	0.06501796
109	0x3d331c5a	0.04372821
110	0xbcd8f977	-0.026486142
111	0xbd8761dd	-0.06610463
112	0x3e675d2b	0.22594135
113	0x3bdbdb0c	0.006709462
114	0xbd644a5b	-0.055734973
115	0xbdd73108	-0.10507399
116	0xbdcb48b6	-0.09925978
117	0xbdb975b0	-0.0905565
118	0x3d645668	0.055746466
119	0x3c98309c	0.018577866
120	0x3d2a75f5	0.0416164
121	0xbd91ba24	-0.07115582
122	0xbda432a6	-0.08017473
123	0xbdf1ff1e	-0.11816238
124	0xbd8a1096	-0.06741445
125	0xbd5288d3	-0.051400017
126	0xbcd85c18	-0.026411101
127	0x3c614c73	0.013751137

actor.bias f4 [2]
0	0xbd60ead5	-0.054911453
1	0xbdad0621	-0.084484346

critic.weight f4 [1, 64]
0	0xbd5fcb77	-0.0546374
1	0xbe0c7e38	-0.13720024
2	0xbd7ce03a	-0.061737277
3	0xbdbbc3aa	-0.09168179
4	0xbd977556	-0.07395427
5	0x3e9be1e4	0.30445778
6	0xbd28b4ac	-0.041187927
7	0xbe16d65e	-0.14730212
8	0x3e6ea16d	0.23303767
9	0x3e6f004d	0.23339958
10	0xbe2bb23d	-0.16767211
11	0xbdb9cd0c	-0.09072313
12	0x3e5ed583	0.21761136
13	0xbe60938a	-0.21931282
14	0xbc83e7f8	-0.016101822
15	0x3e6769c3	0.22598939
16	0x3e7af7ae	0.24508545
17	0xbd068a01	-0.032846455
18	0xbd96c354	-0.07361475
19	0x3e9521db	0.29127392
20	0xbd9a09bb	-0.07521387
21	0x3e0409c8	0.12894356
22	0xbba7d60c	-0.005121952
23	0x3e81dbfd	0.2536315
24	0x3e9bf0ff	0.30457303
25	0x3ea2aff9	0.3177488
26	0xbe140496	-0.14454874
27	0x3e748a61	0.23880912
28	0x3e9e3be3	0.30905065
29	0x3eb65ee1	0.35619262
30	0x3e90ea51	0.2830377
31	0x3c963a90	0.018338472
32	0x3e8714a7	0.26382944
33	0x3e8763d5	0.26443353
34	0xbe3044d6	-0.17213759
35	0x3e93851c	0.28812492
36	0x3e7ae21a	0.24500313
37	0x3e8729cb	0.26399073
38	0xbd45667c	-0.04819344
39	0xbe948b29	-0.2901242
40	0xbe06bc17	-0.13157688
41	0xbdc53a8b	-0.09630307
42	0x3e82c881	0.25543597
43	0xbd332548	-0.043736726
44	0x3dce4e4e	0.10073529
45	0xbd564ffb	-0.05232237
46	0xbdbf525d	-0.093418814
47	0x3e9d5863	0.30731496
48	0xbe588337	-0.21143804
49	0x3e910964	0.28327477
50	0xbe4520a3	-0.19250731
51	0xbd6517eb	-0.055931013
52	0x3e97e3a0	0.29665852
53	0x3e959ce9	0.29221275
54	0x3eada43a	0.33914357
55	0x3d278cd0	0.040905774
56	0x3e92d890	0.2868085
57	0x3e9678fb	0.29389176
58	0xbdb9eb3e	-0.09078072
59	0x3dd69155	0.10476939
60	0x3e7e8219	0.24854316
61	0x3e5a3d63	0.2131248
62	0xbd70b38b	-0.058764976
63	0xbd0853aa	-0.033282913
