models/CartPole-v1/ppo_kl_20241114_011816.pth (torch, 21669 bytes, 7 tensors)

fc.0.weight f4 [64, 4]
000000 e9 02 ad be 89 ba b9 be 17 8f 0a bf 36 d9 1f bf
       -0.33791283 -0.36275128 -0.5412459 -0.6244081
000010 3d ca d7 bd dd d1 a1 bd 87 e3 cc be bf 51 17 be
       -0.10536621 -0.07901356 -0.4001734 -0.14777277
000020 07 66 2d 3e 19 c8 a2 3e 55 3a d9 be aa 34 a5 be
       0.16933452 0.31793287 -0.42427316 -0.32266742
000030 52 b2 4f be eb 39 9f 3e 7c 9c 61 be 7f 22 a4 3e
       -0.20282868 0.31098875 -0.2203235 0.32057568
000040 bf 23 13 3e a3 d5 8a 3e a5 aa 83 be eb a0 1d bf
       0.14369105 0.27116117 -0.2571613 -0.61573666
000050 dd c9 ee 3c 3b 3a 3a 3e 1c 7c b0 3e aa 43 37 3d
       0.02914899 0.18186276 0.34469688 0.044742264
000060 17 67 b8 3e 1d 5b 11 be 08 44 d7 be 7e 43 8c 3e
       0.3601615 -0.14194913 -0.4204409 0.27395242
000070 05 c2 2f be 57 53 f0 3e 3d 92 f3 bc 83 f1 54 3e
       -0.17163856 0.46938583 -0.029732818 0.20795254
000080 b2 a3 93 be 4d e7 32 be 44 e5 f4 be 2b d5 7b 3e
       -0.28835827 -0.17471047 -0.47831166 0.24593036
000090 ef 0c e7 3d 93 f8 ab 3d 7b 43 0e be 03 ef 4b be
       0.11281764 0.08397021 -0.1389293 -0.19915394
0000a0 f5 9b ab be 56 94 9c be 6e 5a fb bc 5c a1 09 3f
       -0.33517423 -0.3058192 -0.030682769 0.5376184
0000b0 05 f9 41 bd ae 84 cc be 32 54 e9 bd ff ea 7e bd
       -0.047356624 -0.39944977 -0.11393012 -0.06223583
0000c0 77 db b7 3e ce 03 e7 be 3b 71 ec be 1d 27 a1 3d
       0.35909626 -0.4512009 -0.46180138 0.078687884
0000d0 9c f1 5d be 2d 7e 7e be 89 47 d8 be 53 6f 09 bf
       -0.21674198 -0.2485282 -0.42242077 -0.5368549
0000e0 7b 73 ae 3b 2d 02 53 be c4 47 99 3e b9 19 90 be
       0.005323825 -0.20606299 0.29937565 -0.28144625
0000f0 c7 bf bb be e3 eb f6 3e 47 f0 bf be 5d f3 7b be
       -0.36669752 0.48226842 -0.37488005 -0.24604554
000100 d1 8f 58 3d 06 2f c1 3e 9e 36 23 3e bf 15 c0 3e
       0.05287153 0.3773119 0.15938804 0.3751659
000110 3e a9 33 3e 26 ec 06 bf cb a7 1f 3f 30 8d 40 3e
       0.1754503 -0.52704084 0.62365407 0.18803859
000120 9d 83 75 3e 31 cc a7 3e 46 24 8e be 52 25 c6 3d
       0.23975988 0.32772973 -0.2776205 0.09675087
000130 01 75 68 bd 0a 16 6f be db ea ab be 1b 8c 92 be
       -0.05675221 -0.23348251 -0.33577618 -0.28622517
000140 88 d9 31 bf 4f 68 52 bd 17 db 39 3f 7b 9a 08 3f
       -0.6947255 -0.051369008 0.7259993 0.5336072
000150 ac f3 1d 3d b8 94 62 3e 34 82 22 3e 3d b1 7e be
       0.03856246 0.22127044 0.15869981 -0.24872299
000160 ff 80 b9 3e 11 19 f6 3c e6 cd f2 bd 57 2e e4 3e
       0.3623123 0.03004125 -0.11855678 0.44566604
000170 95 30 1e 3e a4 3a 80 be 78 91 b8 bd 76 b2 23 3c
       0.1544822 -0.2504474 -0.09012121 0.009991279
000180 64 0e a3 be 37 93 20 3e f2 a2 aa be 3f 3a 0c bf
       -0.31846917 0.15681158 -0.33327442 -0.54776376
000190 52 4d d0 3e 4e 03 f0 3e 2b 6f a4 be c0 1d 0d bf
       0.4068399 0.4687752 -0.32116064 -0.5512352
0001a0 2a 99 bc 3e 07 f7 00 bf b1 30 56 3e 8f 14 c6 be
       0.36835605 -0.50376934 0.20917012 -0.3868756
0001b0 fe 26 90 3e c7 26 01 be 4c d1 99 3e 01 2a 81 3d
       0.2815475 -0.12612449 0.30042493 0.0630684
0001c0 b5 9d a5 bd 1a f1 ed be 9e 8a de be 2a 28 d1 3e
       -0.08086721 -0.46473008 -0.43465132 0.40850955
0001d0 4d fc dc 3e a7 fa 00 3f 2f a8 c6 be 43 60 b9 be
       0.4316124 0.50382465 -0.3880019 -0.36206254
0001e0 da 5c b0 3e 58 7e c8 3e 3b bc 7c 3d e3 16 b0 3e
       0.3444584 0.39158893 0.061702948 0.3439246
0001f0 0a 45 09 be 09 12 a9 be e7 6f 91 be 2e d7 af be
       -0.13405243 -0.33021572 -0.28405687 -0.34343857
000200 08 a7 45 3e 89 e4 9d be 5f 2e a8 be 45 03 b1 3e
       0.19301999 -0.3083842 -0.32847878 0.34572807
000210 35 1e 74 bd a2 4a b2 3e a6 68 bb bd 2b 69 9e be
       -0.05959912 0.34822565 -0.091508195 -0.30939612
000220 da 5d d6 be 20 c8 6d 3e 6e 9f bf 3e a8 6f a3 3d
       -0.41868478 0.23220873 0.37426323 0.07980281
000230 98 8b 0f bf 73 cc 0f bd 1e 59 05 3f ba 1b 93 be
       -0.5607238 -0.035107087 0.5208911 -0.2873209
000240 2b af a5 3e 56 e4 9e be 90 97 d6 bd a9 96 80 3e
       0.32360205 -0.31033581 -0.10478127 0.25114945
000250 3f 4a d2 3c 63 2b d1 3e 17 2f 36 3e c0 20 fe 3d
       0.025670169 0.40853414 0.17791401 0.1240859
000260 16 58 fa bc 74 ef e2 be c6 7e 78 be c8 26 4a be
       -0.03055958 -0.44323313 -0.2426711 -0.19741356
000270 15 9d 84 be 6c 71 9e be 20 df df 3e 15 8c 86 3c
       -0.25901094 -0.3094591 0.43724918 0.016424218
000280 90 3b b6 be 59 e8 d2 3e d2 eb 81 3e b1 fc d7 be
       -0.35592318 0.41192892 0.2537523 -0.42184976
000290 7c c0 ea 3e fd e6 5f bd 1d 4a a7 be d8 cb 09 bf
       0.4584998 -0.054663647 -0.3267373 -0.53826666
0002a0 ec 2e b7 bd 25 3f cd 3e 38 ed 2c 3d f5 ff 85 3e
       -0.089444965 0.40087238 0.042218417 0.26171842
0002b0 22 52 f9 3e 20 49 bd 3e 32 66 35 be 2e e5 d1 3e
       0.48695475 0.36969852 -0.17714766 0.40995163
0002c0 d3 85 7e bc a9 63 c2 be ca f9 f5 3e 61 ed e1 3e
       -0.015534836 -0.3796666 0.48042136 0.44126418
0002d0 69 46 28 be 9e fa 1e 3e 7d 63 a8 3e b7 4e 70 bd
       -0.1643311 0.1552529 0.32888404 -0.05866882
0002e0 3c 08 66 3e cc cf 30 bd 06 77 65 be 92 d7 8b bd
       0.22464079 -0.04316692 -0.22408685 -0.06828226
0002f0 cc 31 e3 bd 83 b8 f5 3e 9b 77 33 3d f9 84 dd be
       -0.110934824 0.47992334 0.043815237 -0.43265513
000300 f2 9a b5 3e 82 84 32 be 9e 36 de 3e f9 ba 5f be
       0.35469776 -0.1743336 0.43401045 -0.21848668
000310 7c ed 3d be a4 55 f5 3d 33 9a ce 3e 30 2f d3 bd
       -0.18547624 0.11979225 0.4035202 -0.10311735
000320 0a 28 fd be c5 82 7d bc 0f d9 ee bc d1 3e d6 bd
       -0.4944461 -0.015473072 -0.029156236 -0.104612
000330 14 18 0c 3f 33 48 7d bc b0 a0 5e 3e 87 63 0d bf
       0.5472424 -0.015459108 0.21740985 -0.5522999
000340 86 d1 98 be 2c bc 19 3e f0 40 56 bd 80 98 09 bd
       -0.29847354 0.15013188 -0.052308023 -0.0335927
000350 5d af b3 bc 60 1b 3d 3e 4f a0 23 3d 5c e1 fb be
       -0.021934206 0.18467474 0.039947804 -0.49195373
000360 73 ce 50 3e 89 53 a8 3d bc 3e 9d 3e 62 69 e4 3c
       0.20391254 0.08219058 0.30711925 0.027882282
000370 0c 08 e5 3e 90 43 8c 3e ec 04 3a bd df 88 00 bf
       0.44732702 0.27395296 -0.04541485 -0.5020885
000380 f3 b9 fd 3e a3 16 dc be 09 6c 66 be 16 84 2c bd
       0.4955593 -0.4298602 -0.2250215 -0.042118154
000390 ba ae 0f 3c fc de b3 be 57 ea d2 3e fe 6d ee 3e
       0.008769685 -0.3513106 0.41194412 0.46568292
0003a0 3c bf c2 3a aa b4 14 be 82 f9 a2 3e 6a e8 79 bd
       0.0014858018 -0.14522043 0.31830984 -0.061012663
0003b0 d4 ff c1 be cd 5d c9 3d 9b 67 d1 be a8 90 f5 bb
       -0.37890494 0.09832344 -0.40899357 -0.007494051
0003c0 d2 23 11 bf 00 58 32 3d a1 c4 96 3d 41 4d 14 3f
       -0.5669528 0.043540955 0.07361723 0.5793038
0003d0 42 8e 15 be 1f 90 c9 bd a8 f6 07 3f 96 cf d6 3e
       -0.14605048 -0.09841942 0.5311074 0.4195525
0003e0 ce e9 68 3e f1 84 71 be 09 5e 77 3e 8a c3 78 3e
       0.2274544 -0.2358587 0.24156965 0.24293342
0003f0 55 92 e8 be 69 ae 94 3e 39 88 02 3f 7d 30 05 3f
       -0.45424142 0.29039314 0.5098911 0.5202711

fc.0.bias f4 [64]
000000 b5 0c de bd 93 e1 f3 be d1 69 31 3f 35 fa 09 3f
       -0.108422674 -0.47633037 0.6930209 0.5389741
000010 fc 58 b9 be 68 f9 1b 3f 0d 92 18 3f a7 e7 eb be
       -0.36200702 0.6092744 0.59597856 -0.46075174
000020 f7 fe f2 3e 30 a7 47 3e e3 b2 a3 bd 92 cc 0f 3f
       0.47460148 0.1949737 -0.07993104 0.56171525
000030 26 7b e9 3e 73 a4 97 bd e2 17 0a 3f ff 4f 19 be
       0.45601767 -0.07404413 0.5394269 -0.14971922
000040 90 25 8f 3e 11 f6 01 be 50 4f 9d 3e dd 96 69 be
       0.27958345 -0.12691523 0.30724573 -0.22811456
000050 fa ca 5b be 9f 62 99 3d 3d c7 cc bd fb 91 f4 3e
       -0.21464148 0.074895136 -0.09998939 0.47767624
000060 ac ea 47 be 79 e3 9a be 76 4f ec 3e 52 8d 85 3e
       -0.19523114 -0.30251673 0.46154374 0.2608438
000070 10 70 72 3e d4 3e ce be 80 be bb 3e 4b d0 d3 3c
       0.23675561 -0.4028231 0.36668777 0.025856158
000080 ae 8e 63 3c 20 54 83 3e d0 0d a5 be 1a 33 b8 3d
       0.013888998 0.2565012 -0.322371 0.08994122
000090 78 6c b2 3d a6 0f ac 3e 2b dd b7 be 55 f2 07 3f
       0.08712095 0.3360569 -0.35910925 0.53104144
0000a0 dc 52 b4 be 38 cb 59 be 27 2f 02 3f 56 1f 01 3f
       -0.35219467 -0.21268928 0.508532 0.5043844
0000b0 bb 7b 8e be c4 e6 ba bd 12 71 bd 3e 36 fa 86 3e
       -0.27828774 -0.09126046 0.37000328 0.2636277
0000c0 1d 16 a5 3e 6e 99 c3 3e df 6a d6 be 6a 71 7e be
       0.32243434 0.38202995 -0.4187841 -0.24847952
0000d0 b8 ea be be 38 ac 41 3e df 99 20 3f 82 b5 a3 be
       -0.3728845 0.18913352 0.6273479 -0.31974417
0000e0 35 b9 37 be 40 4e 90 be 15 48 d9 3e a9 c7 e7 3e
       -0.17941745 -0.281847 0.42437807 0.45269516
0000f0 02 26 25 be e4 b6 fa 3c ef 12 36 3f 22 95 4f bd
       -0.1612778 0.030604787 0.7112264 -0.050679334

fc.2.weight f4 [64, 64]
000000 db be 83 be 21 ed ff bc 3b 78 dc 3c fe 5f de 3d
       -0.2573155 -0.031241002 0.0269128 0.10858153
000010 f6 93 d2 bb 09 a9 56 3e 73 c4 51 3e 1a ba b2 3d
       -0.0064263297 0.2096292 0.20485096 0.08726902
000020 ce e0 92 3e f5 1c df 3d 7d 39 54 bd 08 0b 12 3e
       0.28687137 0.10894195 -0.051812638 0.1426202
000030 11 5d ba 3d c8 6e e3 3b cb fe 98 3e 7a 86 f5 bd
       0.09099782 0.0069406964 0.29881892 -0.1198854
000040 29 70 b8 3d 74 b2 db bd 16 43 71 3e 04 0f 18 be
       0.09005768 -0.107273966 0.23560748 -0.14849478
000050 f2 3a 54 be 14 26 b4 bd 74 4f 18 be 7d 99 c7 3d
       -0.20725611 -0.08796325 -0.14874059 0.097460724
000060 53 2a 33 bd ad 80 47 3d f2 09 99 3e 27 58 3d 3e
       -0.043741535 0.0487067 0.298904 0.18490659
000070 ef b6 92 bc 0a c9 05 be 03 c8 27 3e 59 90 e1 3c
       -0.017909495 -0.13064972 0.16384892 0.02753465
000080 eb 35 b3 3d 60 57 5c bd 12 7f 9f 3d bd 09 30 bc
       0.087505184 -0.053794265 0.077879086 -0.010744509
000090 a7 4c 86 bc 7f b4 83 3e a2 05 cd 3d e9 8c 1e 3e
       -0.016393973 0.25723645 0.1001084 0.1548344
0000a0 29 ed 22 3c 8d 2a 58 be be fb 0b 3e 11 4c 65 3e
       0.009944239 -0.21109982 0.13670251 0.22392298
0000b0 d4 55 ab bd 71 67 9d 3c e2 dc 86 3e f3 27 86 3a
       -0.0836598 0.019214364 0.26340395 0.0010235294
0000c0 9d 84 82 3e 5a 1b 4a 3e 3a f1 91 3d fb ae 00 be
       0.254918 0.19736996 0.071260884 -0.1256675
0000d0 82 61 e2 3d ea 87 8b bd 0e ef 37 3e c6 c5 40 bd
       0.110537544 -0.06813033 0.17962286 -0.04706361
0000e0 49 54 5b 3d 16 78 e8 bc d5 77 9c 3e ab 34 95 3e
       0.053547177 -0.028377574 0.30560175 0.29141745
0000f0 7f 20 6c bd ae 6b a0 bd c6 ce b4 3d f0 76 47 be
       -0.05764818 -0.07833038 0.088285014 -0.19478965
000100 c6 96 66 3d 9d 9e 2e bd a1 a2 6b be 03 4c c3 3c
       0.056296133 -0.042631734 -0.23011257 0.023839956
000110 4e 44 07 bd 29 5a 12 3d c2 fc 5a bd f9 9b ad bd
       -0.033024125 0.035730515 -0.053463705 -0.08477015
000120 89 79 be bb 93 a3 33 be a6 33 1f 3d a2 bd 29 bd
       -0.005812828 -0.17542867 0.038867615 -0.041440614
000130 a5 ac d7 3d f1 85 0f 3b 88 fe aa 38 9c a5 3e bc
       0.10530976 0.0021899904 8.153642e-05 -0.011636164
000140 9b df 74 3d d5 7f 36 3e 4e af b6 bd a9 78 48 3c
       0.05978356 0.17822202 -0.089201555 0.012235799
000150 8d 6a ae 3e 87 b8 2f bd 8a 31 f3 3c 2f aa 1c 3d
       0.34065667 -0.04290059 0.029686708 0.038248237
000160 e1 fa 5b 3d 96 40 4d 3d 4f b5 b5 bc 6e a9 18 bd
       0.053706054 0.050110422 -0.022181181 -0.037270956
000170 c8 cf bb 3d 28 df 89 bd 06 0b 49 3d bc 12 b7 bd
       0.091704905 -0.06732017 0.04908278 -0.0893912
000180 a3 44 04 3e 92 41 64 3d c0 14 e0 3b 50 fa ab 3d
       0.12916808 0.055726595 0.006838411 0.08397353
000190 04 63 28 3e 6a 9b 28 bc 8a 63 93 bd c8 c5 b5 3d
       0.16444021 -0.01029096 -0.0719672 0.088756144
0001a0 66 d2 bf 3d 49 d3 f4 bd 3b 59 7d bd 91 a6 29 3c
       0.09366302 -0.11954362 -0.061852675 0.010354654
0001b0 1f 19 2b 3d 65 c0 08 3e a4 6f b2 bd 68 e0 14 3d
       0.041772004 0.13354643 -0.087127 0.036346823
0001c0 a3 f9 fd bd 84 2c 30 bd 0f f7 ad bd ee 42 db 3d
       -0.1240113 -0.043011203 -0.08494388 0.10706125
0001d0 d0 f1 e4 bd 31 1e 0b 3e c7 3e a8 3d b8 9e b3 bb
       -0.111789346 0.13585736 0.08215099 -0.0054815672
0001e0 48 3a b2 bd 8f 16 7d 3e cf f7 ae 3d ad bb e4 3c
       -0.087025225 0.24715637 0.085433595 0.027921522
0001f0 f0 db 72 3e 18 4f 48 3e 0b 9f d7 3c 49 0b 8b 3e
       0.23716712 0.19561422 0.026320955 0.27157047
000200 1e 7a 1f be 67 51 a9 3c 3f 9b d3 3d 1e 49 45 3e
       -0.15573928 0.020668698 0.10332345 0.19266173
000210 0a 84 01 bd dc bf 26 3e 4d e7 80 3e cf 17 c8 bd
       -0.031620063 0.16284126 0.25176468 -0.09770166
000220 84 26 74 3e 9f a0 8e 3d eb c8 02 be f0 b4 f4 3d
       0.23842818 0.0696423 -0.12771957 0.119485736
000230 b4 80 ea 3d f5 00 cb bc 8a 1f 95 3d 4c af ab bc
       0.114503294 -0.02478073 0.07281406 -0.020957612
000240 8b fe 54 3e 58 dd 64 3d 5a 34 58 3d 13 35 a8 bd
       0.20800225 0.055875152 0.0527843 -0.08213248
000250 7f aa 8b be eb f5 e2 3c 6e 1e 64 be cd b9 32 3e
       -0.27278516 0.027705153 -0.22277233 0.1745369
000260 4c f7 03 bc 52 46 cd bc f9 46 08 3e 43 55 ac 3d
       -0.008054566 -0.025057945 0.13308324 0.084147
000270 87 97 66 3d f5 38 38 bd ea fe 8d 3e 55 37 9e bd
       0.05629685 -0.044976193 0.27733546 -0.077253975
000280 0c 17 e8 3d a1 62 40 3e 80 12 8e bb ed 3a 18 bd
       0.11332521 0.18787624 -0.0043357015 -0.03716557
000290 08 bc d5 3c cc 1e 88 3d c1 45 d2 bb b0 52 62 3e
       0.026090637 0.06646499 -0.0064170067 0.22101855
0002a0 82 84 ce bc bb d9 05 be f9 9e 1b 3e 3f a0 54 3e
       -0.025209669 -0.13071339 0.15197362 0.20764254
0002b0 3d dc e6 bd 6d 0b d9 bc b1 ca c5 3d 34 d5 fb 3d
       -0.11272476 -0.026494706 0.09657801 0.12296525
0002c0 2b d0 96 3e a4 27 8f 3e 44 0b e6 3d 8d 63 38 be
       0.29455695 0.2795993 0.112326175 -0.18006726
0002d0 88 f7 57 bd 20 80 15 3e d7 28 f1 3d d4 b1 80 bc
       -0.0527263 0.14599657 0.11775368 -0.015709795
0002e0 1d 75 c5 bc 0d d1 e2 bc ea 1f 4d 3e 90 3f 04 3e
       -0.024103696 -0.027687574 0.20031705 0.12914872
0002f0 8a d4 64 be 85 8f 9a bd 42 8b 95 3e 17 68 5f be
       -0.22346702 -0.075469054 0.29207808 -0.21817051
000300 f2 ea cf 3d 40 8c c6 3d fe 8d c3 bd c0 d8 51 3c
       0.10152234 0.09694719 -0.09548567 0.012808025
000310 14 3d 50 bd fa 07 c5 bd bc 74 19 bd 78 22 28 bd
       -0.0508395 -0.09620662 -0.037464842 -0.041048497
000320 6c 94 96 bd 92 76 ec 3d 30 27 2a bd 30 9a 7f bd
       -0.07352528 0.11546053 -0.04154128 -0.062402904
000330 ca 51 fb bd b8 0f bc bc 00 49 0e bd f0 09 96 3d
       -0.122714594 -0.022956714 -0.034737587 0.07326114
000340 38 ed 75 bd 88 1d 66 3d bc 50 f2 bd 54 1e 9f bd
       -0.060040683 0.056180507 -0.11831805 -0.077694565
000350 64 21 09 bd 2e 17 c1 bd 00 8a 6c bc e8 64 29 bd
       -0.03347911 -0.09428249 -0.014437199 -0.041355997
000360 e0 54 4c 3c 22 da 8c 3d d8 7f 94 3c 1c b6 14 3d
       0.012471408 0.06877543 0.018127367 0.036306486
000370 52 98 8b 3d 00 f6 32 bb e0 08 b7 bb 28 a0 51 3d
       0.06816162 -0.0027307272 -0.005585775 0.051178128
000380 10 86 c7 bc 46 fa d4 bd 2c 92 0a bd d8 a5 c8 3d
       -0.024355918 -0.10399298 -0.033830807 0.09797257
000390 94 15 f9 3d 18 aa fa 3c 30 a6 9e bd ce c8 ec bd
       0.12162319 0.030598685 -0.077465415 -0.11561738
0003a0 86 e3 a9 3d d6 66 f6 bd d0 f4 bb bd 1e b1 a7 3d
       0.0829535 -0.12031333 -0.09177554 0.08188079
0003b0 3e b0 c2 bd be e9 dd 3d 94 1c 2e bd a6 82 f6 bd
       -0.09506272 0.108355984 -0.042507723 -0.12036638
0003c0 a0 25 6b 3d 40 bd 95 3d ee be f1 3d 08 61 9f 3c
       0.05740893 0.07311487 0.11803995 0.019455448
0003d0 a0 27 10 bc 50 c4 17 3c ee ff 8d 3d 6e 6a 84 3d
       -0.00879851 0.009263113 0.0693358 0.06465612
0003e0 54 61 7a 3d 70 6c fa 3c a4 f2 74 bd 40 ec 26 bd
       0.061127976 0.030569285 -0.059801713 -0.04075265
0003f0 b8 62 41 3d 7a f0 a6 3d 60 60 0c bc b0 37 8b bc
       0.047213286 0.08151336 -0.008567899 -0.016994327

fc.2.bias f4 [64]
000000 8a 78 d1 3d 9b a4 5d bd fe 66 5f 3e 00 a9 a7 ba
       0.10228069 -0.054112058 0.21816632 -0.0012791455
000010 74 ef 3b 3e d4 7c 4b bd fc 14 65 3e cf 83 05 be
       0.18353063 -0.049679592 0.22371286 -0.13038562
000020 62 59 b9 3d a4 5e 27 3e a0 89 1b 3e 10 33 ae bd
       0.090502515 0.16344696 0.15189219 -0.08505833
000030 a2 15 6a 3d 77 4a 0d 3e 9b ad 12 3e b0 25 5a 3e
       0.057149537 0.13797937 0.14324038 0.21303439
000040 4f 83 33 3e 39 dc a0 3d 59 13 0c 3e 3c 29 7c bd
       0.17530559 0.07854504 0.13679256 -0.06156276
000050 9b 13 1d 3e a7 25 85 3c 82 a3 63 3e e0 3d 63 bd
       0.1533951 0.016253306 0.22230342 -0.05547893
000060 21 f2 66 3e fd 65 88 3e 4f c6 e3 3d e8 41 8e bd
       0.22553302 0.2664031 0.11121809 -0.06946164
000070 0f 88 36 3e 51 48 89 3d 08 25 fc b8 fc 6b 99 bd
       0.1782534 0.067032464 -0.00012023194 -0.074912995
000080 9c 26 df 3d ed 0e df bd b2 54 76 3d d8 79 84 3e
       0.10896036 -0.10891519 0.060139365 0.2587421
000090 0e fb 13 3d 07 9e 97 3e 71 ff bb ba d6 5d 14 3e
       0.036128096 0.29612753 -0.0014343095 0.1448892
0000a0 28 2a 89 3e 1b 57 8c bd af 40 d0 bd a3 05 ef 3d
       0.26789975 -0.068525515 -0.101685874 0.11670997
0000b0 4c b6 03 3e eb 73 c8 bc e9 65 4b 3e b4 3c 9a 3e
       0.1286251 -0.024469336 0.19863094 0.30124438
0000c0 f9 5b 33 3e 39 1d 93 bb 0e 06 91 3e 28 b1 36 bd
       0.17515554 -0.0044895676 0.28324932 -0.044602543
0000d0 46 80 96 bd 4c ec bf bd 46 53 46 3e 0a 89 d0 bd
       -0.07348685 -0.09371242 0.19367704 -0.10182388
0000e0 58 24 b1 3d df de 8a 3e ab 9d 84 3e c9 68 c4 3d
       0.0864951 0.27123162 0.2590154 0.09590299
0000f0 36 17 ef bc c2 92 3f 3e 57 e3 79 3e 2f 1a f5 3d
       -0.029185873 0.18708327 0.2440313 0.11967885

actor.weight f4 [2, 64]
000000 ad bb d9 3d 4b e3 ac bd 0d e8 38 3c e4 2a 83 3d
       0.106314994 -0.0844179 0.011285794 0.06404665
000010 5f bf a2 bc f0 5d 5d bc fc 22 98 bd 82 b9 d0 bd
       -0.019866643 -0.013511166 -0.07428548 -0.10191633
000020 92 e7 b7 bd 60 82 6e bd d0 63 dc bd 60 de d3 3d
       -0.089797154 -0.058229804 -0.10761225 0.10345149
000030 55 be bd bd c5 38 be 3c f3 2a c9 3d a1 fb 18 bd
       -0.092648186 0.02322043 0.09822645 -0.037349347
000040 3b 62 0a be d0 26 5d bd fb 84 1b 3c a6 1b fd 3d
       -0.13514034 -0.053992093 0.009492154 0.12358789
000050 90 d8 cd 3c c4 a2 da 3c 87 6d 56 3d ba 58 f2 bd
       0.02512768 0.02668894 0.052350547 -0.118333295
000060 72 cd e2 3d 75 d9 40 3d 60 37 25 3d f6 a7 d4 bd
       0.11074342 0.047082383 0.040336013 -0.103835985
000070 92 41 f1 bd 13 81 5e 3d 2e 1d 44 bd c6 f9 22 3c
       -0.11780085 0.054322314 -0.04787939 0.009947246
000080 b2 3b f3 bd 10 e6 15 bd 4b 28 d5 3d a6 e7 03 be
       -0.1187662 -0.036596358 0.10408076 -0.12881336
000090 9f 75 02 be a1 82 80 3d 66 f2 87 3e f9 6b 1c be
       -0.12740181 0.062749155 0.26552123 -0.15275563
0000a0 8f 8f 9f 3c 7c b8 49 3e bd aa 5a be c9 02 a0 bd
       0.019477634 0.19699281 -0.21354194 -0.07813031
0000b0 98 fe 9f bd 18 c5 34 bc 6a 80 af bd 7d f9 c3 3d
       -0.07812232 -0.011033319 -0.08569415 0.095690705
0000c0 63 c6 6d 3d 0e 81 19 be 8c 1f 4c ba 46 2b d8 bd
       0.058050524 -0.14990637 -0.0007786683 -0.10555129
0000d0 f5 30 30 bd c0 e4 23 3d a4 4d a2 bd 7a d3 b4 3d
       -0.04301544 0.040013075 -0.07924965 0.088293985
0000e0 48 a6 bb 3d 5e 6c b3 3d 3e 69 3c 3d 73 2c df 3d
       0.09162575 0.08760904 0.045998804 0.1089715
0000f0 1b 7a b6 bd 13 fd 37 3c 02 7e 64 bd b4 49 6d 3c
       -0.089100085 0.011229771 -0.055784233 0.014482904
000100 85 8f 8d 3b b1 14 8b 3c 33 f0 cc bd 18 5f 32 3d
       0.0043200874 0.01697764 -0.10006752 0.04354772
000110 5e ef aa bd 00 ed e9 3d 20 7c 1b 3d b8 89 85 3d
       -0.08346437 0.11422157 0.03796017 0.065204084
000120 d0 06 ed 3d 60 e1 35 bd 3a c5 93 bd 2a 58 e8 bd
       0.11573565 -0.044404387 -0.07215352 -0.11344941
000130 ac 05 0a 3d 2f 30 ad 3d 97 d0 97 bd f3 05 04 bd
       0.033696815 0.08456456 -0.07412832 -0.032232236
000140 a3 12 e1 bc f4 d8 24 3d 50 fa 81 bd 6a 36 82 3d
       -0.027474707 0.040245965 -0.063465714 0.06358035
000150 63 91 81 3d 8a 5a b0 3d 17 4d 05 3e 28 a2 96 bc
       0.063265584 0.08611019 0.13017689 -0.018387869
000160 ad 9a 40 bd af 5e ea bb cc 72 bc 3d 59 3d a0 3d
       -0.04702251 -0.0071524004 0.09201583 0.07824201
000170 c3 05 22 bd 6c 0e a8 bd 84 d1 20 3c 76 07 4c 3e
       -0.039556276 -0.08205876 0.009815577 0.19924721
000180 1d 9c 9b 3d ff 6d 0f be eb 79 d5 bc b4 98 0a 3e
       0.075981356 -0.14006804 -0.026059112 0.13534814
000190 3e 29 6d 3c be 9f da 3d 12 58 9f bd ef 25 fa 3d
       0.014475165 0.10675 -0.0778047 0.122142665
0001a0 45 8e 12 bd d8 d2 80 be 42 a0 84 3c 4f 00 bc bd
       -0.03578021 -0.2516086 0.016189698 -0.09179746
0001b0 72 7a 3e 3c 44 ca f2 3c 44 d3 bd 3b e4 e6 2a bd
       0.011625873 0.029637463 0.005793007 -0.0417241
0001c0 62 4f 63 3d 69 90 08 3e a3 61 14 3d 9f 0e 7d 3e
       0.055495627 0.13336338 0.036225926 0.24712609
0001d0 d3 52 18 be 5e a5 80 3d 94 8d 2f 3b 8f 31 1a 3d
       -0.14875345 0.06281541 0.0026787268 0.03764492
0001e0 27 59 b5 bd 62 03 fe bd 25 c5 2c bd 33 55 d1 bd
       -0.08854895 -0.12402989 -0.0421802 -0.102213286
0001f0 7b 2d e9 3c ff 51 dd bd 9d 4b 7b bc 17 e9 8e bd
       0.02846407 -0.10806655 -0.015337852 -0.06978052

actor.bias f4 [2]
000000 fd 0f 91 bd cb 0f a1 3d
       -0.07083128 0.078643404

critic.weight f4 [1, 64]
000000 e6 ad 8c 3e e1 75 42 be 61 0f 4c 3e b4 da b1 3d
       0.27476424 -0.1899028 0.19927742 0.086842924
000010 26 28 55 3e 6a df c0 bd 2e cd 95 3e 9a d6 b4 bd
       0.20816097 -0.09417613 0.29258102 -0.088299945
000020 b8 54 80 3e 88 f4 8d 3e 17 ec 8c 3e 55 1a 6d 3d
       0.25064635 0.27725625 0.27523872 0.05788644
000030 b6 a4 a6 3e 26 b7 54 3e 49 20 91 3e 7f af 81 3e
       0.3254754 0.2077299 0.28344944 0.25329205
000040 ef a4 8f 3e 36 ab a9 bd ce 45 96 3e b4 7d 3a bd
       0.28055522 -0.08284609 0.29350132 -0.045530036
000050 46 99 97 3e c6 95 8b bc 35 78 a3 3e 80 85 13 3d
       0.29609126 -0.017039191 0.31927648 0.036015987
000060 86 61 95 3e 64 ad 5c 3e 86 bc 64 3e c9 4a 70 be
       0.29175967 0.21550518 0.22337541 -0.23466028
000070 23 5f 95 3e 90 f2 67 3e ef 26 14 be d6 8b f1 bd
       0.29174146 0.22651124 -0.14467977 -0.1179425
000080 17 74 67 3e 87 cf 5f be 44 0c a0 3e 83 11 a2 3e
       0.22602879 -0.21856509 0.31259358 0.31653985
000090 20 8b 2b be 47 1c 59 3e 60 d3 73 be b1 35 8c be
       -0.1675229 0.21202193 -0.23811102 -0.27384713
0000a0 9a 63 90 3e be 22 32 be d0 d2 85 be 7d c0 a6 3d
       0.2820099 -0.17396066 -0.261374 0.08142183
0000b0 d0 22 82 3e 6b 6b 56 bd d1 8e a3 3e 2e e6 69 3e
       0.25417185 -0.052348536 0.31944898 0.22841713
0000c0 14 65 37 3e 02 85 5a be dc f5 38 3e 30 b4 11 be
       0.17909652 -0.21339801 0.18062538 -0.14228892
0000d0 08 66 13 be f6 d4 ae bd 55 42 83 3e 81 65 07 3c
       -0.1439439 -0.08536713 0.25636545 0.0082639465
0000e0 02 a4 9e 3e 77 d6 58 3e d9 86 86 3e 39 52 e4 bd
       0.30984503 0.21175562 0.26274756 -0.11148495
0000f0 f1 c6 f3 bd d7 21 7c 3e e7 ad 48 3e 66 55 6e 3e
       -0.119031794 0.24622284 0.19597588 0.23274764
