models/CartPole-v1/reinforce_20241114_011850.pth (torch, 21699 bytes, 7 tensors)

fc.0.weight f4 [64, 4]
00000000: 1681 23be 5e68 c23d 78c2 c93e a183 a23e
00000010: 3751 c0be a7a0 363e 971a 5ebd d652 f5bd
00000020: a51d 8fbe fe8f 1e3e bac2 8e3e 2f2e 2cbe
00000030: d552 a2bd 1137 22be 0538 dcbe 1006 b3bd
00000040: 5e05 633e 7e03 f33d c94d 0dbe f10b 05bf
00000050: 2091 a1be c638 08be 0c3d a63e 26fa aebe
00000060: 83c4 bf3e f47c d1be 3dce d63e 0de5 cc3e
00000070: bd25 03bf 6756 d63e 32a8 aa3e 999b 0e3c
00000080: a8ad 473e da5d aabe 3eab 883d 90d6 d03e
00000090: ee5f 113d 3c7c 98be 9f94 3abe 3027 ff3e
000000a0: 1b86 a53e 22d6 d9be 3aeb a23d 8818 f63e
000000b0: dda6 0cbe edcf f1be 26fd 65be d987 3e3e
000000c0: 5a86 4dbe e2f2 62bd 24e3 07be ce5f 9f3e
000000d0: a023 c23e 72a7 c73e 9c5b debe faa4 7b3d
000000e0: b3ec 70bd 7170 063e 09c4 593e 275f 59be
000000f0: 3545 1d3e 92c4 cd3e 1e45 be3e 09d6 fabe
00000100: d04a d63d 8ab6 17be 9c88 b83e 525d a63e
00000110: 78c8 9dbd d6db 84be 1a78 633e 9cb3 febe
00000120: a319 bd3e c74c d6be 7f80 c93e 831e 13be
00000130: fab0 76be fc20 53be f201 98bd c929 cabc
00000140: 0552 b03e caba 32bd 079f 0abd 5e71 623e
00000150: 3e9a 803e a07a e3bd f8d3 cdbe 5009 01bd
00000160: 0d25 0b3f 2d67 c43e 9e9a a1be 6a0d 02bf
00000170: 665c f1be f5cf 9dbe ac82 cbbe d45c 12be
00000180: 5c94 c73d 542b d8be e9c4 c23e e7eb 72be
00000190: 35de 0c3e 78a7 323e 856b c6be 48ff dcbd
000001a0: 8a55 c9be 3b48 db3e eced 88be 31da a6be
000001b0: f366 f73e 2d2c 3cbe 9904 333c d517 b23e
000001c0: 338b 963e 4794 ed3e 4c74 b8be 259b 9c3d
000001d0: 2c80 05be 54b8 8a3e 926f d93e 6b90 063d
000001e0: aac8 07bd 2ed2 7ebd 4e5c af3e 6e7c efbe
000001f0: a00e 1a3e f8dc ff3e 74d8 0d3f be22 213e
00000200: d1a5 203d 38cb 473d cc6c dbbe 1811 11bf
00000210: 138d cdbe 089a d7be 87a0 89be fdc7 59be
00000220: 6594 6f3e b9a9 48be ea85 4b3e d9c0 b93e
00000230: c9cc d73d d1ba 583e 3472 db3e 71f4 883e
00000240: 33a4 8c3e f688 f23d cf32 973e f33a dabe
00000250: 47f4 85be e955 3d3e f979 4ebd 4f56 e13e
00000260: 39bd e7be cfdd 543e e827 a9bd 2df7 7ebd
00000270: e937 61be 229d f23e aef2 a6be c640 92be
00000280: 36f8 e3be b09a 9a3e 8c07 b93e 5025 493e
00000290: 88ed 073e 25c1 4bbe d262 323d 1b28 b5be
000002a0: ae64 fe3e 7b8c 803c 43d5 c83d c632 08bf
000002b0: 7fa0 d3be 2e4a e03e 50f4 723e 6c95 b83d
000002c0: 6b05 afbe 105e acbe 2321 2bbd 3dfa a33e
000002d0: 3833 adbe a44a 53be 5f93 6b3e 1baa 36bd
000002e0: 23e1 dd3e e954 943d 707b 3abd 99b0 063f
000002f0: 65a7 f23e c5cd 483e 586f 20bd 55d4 d6be
00000300: a34e 09bd fe00 6dbd 451b c4be 8f4a 00bf
00000310: 5f04 073f 42e9 a83d ddd6 e83d 1d37 9d3e
00000320: e9e6 b1be b422 8a3e bc9b aebe 2ca4 fd3e
00000330: 01c6 8c3e 1dae aa3e 0038 80bd 7fd6 d03d
00000340: 5b12 62be 28ff 8dbd 99d9 ae3e 5a41 d9be
00000350: c5b5 8f3e 6266 fd3e bb69 9a3e ae57 b6be
00000360: 7f20 2cbe 33a0 a13d 1f6a d0bd da59 b03e
00000370: a212 3d3e f9d1 bf3e 52c1 dfbe 9f28 e53e
00000380: 27fc f43e 988d 333e 25b5 02be f5fa 73be
00000390: 3085 843d cf86 c1bd 1871 31be a3f1 33be
000003a0: fafb 78be 54a9 323e 1909 80bd 9e44 c13e
000003b0: 2d5b 9a3e 69cd a23e 9032 203e f107 81bc
000003c0: 8c19 b13e e571 adbd 7531 413e 8036 bd3e
000003d0: 0252 debe 7f89 22be b2fe bebe 4780 aabd
000003e0: eaec a93d b5e9 c93e a0c5 483e e6dc f2be
000003f0: 5c1c 0c3e 604a ff3e 9114 763e c438 a2be
-0.15967211 0.09492563 0.3940618 0.3174105 -0.37561962 0.17834722 -0.054224577 -0.1197869
-0.27952304 0.15484616 0.2788294 -0.16814493 -0.07925955 -0.15841319 -0.4301149 -0.08741391
0.22170016 0.118659005 -0.13799204 -0.51971346 -0.31556034 -0.13302907 0.3246845 -0.34175223
0.37454614 -0.40915644 0.41954222 0.40018502 -0.5122946 0.41862795 0.33331448 0.00870409
0.19499838 -0.33274728 0.06673287 0.40788698 0.035491876 -0.29782283 -0.18220757 0.49834585
0.32328877 -0.42546183 0.07955022 0.4806559 -0.13735528 -0.47228947 -0.2245985 0.1860651
-0.20070782 -0.055407412 -0.13270241 0.3112778 0.37917805 0.38994938 -0.43429267 0.06143663
-0.058819484 0.1312883 0.21266188 -0.21227704 0.15358432 0.40189034 0.37162107 -0.4899142
0.10463488 -0.14815727 0.36041725 0.32493073 -0.07704252 -0.25948972 0.22213784 -0.49746406
0.36933622 -0.4185545 0.39355847 -0.14367108 -0.24090949 -0.20618051 -0.07422246 -0.024678128
0.34437576 -0.043635167 -0.033843067 0.22113559 0.25117677 -0.11107373 -0.40200782 -0.03150302
0.5435341 0.38359967 -0.31563276 -0.5080172 -0.47140807 -0.3082272 -0.39748132 -0.14293224
0.09745094 -0.42220557 0.38040856 -0.23722802 0.1375664 0.17446697 -0.38753906 -0.107908785
-0.39323074 0.42828545 -0.2674402 -0.32588342 0.48320732 -0.18376227 0.010926389 0.34783807
0.29403076 0.4640219 -0.36026227 0.07646779 -0.13037175 0.27093756 0.42467934 0.03285257
-0.033150353 -0.06221216 0.3425011 -0.4677462 0.15044641 0.49973273 0.55408406 0.1573591
0.039220635 0.04877779 -0.42856443 -0.5666671 -0.40146694 -0.42109704 -0.26880285 -0.21267696
0.23396452 -0.19595994 0.19875303 0.36279944 0.105371065 0.21165015 0.42860568 0.26748994
0.27469024 0.118425295 0.2953095 -0.426231 -0.2616293 0.18489803 -0.05040929 0.4401116
-0.45261553 0.20787738 -0.08259565 -0.062247444 -0.21993984 0.47385508 -0.32607025 -0.28565043
-0.44525307 0.30196142 0.3613857 0.1964314 0.13274205 -0.19897898 0.043551274 -0.3538216
0.49686188 0.015691986 0.098063014 -0.53202474 -0.41333386 0.43806595 0.2372601 0.09012875
-0.3418382 -0.33665514 -0.04177965 0.32026854 -0.3382814 -0.20633942 0.23005436 -0.04459582
0.43335828 0.07242758 -0.045527875 0.52613217 0.47393337 0.19609745 -0.039168686 -0.4195887
-0.03352226 -0.057862274 -0.38302055 -0.5011377 0.52741045 0.082476154 0.11369107 0.3070611
-0.34746483 0.269796 -0.3410319 0.49539316 0.27494815 0.33335963 -0.06260681 0.10197162
-0.22077315 -0.06933433 0.3415039 -0.42432672 0.28068367 0.49492174 0.3015879 -0.3561377
-0.16809271 0.07891884 -0.10176491 0.3444355 0.18464139 0.37464884 -0.4370218 0.44757554
0.47848627 0.17534482 -0.12764414 -0.23826201 0.06470716 -0.09449541 -0.17328298 -0.17572646
-0.24314871 0.17447406 -0.06251735 0.37747663 0.30147687 0.3179734 0.15644288 -0.015750857
0.34589803 -0.08468989 0.18866523 0.36955643 -0.43421942 -0.15872763 -0.37303692 -0.08325248
0.08297141 0.39436117 0.19606638 -0.47434157 0.13682693 0.4986143 0.24031283 -0.31683934

fc.0.bias f4 [64]
00000000: 80b5 f7be 9496 933e 9d61 df3e 1559 a83e
00000010: 170f 883e e649 423e 54f3 e83e 0c36 41be
00000020: 2201 cb3e f954 ee3d 3a6f 593e e44c 733e
00000030: e675 aa3e 2f67 ae3e 6269 59bc 2697 bb3e
00000040: d18f d2be 6e28 f4be 7843 a7be f0fc af3e
00000050: e903 28be 5ae6 c8be 690a 42be 583f ab3c
00000060: 3af2 c3be c314 e03e 49a8 c03b 139d 87be
00000070: addc 963e c968 c83e 27e6 693d 1720 df3e
00000080: e082 5dbe 143f a1be 783d f2be 66d9 3e3d
00000090: 08be 7c3e 0a17 bd3e ea74 cfbe caf0 d2be
000000a0: 0eec d4be af97 303e 07b4 e13d 8299 7aba
000000b0: c862 a0be 00d1 003f e374 bb3d 4f23 773c
000000c0: 8123 753e fe43 5abe 5fce f03d 647f 503e
000000d0: 7865 99bb 456b 813c d801 bc3e 37ed afbe
000000e0: c987 2ebd 3cdd c83e 1481 c63e 46a0 553e
000000f0: 8fef 87be 463b e13e 4aee eebe 1bc6 c23e
-0.4838066 0.2882582 0.4362916 0.32880464 0.26574013 0.18973503 0.45498145 -0.18868273
0.39649302 0.11637301 0.21233836 0.237598 0.33293074 0.34063098 -0.013269754 0.36638755
-0.41125348 -0.47687095 -0.32668662 0.34372663 -0.16407742 -0.39238244 -0.18949284 0.020904228
-0.38270742 0.4376584 0.005879436 -0.26487026 0.29465237 0.39142445 0.057104256 0.4357917
-0.21631956 -0.31493437 -0.47312522 0.046594046 0.24681866 0.3693164 -0.40518886 -0.41199332
-0.41586345 0.17245363 0.110206656 -0.00095596176 -0.31325364 0.5031891 0.09153154 0.015084102
0.23939325 -0.21315 0.11758112 0.20361096 -0.0046812855 0.01579822 0.36720157 -0.34360668
-0.042609964 0.39231288 0.38770354 0.2086192 -0.26549956 0.43990535 -0.46666175 0.38041767

fc.2.weight f4 [64, 64]
00000000: d0ef 3b3d a3db 38bd 87c1 af3d a570 0dbc
00000010: 716e 13bd aa1c 51bd c1b1 babd 38bb e8bc
00000020: 20d8 3f3d d6be d73c d1fc 4c3c b776 e3bd
00000030: 7401 143e fa21 b13c 3179 77bd 9cf2 95bd
00000040: dae9 243d 2dab 4a3d 182f c33d 75dd 31bc
00000050: 9fa0 9a3d f8a8 983d 2a98 0bbe 53af a5bc
00000060: 081c e33d b023 9f3c e865 c6bc 1507 bc3d
00000070: ac46 b3bd 776e c6bd 5255 a23d f7b6 363d
00000080: a2de efbd 79b2 f23d c661 adbd ef18 663d
00000090: 97d2 d9bd c335 b33d 7f1f ed3d d3ca e73d
000000a0: 881a 9b3d d5d7 6fbc 7fda 9abc 7044 083e
000000b0: de9d dc3d 3c72 343d 7f76 433d 3d72 dabd
000000c0: 0e86 4e3b 29aa 40bb 90b8 333e ff8b 8c3c
000000d0: 6ff6 993c 76f7 133d b169 1c3c b69e 993d
000000e0: 8178 293d 5849 3f3d 9e25 f3bb d5a8 9e3d
000000f0: cd03 c03d f797 f23d 2878 8a3d 846e 453c
00000100: 15b0 9bbd 6fc0 c4bd 7f19 253d c153 523c
00000110: 8bc9 e33d 98df 973d 40e9 d13d 9342 48bd
00000120: d071 cebb 764e 3a3e e6b3 5dbd ca65 6dbd
00000130: 3ed1 193e 2d3e 863d 12ce e93c 07ca c2bd
00000140: 9e6b c83d e9af ce3d bb1a 7b3d 0df5 90bd
00000150: 7e44 c33d b861 ce3d b459 0abe c670 333d
00000160: 9ed3 c0bc 5c93 de3c 56a2 e03d 6f12 0f3d
00000170: 474d c5bd 83a0 f43d 2d5f dbbd 55e1 1f3e
00000180: ec4d 20be ebda bf3c 4c7f 3e3d fe0f d73d
00000190: 7cdf a9bc bce5 b73d 5e5e e03c ae22 b43d
000001a0: cc74 39bd 737f e7bd 9955 66bd 7164 1e3e
000001b0: 7414 2fbd 1626 7a3b 3077 403c 7306 9bbd
000001c0: 5e65 7cbd da30 f6bc 3230 243e 3d2b 923d
000001d0: c01e e33d 95a3 cebd 306f 6c3d 9e39 eb3a
000001e0: ef75 0cbe bd73 3cbd 8005 fc3c e638 24bd
000001f0: 474e 243e 3a49 d93d 6987 cbbd 4c2e 0e3e
00000200: 3054 7cbd c3db 4abc a0d3 84bb 2496 973c
00000210: b70a afbd f2b7 82bd 320f 7e3d 6e44 b93c
00000220: c0db 0dbd c128 b93d d5c6 e53d a156 ed3c
00000230: 0b5b 563b 2f33 9ebc 1572 2f3d a288 83bc
00000240: 578d db3d d8bf bdbd a9b0 7bbd bd84 a43c
00000250: 4886 8cbd 1810 69bd 58e1 c73c 44df eabd
00000260: 6564 6bbc 7822 8e3d d55e 02be bfce a3bd
00000270: a7eb 823d a0dc a33d 516c 36bd 9143 6c3d
00000280: a63f a53d 2558 24bd a65b 30bd e2d4 1a3d
00000290: eb5d 0bbd 2dc6 88bd e8c3 c5bc 251b 7c3d
000002a0: 802b f3bc 8244 84bd 1127 1f3c 855e aa3c
000002b0: f21a fc3d 71fc 033e 1459 e6bc c848 a9bd
000002c0: 589f 863d fc3e 103e c706 35bd 49d2 6fbc
000002d0: 9038 c3bd b2f1 9dbd 5825 043e 9cb6 d53d
000002e0: 11ae 843d d5a8 d8bd eb5f 963d 5419 fcbc
000002f0: 94d6 a4bd 5719 c63d 39ed a3bc b924 22bd
00000300: 5a10 cb3d 24cd 623d 0e21 aebd 5bcc b6bd
00000310: ce5e 72bd 157d d5bc 6225 0abd 2156 4bbd
00000320: ff5c 193e 128e 943d cf98 f73d f7e4 fe3d
00000330: 3c6c 613c 5c27 55bd 35a4 b3bc a6a6 483d
00000340: 2682 003e 29a2 77bd 04ed 493c 9207 ef3d
00000350: b3f0 183e 9c17 3cbd 1d30 0b3b fae0 6ebd
00000360: d228 7a3d 7e6b 203d 9735 9bbc 2042 e23c
00000370: bdab 743d d399 c43d 7880 70bd 7b4e 7ebd
00000380: fbb6 453c a9a0 c13d 69a5 93bd 39e1 123e
00000390: ad81 933d f359 b03d f478 d73d 4f65 b2bd
000003a0: 18df 7ebd 8792 15be 20ff 643d 9a53 823a
000003b0: 57a9 e1bc 4d02 fb3d 0c29 943d 2160 ddbd
000003c0: 8a12 993d ffd1 a43d 3cb0 22bd 0cb9 eabc
000003d0: ed2c 0ebe a7ec f1bd b6a6 c8bd b0d5 20bd
000003e0: 0429 08bd 1d0d 933d ccf1 113e 27b9 d23b
000003f0: f712 83bd ebe8 0a3d 336f dabd 87b8 a5bd
0.045883 -0.045131337 0.08581834 -0.008632814 -0.035993997 -0.051052727 -0.09115935 -0.028409585
0.046836972 0.026336115 0.012511448 -0.111066274 0.1445368 0.021622647 -0.06041831 -0.07321665
0.04026208 0.049479652 0.09530467 -0.010856022 0.07550167 0.07454103 -0.13632265 -0.020225203
0.11089331 0.019426197 -0.024218515 0.09181038 -0.08753714 -0.09689038 0.0792643 0.044608083
-0.11712386 0.11850447 -0.084659144 0.056176122 -0.1063587 0.087504886 0.11578273 0.113179825
0.0757342 -0.014638861 -0.018903015 0.13307357 0.10772298 0.044054255 0.04772043 -0.106663205
0.0031513008 -0.0029398298 0.17550874 0.0171566 0.018794267 0.03612467 0.009546683 0.07500975
0.041374687 0.046700805 -0.007420256 0.07747046 0.09375725 0.11845391 0.06761199 0.012050275
-0.07601944 -0.09607016 0.040307518 0.012837351 0.11122426 0.07415694 0.10249567 -0.048891615
-0.0063001886 0.18193993 -0.054126643 -0.0579584 0.15021226 0.06554828 0.028540645 -0.0951119
0.09786151 0.10092146 0.06130479 -0.0707799 0.09534548 0.10077232 -0.13510782 0.04380872
-0.023538407 0.027169876 0.10968463 0.03492969 -0.0963388 0.11944678 -0.10711513 0.15613301
-0.15654725 0.023419818 0.04650812 0.10501097 -0.020736448 0.08979365 0.027388748 0.08795677
-0.0452774 -0.11303606 -0.056233976 0.15468003 -0.042744115 0.0038169674 0.0117471665 -0.075695895
-0.06162011 -0.030052591 0.1603401 0.07137153 0.110898495 -0.100897945 0.057723224 0.0017946248
-0.13716863 -0.046008814 0.030764341 -0.040093325 0.16045485 0.1060967 -0.09937937 0.13884848
-0.061603725 -0.012381497 -0.004053548 0.01850421 -0.085469656 -0.06382741 0.06202621 0.022615638
-0.034633398 0.09040976 0.11219565 0.028971972 0.0032708074 -0.019311516 0.042833406 -0.016056363
0.10720318 -0.09265107 -0.061447773 0.020082826 -0.068615496 -0.056900114 0.024399444 -0.11468366
-0.014367198 0.06940168 -0.12731488 -0.07998418 0.06392603 0.08001065 -0.044536892 0.057681624
0.080687806 -0.040123124 -0.043056153 0.037800677 -0.034025114 -0.06678424 -0.024141267 0.061549325
-0.029683828 -0.06458379 0.009713904 0.020797024 0.12309827 0.12889268 -0.028118648 -0.08265835
0.06573361 0.14086527 -0.044195917 -0.014637538 -0.09532273 -0.07712115 0.1290487 0.104352206
0.06478513 -0.10579077 0.07342514 -0.030773796 -0.0804874 0.09672802 -0.020010578 -0.039585803
0.09915228 0.05537142 -0.085023984 -0.089256965 -0.059172444 -0.02606062 -0.033727057 -0.049642686
0.14976881 0.0725366 0.12089693 0.12446015 0.013758715 -0.05203949 -0.021928886 0.048987053
0.12549648 -0.060457382 0.012324575 0.11671366 0.1493557 -0.045920953 0.0021238395 -0.058320023
0.061074086 0.039165013 -0.018946452 0.027619421 0.059734095 0.09599652 -0.058716267 -0.062086564
0.012067552 0.094544716 -0.07209284 0.14343728 0.07202468 0.086109065 0.10521117 -0.08710729
-0.062224478 -0.14606677 0.05590737 0.0009943128 -0.027546568 0.12256298 0.072343916 -0.10809351
0.07474239 0.08047866 -0.03971885 -0.02865269 -0.13884325 -0.11812716 -0.097974226 -0.03926629
-0.03324224 0.071802355 0.14252394 0.0064307633 -0.06400102 0.033913534 -0.10665741 -0.080918364

fc.2.bias f4 [64]
00000000: 36f1 c63d ed98 9abd 5ac7 053d 7676 e0ba
00000010: 2636 adbd 94c6 a3bd b66c b3bd 7121 fd3d
00000020: 4106 9a3d 2e5f 5bbd ba75 fe3d fb29 32bd
00000030: e9b9 bdbd 53ef a5bd 1b3d 8dbd 02d2 ce3c
00000040: f741 e7bb 1567 ab3d 8b8a adbd cb2d 9fbb
00000050: 6b3a fcbc d1ff 843d 1b4d abbd 8e8b 6d3d
00000060: d897 723d 3b08 84bc 9094 f23d 729c bdbd
00000070: 1baf ca3d b28a b5bd c151 df3c 5fec afbd
00000080: 04b7 cfbd d888 f9bd 4c7e 623d c06b 84bc
00000090: dc17 5d3d 440f 03be 14a7 e3bd 70df 103d
000000a0: 813c ba3c 562b a13d e6bd 0bbd a3b2 44bd
000000b0: a20d 8bbd cfe0 01be e5cb 8d3d 26fe 083e
000000c0: a329 a9bd a72e 56bc 7474 fcbd 144c 04bd
000000d0: 0645 5cbd 563c 133e eb95 8e3d 7242 debd
000000e0: 8ee0 6a3d a03b ed3b 9534 5cbc ed0f 9fbb
000000f0: 0077 63ba 4017 81bd 462e a2bd 6073 1fbc
0.09713976 -0.075486995 0.03266082 -0.0017125148 -0.084575936 -0.0799686 -0.08760969 0.12359894
0.07520724 -0.053557567 0.12424798 -0.043497067 -0.09263975 -0.08102288 -0.068964206 0.025246624
-0.007057424 0.08369271 -0.084736906 -0.004857754 -0.030789575 0.064941056 -0.08364316 0.057994418
0.05922684 -0.016117206 0.11844742 -0.09258355 0.0989668 -0.08864345 0.027260663 -0.08590006
-0.10142329 -0.12184304 0.055296227 -0.01616466 0.053977832 -0.12798792 -0.11115852 0.035369337
0.022733929 0.07869594 -0.03411665 -0.048021924 -0.0678971 -0.12683414 0.069236554 0.133782
-0.08259895 -0.013072646 -0.12326899 -0.032299116 -0.053776763 0.14378485 0.06962188 -0.10852517
0.05734306 0.007239774 -0.013440271 -0.0048541934 -0.0008677095 -0.06303263 -0.07918982 -0.009732097

actor.weight f4 [2, 64]
00000000: 853e 543d 3bd6 2fbe 9b06 7bbd 8e7b f2bd
00000010: 142e c6bd d674 1fbc 53ee 963d 26e3 023e
00000020: 8a96 db3d 555a 1f3e e227 7d3d 1a77 903d
00000030: cc0f dfbc b81a 9abd c878 353e 3df8 39bd
00000040: e67d 14be e3c2 eebd 0284 86bd 710e 723c
00000050: 00fe 433d ffe1 7abd e314 373d b9d1 b0bd
00000060: 6036 f1bd b47c d4bc 9583 dbbd 8868 893c
00000070: 6c16 acbd 48d4 353d 458e b7bd 690b 2dbd
00000080: 3aa3 7c3d ace1 d43c a02d 7fbd 78aa d23c
00000090: cf39 2f3c 8efb 9a3d 3c91 b6bd a201 b23c
000000a0: 97e7 a2bc 63f4 083e 0974 13bd b78c 083e
000000b0: b0c0 ce3c 51c1 ce3d 3aa1 8bbd dcfa 993d
000000c0: 9cc7 633c 35a8 2a3e 90f5 563d 9cba 90bd
000000d0: 6be7 ba3b 0c2c 343d 53aa 903d c84a d3bd
000000e0: bf60 f7bc e068 34bc 1e84 a0bd 52fc ef3c
000000f0: 6e85 893d a3f7 1cbe 9cd1 f03d 4e19 e63d
00000100: 1064 df3d 35e8 3abc bd35 143e 03de 39bd
00000110: 98bb b33c 1d57 163e a3ee 2ebd b87c b8bd
00000120: 31d2 eb3d 2b05 b03c af45 d53d 127a a5bd
00000130: 4db3 b0bd a6b4 023e e5da e9bd de58 f03c
00000140: 0a72 34bc b8b4 8f3d 5391 b33d 5dfe 62bc
00000150: e814 d23c 2cb1 08ba db06 b93d 8c37 fc3d
00000160: dce4 0ebd f551 4d3d 34ba 7abc 0e18 813d
00000170: e940 393d 087f f53c df12 163e 65e9 243e
00000180: 4d11 c6bd 4c56 f83c d96c 5b3d 94fa 4dbd
00000190: 5e8e 22be 4917 5a3d 6a1d b0bd 0433 e5bd
000001a0: 2247 8abb dac0 d33a d8d3 0dbd 4962 e7bd
000001b0: 6031 35bd 38f6 3e3d cb2f f63d e4b8 85bd
000001c0: 8f1d 0e3d d2b5 bb3c 9139 853d 0635 a93d
000001d0: 5b31 823c 7e90 19be f4f6 d8bc 205b 553c
000001e0: 7ba8 03bd ea54 dabd c57d c13d 604c 1abe
000001f0: fcbb 453d 97dc 933d a0aa 813c 8819 98bc
0.051817436 -0.17171566 -0.061285596 -0.118399724 -0.096767575 -0.009732446 0.073696755 0.12781963
0.107220724 0.15561803 0.061805613 0.07053967 -0.027229212 -0.075246274 0.17721856 -0.045402754
-0.14501151 -0.116582654 -0.06568147 0.014773951 0.047849655 -0.061250683 0.044697654 -0.086337514
-0.11777949 -0.02593837 -0.10718457 0.016773477 -0.08402714 0.0443919 -0.08962683 -0.04224721
0.061679102 0.025986515 -0.06229937 0.025716051 0.010694935 0.075675115 -0.0891442 0.021729294
-0.019885821 0.13374476 -0.03599933 0.13334928 0.025238365 0.10095466 -0.06817861 0.07518551
0.013902571 0.16665728 0.05248028 -0.07066843 0.0057038567 0.04398732 0.07063737 -0.10316998
-0.0301975 -0.011011332 -0.07837699 0.02929512 0.06714903 -0.15328841 0.1175873 0.11235295
0.10907757 -0.0114079015 0.14473625 -0.045377742 0.021940038 0.14681669 -0.04270805 -0.09008163
0.115147 0.02148684 0.10413682 -0.08079924 -0.08627949 0.12764224 -0.11418704 0.02933925
-0.011013517 0.07016891 0.08767953 -0.01385459 0.025644735 -0.0005214389 0.09034511 0.12315282
-0.034886226 0.05012699 -0.015303183 0.06303416 0.04522792 0.0299678 0.14655636 0.16104658
-0.096712686 0.030314587 0.053570602 -0.050287798 -0.15874621 0.053244863 -0.0859936 -0.11191371
-0.0042199055 0.0016155497 -0.034625858 -0.11298043 -0.04423654 0.04662153 0.120208345 -0.06529406
0.034696158 0.022913847 0.065051205 0.082620665 0.015892675 -0.14996526 -0.026484944 0.013022214
-0.032143097 -0.10660727 0.09447817 -0.15068197 0.04827498 0.072198085 0.01582843 -0.018566862

actor.bias f4 [2]
00000000: 9b1c efbd be2c e73d
-0.11675378 0.11287831

critic.weight f4 [1, 64]
00000000: f075 a63c 0064 de3b 5064 7ebc 7e06 f2bd
00000010: c075 21bd b0ba e43d 886d 02bd 9cbd 9ebd
00000020: e8a6 ef3c 30ae 973d 280b cc3c a2d2 d1bd
00000030: b0e4 7a3c 9a2d cf3d 643d bb3d b0a7 503d
00000040: 54c6 ebbd 50d6 6d3c 7a26 d4bd 9037 6bbc
00000050: 8892 71bd b0e9 823d 1850 09bd 98c0 74bd
00000060: c0d6 8cbd 48f3 98bd d47a febd 0c35 01bd
00000070: 68da 363d ea4b a93d c88a bc3d 926b c03d
00000080: 60ba c93d 1c1b c9bd 80fb e93a 0013 593a
00000090: c8a6 71bd c2c7 f53d 0a78 80bd c8ca 4abd
000000a0: b0bc 5ebc b2a5 96bd 94d4 783d 3a27 a2bd
000000b0: 9095 c2bc 2cbe 2b3d 32db cebd 8c65 33bd
000000c0: 169a 8abd a481 783d d84e cebc 2c81 253d
000000d0: 00da 983a 5073 2fbc c832 b83d 6866 9b3d
000000e0: 64c2 e13d 107c fd3d 3826 1f3d ead1 f93d
000000f0: 3010 3e3d ec7f 22bd 0080 a23c 9856 b3bd
0.020319909 0.0067868233 -0.015526846 -0.118176445 -0.039418936 0.1116842 -0.03184274 -0.07751009
0.029254392 0.074062705 0.024907663 -0.10245253 0.015313312 0.1011612 0.09142569 0.05094117
-0.115124375 0.014516428 -0.10358901 -0.014356509 -0.058977634 0.063922286 -0.03352365 -0.059753984
-0.06876898 -0.07468277 -0.12425771 -0.03154473 0.044641882 0.082664326 0.09206158 0.093955174
0.09850001 -0.09819624 0.0017851442 0.0008280724 -0.058996946 0.120009914 -0.06272896 -0.049509794
-0.013594791 -0.073558226 0.060749605 -0.07917638 -0.023752958 0.04192941 -0.10100402 -0.043798015
-0.06767671 0.06067051 -0.02518408 0.04040639 0.0011661649 -0.010708645 0.08994061 0.07587892
0.11023405 0.12377179 0.038854808 0.12198241 0.046402156 -0.039672777 0.019836426 -0.08756751
